ir_version: 5
producer_name: "Chainer"
producer_version: "6.2.0"
model_version: 0
graph {
  name: "Graph"
  node {
    input: "Input_0"
    input: "param_conv1_conv_W"
    output: "Convolution2DFunction_0"
    name: "Convolution2DFunction_0"
    op_type: "Conv"
    attribute {
      name: "dilations"
      ints: 1
      ints: 1
      type: INTS
    }
    attribute {
      name: "group"
      i: 1
      type: INT
    }
    attribute {
      name: "kernel_shape"
      ints: 7
      ints: 7
      type: INTS
    }
    attribute {
      name: "pads"
      ints: 3
      ints: 3
      ints: 3
      ints: 3
      type: INTS
    }
    attribute {
      name: "strides"
      ints: 2
      ints: 2
      type: INTS
    }
  }
  node {
    input: "Convolution2DFunction_0"
    input: "param_conv1_bn_gamma"
    input: "param_conv1_bn_beta"
    input: "param_conv1_bn_avg_mean"
    input: "param_conv1_bn_avg_var"
    output: "FixedBatchNormalization_0"
    name: "FixedBatchNormalization_0"
    op_type: "BatchNormalization"
    attribute {
      name: "epsilon"
      f: 1.9999999494757503e-05
      type: FLOAT
    }
    attribute {
      name: "momentum"
      f: 0.0
      type: FLOAT
    }
  }
  node {
    input: "FixedBatchNormalization_0"
    output: "ReLU_0"
    name: "ReLU_0"
    op_type: "Relu"
  }
  node {
    input: "ReLU_0"
    output: "MaxPooling2D_0"
    name: "MaxPooling2D_0"
    op_type: "MaxPool"
    attribute {
      name: "kernel_shape"
      ints: 3
      ints: 3
      type: INTS
    }
    attribute {
      name: "pads"
      ints: 0
      ints: 0
      ints: 1
      ints: 1
      type: INTS
    }
    attribute {
      name: "storage_order"
      i: 0
      type: INT
    }
    attribute {
      name: "strides"
      ints: 2
      ints: 2
      type: INTS
    }
  }
  node {
    input: "MaxPooling2D_0"
    input: "param_res2_a_conv1_conv_W"
    output: "Convolution2DFunction_1"
    name: "Convolution2DFunction_1"
    op_type: "Conv"
    attribute {
      name: "dilations"
      ints: 1
      ints: 1
      type: INTS
    }
    attribute {
      name: "group"
      i: 1
      type: INT
    }
    attribute {
      name: "kernel_shape"
      ints: 1
      ints: 1
      type: INTS
    }
    attribute {
      name: "pads"
      ints: 0
      ints: 0
      ints: 0
      ints: 0
      type: INTS
    }
    attribute {
      name: "strides"
      ints: 1
      ints: 1
      type: INTS
    }
  }
  node {
    input: "MaxPooling2D_0"
    input: "param_res2_a_residual_conv_conv_W"
    output: "Convolution2DFunction_2"
    name: "Convolution2DFunction_2"
    op_type: "Conv"
    attribute {
      name: "dilations"
      ints: 1
      ints: 1
      type: INTS
    }
    attribute {
      name: "group"
      i: 1
      type: INT
    }
    attribute {
      name: "kernel_shape"
      ints: 1
      ints: 1
      type: INTS
    }
    attribute {
      name: "pads"
      ints: 0
      ints: 0
      ints: 0
      ints: 0
      type: INTS
    }
    attribute {
      name: "strides"
      ints: 1
      ints: 1
      type: INTS
    }
  }
  node {
    input: "Convolution2DFunction_1"
    input: "param_res2_a_conv1_bn_gamma"
    input: "param_res2_a_conv1_bn_beta"
    input: "param_res2_a_conv1_bn_avg_mean"
    input: "param_res2_a_conv1_bn_avg_var"
    output: "FixedBatchNormalization_1"
    name: "FixedBatchNormalization_1"
    op_type: "BatchNormalization"
    attribute {
      name: "epsilon"
      f: 1.9999999494757503e-05
      type: FLOAT
    }
    attribute {
      name: "momentum"
      f: 0.0
      type: FLOAT
    }
  }
  node {
    input: "Convolution2DFunction_2"
    input: "param_res2_a_residual_conv_bn_gamma"
    input: "param_res2_a_residual_conv_bn_beta"
    input: "param_res2_a_residual_conv_bn_avg_mean"
    input: "param_res2_a_residual_conv_bn_avg_var"
    output: "FixedBatchNormalization_2"
    name: "FixedBatchNormalization_2"
    op_type: "BatchNormalization"
    attribute {
      name: "epsilon"
      f: 1.9999999494757503e-05
      type: FLOAT
    }
    attribute {
      name: "momentum"
      f: 0.0
      type: FLOAT
    }
  }
  node {
    input: "FixedBatchNormalization_1"
    output: "ReLU_1"
    name: "ReLU_1"
    op_type: "Relu"
  }
  node {
    input: "ReLU_1"
    input: "param_res2_a_conv2_conv_W"
    output: "Convolution2DFunction_3"
    name: "Convolution2DFunction_3"
    op_type: "Conv"
    attribute {
      name: "dilations"
      ints: 1
      ints: 1
      type: INTS
    }
    attribute {
      name: "group"
      i: 1
      type: INT
    }
    attribute {
      name: "kernel_shape"
      ints: 3
      ints: 3
      type: INTS
    }
    attribute {
      name: "pads"
      ints: 1
      ints: 1
      ints: 1
      ints: 1
      type: INTS
    }
    attribute {
      name: "strides"
      ints: 1
      ints: 1
      type: INTS
    }
  }
  node {
    input: "Convolution2DFunction_3"
    input: "param_res2_a_conv2_bn_gamma"
    input: "param_res2_a_conv2_bn_beta"
    input: "param_res2_a_conv2_bn_avg_mean"
    input: "param_res2_a_conv2_bn_avg_var"
    output: "FixedBatchNormalization_3"
    name: "FixedBatchNormalization_3"
    op_type: "BatchNormalization"
    attribute {
      name: "epsilon"
      f: 1.9999999494757503e-05
      type: FLOAT
    }
    attribute {
      name: "momentum"
      f: 0.0
      type: FLOAT
    }
  }
  node {
    input: "FixedBatchNormalization_3"
    output: "ReLU_2"
    name: "ReLU_2"
    op_type: "Relu"
  }
  node {
    input: "ReLU_2"
    input: "param_res2_a_conv3_conv_W"
    output: "Convolution2DFunction_4"
    name: "Convolution2DFunction_4"
    op_type: "Conv"
    attribute {
      name: "dilations"
      ints: 1
      ints: 1
      type: INTS
    }
    attribute {
      name: "group"
      i: 1
      type: INT
    }
    attribute {
      name: "kernel_shape"
      ints: 1
      ints: 1
      type: INTS
    }
    attribute {
      name: "pads"
      ints: 0
      ints: 0
      ints: 0
      ints: 0
      type: INTS
    }
    attribute {
      name: "strides"
      ints: 1
      ints: 1
      type: INTS
    }
  }
  node {
    input: "Convolution2DFunction_4"
    input: "param_res2_a_conv3_bn_gamma"
    input: "param_res2_a_conv3_bn_beta"
    input: "param_res2_a_conv3_bn_avg_mean"
    input: "param_res2_a_conv3_bn_avg_var"
    output: "FixedBatchNormalization_4"
    name: "FixedBatchNormalization_4"
    op_type: "BatchNormalization"
    attribute {
      name: "epsilon"
      f: 1.9999999494757503e-05
      type: FLOAT
    }
    attribute {
      name: "momentum"
      f: 0.0
      type: FLOAT
    }
  }
  node {
    input: "FixedBatchNormalization_4"
    input: "FixedBatchNormalization_2"
    output: "Add_0"
    name: "Add_0"
    op_type: "Add"
  }
  node {
    input: "Add_0"
    output: "ReLU_3"
    name: "ReLU_3"
    op_type: "Relu"
  }
  node {
    input: "ReLU_3"
    input: "param_res2_b1_conv1_conv_W"
    output: "Convolution2DFunction_5"
    name: "Convolution2DFunction_5"
    op_type: "Conv"
    attribute {
      name: "dilations"
      ints: 1
      ints: 1
      type: INTS
    }
    attribute {
      name: "group"
      i: 1
      type: INT
    }
    attribute {
      name: "kernel_shape"
      ints: 1
      ints: 1
      type: INTS
    }
    attribute {
      name: "pads"
      ints: 0
      ints: 0
      ints: 0
      ints: 0
      type: INTS
    }
    attribute {
      name: "strides"
      ints: 1
      ints: 1
      type: INTS
    }
  }
  node {
    input: "Convolution2DFunction_5"
    input: "param_res2_b1_conv1_bn_gamma"
    input: "param_res2_b1_conv1_bn_beta"
    input: "param_res2_b1_conv1_bn_avg_mean"
    input: "param_res2_b1_conv1_bn_avg_var"
    output: "FixedBatchNormalization_5"
    name: "FixedBatchNormalization_5"
    op_type: "BatchNormalization"
    attribute {
      name: "epsilon"
      f: 1.9999999494757503e-05
      type: FLOAT
    }
    attribute {
      name: "momentum"
      f: 0.0
      type: FLOAT
    }
  }
  node {
    input: "FixedBatchNormalization_5"
    output: "ReLU_4"
    name: "ReLU_4"
    op_type: "Relu"
  }
  node {
    input: "ReLU_4"
    input: "param_res2_b1_conv2_conv_W"
    output: "Convolution2DFunction_6"
    name: "Convolution2DFunction_6"
    op_type: "Conv"
    attribute {
      name: "dilations"
      ints: 1
      ints: 1
      type: INTS
    }
    attribute {
      name: "group"
      i: 1
      type: INT
    }
    attribute {
      name: "kernel_shape"
      ints: 3
      ints: 3
      type: INTS
    }
    attribute {
      name: "pads"
      ints: 1
      ints: 1
      ints: 1
      ints: 1
      type: INTS
    }
    attribute {
      name: "strides"
      ints: 1
      ints: 1
      type: INTS
    }
  }
  node {
    input: "Convolution2DFunction_6"
    input: "param_res2_b1_conv2_bn_gamma"
    input: "param_res2_b1_conv2_bn_beta"
    input: "param_res2_b1_conv2_bn_avg_mean"
    input: "param_res2_b1_conv2_bn_avg_var"
    output: "FixedBatchNormalization_6"
    name: "FixedBatchNormalization_6"
    op_type: "BatchNormalization"
    attribute {
      name: "epsilon"
      f: 1.9999999494757503e-05
      type: FLOAT
    }
    attribute {
      name: "momentum"
      f: 0.0
      type: FLOAT
    }
  }
  node {
    input: "FixedBatchNormalization_6"
    output: "ReLU_5"
    name: "ReLU_5"
    op_type: "Relu"
  }
  node {
    input: "ReLU_5"
    input: "param_res2_b1_conv3_conv_W"
    output: "Convolution2DFunction_7"
    name: "Convolution2DFunction_7"
    op_type: "Conv"
    attribute {
      name: "dilations"
      ints: 1
      ints: 1
      type: INTS
    }
    attribute {
      name: "group"
      i: 1
      type: INT
    }
    attribute {
      name: "kernel_shape"
      ints: 1
      ints: 1
      type: INTS
    }
    attribute {
      name: "pads"
      ints: 0
      ints: 0
      ints: 0
      ints: 0
      type: INTS
    }
    attribute {
      name: "strides"
      ints: 1
      ints: 1
      type: INTS
    }
  }
  node {
    input: "Convolution2DFunction_7"
    input: "param_res2_b1_conv3_bn_gamma"
    input: "param_res2_b1_conv3_bn_beta"
    input: "param_res2_b1_conv3_bn_avg_mean"
    input: "param_res2_b1_conv3_bn_avg_var"
    output: "FixedBatchNormalization_7"
    name: "FixedBatchNormalization_7"
    op_type: "BatchNormalization"
    attribute {
      name: "epsilon"
      f: 1.9999999494757503e-05
      type: FLOAT
    }
    attribute {
      name: "momentum"
      f: 0.0
      type: FLOAT
    }
  }
  node {
    input: "FixedBatchNormalization_7"
    input: "ReLU_3"
    output: "Add_1"
    name: "Add_1"
    op_type: "Add"
  }
  node {
    input: "Add_1"
    output: "ReLU_6"
    name: "ReLU_6"
    op_type: "Relu"
  }
  node {
    input: "ReLU_6"
    input: "param_res2_b2_conv1_conv_W"
    output: "Convolution2DFunction_8"
    name: "Convolution2DFunction_8"
    op_type: "Conv"
    attribute {
      name: "dilations"
      ints: 1
      ints: 1
      type: INTS
    }
    attribute {
      name: "group"
      i: 1
      type: INT
    }
    attribute {
      name: "kernel_shape"
      ints: 1
      ints: 1
      type: INTS
    }
    attribute {
      name: "pads"
      ints: 0
      ints: 0
      ints: 0
      ints: 0
      type: INTS
    }
    attribute {
      name: "strides"
      ints: 1
      ints: 1
      type: INTS
    }
  }
  node {
    input: "Convolution2DFunction_8"
    input: "param_res2_b2_conv1_bn_gamma"
    input: "param_res2_b2_conv1_bn_beta"
    input: "param_res2_b2_conv1_bn_avg_mean"
    input: "param_res2_b2_conv1_bn_avg_var"
    output: "FixedBatchNormalization_8"
    name: "FixedBatchNormalization_8"
    op_type: "BatchNormalization"
    attribute {
      name: "epsilon"
      f: 1.9999999494757503e-05
      type: FLOAT
    }
    attribute {
      name: "momentum"
      f: 0.0
      type: FLOAT
    }
  }
  node {
    input: "FixedBatchNormalization_8"
    output: "ReLU_7"
    name: "ReLU_7"
    op_type: "Relu"
  }
  node {
    input: "ReLU_7"
    input: "param_res2_b2_conv2_conv_W"
    output: "Convolution2DFunction_9"
    name: "Convolution2DFunction_9"
    op_type: "Conv"
    attribute {
      name: "dilations"
      ints: 1
      ints: 1
      type: INTS
    }
    attribute {
      name: "group"
      i: 1
      type: INT
    }
    attribute {
      name: "kernel_shape"
      ints: 3
      ints: 3
      type: INTS
    }
    attribute {
      name: "pads"
      ints: 1
      ints: 1
      ints: 1
      ints: 1
      type: INTS
    }
    attribute {
      name: "strides"
      ints: 1
      ints: 1
      type: INTS
    }
  }
  node {
    input: "Convolution2DFunction_9"
    input: "param_res2_b2_conv2_bn_gamma"
    input: "param_res2_b2_conv2_bn_beta"
    input: "param_res2_b2_conv2_bn_avg_mean"
    input: "param_res2_b2_conv2_bn_avg_var"
    output: "FixedBatchNormalization_9"
    name: "FixedBatchNormalization_9"
    op_type: "BatchNormalization"
    attribute {
      name: "epsilon"
      f: 1.9999999494757503e-05
      type: FLOAT
    }
    attribute {
      name: "momentum"
      f: 0.0
      type: FLOAT
    }
  }
  node {
    input: "FixedBatchNormalization_9"
    output: "ReLU_8"
    name: "ReLU_8"
    op_type: "Relu"
  }
  node {
    input: "ReLU_8"
    input: "param_res2_b2_conv3_conv_W"
    output: "Convolution2DFunction_10"
    name: "Convolution2DFunction_10"
    op_type: "Conv"
    attribute {
      name: "dilations"
      ints: 1
      ints: 1
      type: INTS
    }
    attribute {
      name: "group"
      i: 1
      type: INT
    }
    attribute {
      name: "kernel_shape"
      ints: 1
      ints: 1
      type: INTS
    }
    attribute {
      name: "pads"
      ints: 0
      ints: 0
      ints: 0
      ints: 0
      type: INTS
    }
    attribute {
      name: "strides"
      ints: 1
      ints: 1
      type: INTS
    }
  }
  node {
    input: "Convolution2DFunction_10"
    input: "param_res2_b2_conv3_bn_gamma"
    input: "param_res2_b2_conv3_bn_beta"
    input: "param_res2_b2_conv3_bn_avg_mean"
    input: "param_res2_b2_conv3_bn_avg_var"
    output: "FixedBatchNormalization_10"
    name: "FixedBatchNormalization_10"
    op_type: "BatchNormalization"
    attribute {
      name: "epsilon"
      f: 1.9999999494757503e-05
      type: FLOAT
    }
    attribute {
      name: "momentum"
      f: 0.0
      type: FLOAT
    }
  }
  node {
    input: "FixedBatchNormalization_10"
    input: "ReLU_6"
    output: "Add_2"
    name: "Add_2"
    op_type: "Add"
  }
  node {
    input: "Add_2"
    output: "ReLU_9"
    name: "ReLU_9"
    op_type: "Relu"
  }
  node {
    input: "ReLU_9"
    input: "param_res3_a_conv1_conv_W"
    output: "Convolution2DFunction_11"
    name: "Convolution2DFunction_11"
    op_type: "Conv"
    attribute {
      name: "dilations"
      ints: 1
      ints: 1
      type: INTS
    }
    attribute {
      name: "group"
      i: 1
      type: INT
    }
    attribute {
      name: "kernel_shape"
      ints: 1
      ints: 1
      type: INTS
    }
    attribute {
      name: "pads"
      ints: 0
      ints: 0
      ints: 0
      ints: 0
      type: INTS
    }
    attribute {
      name: "strides"
      ints: 1
      ints: 1
      type: INTS
    }
  }
  node {
    input: "ReLU_9"
    input: "param_res3_a_residual_conv_conv_W"
    output: "Convolution2DFunction_12"
    name: "Convolution2DFunction_12"
    op_type: "Conv"
    attribute {
      name: "dilations"
      ints: 1
      ints: 1
      type: INTS
    }
    attribute {
      name: "group"
      i: 1
      type: INT
    }
    attribute {
      name: "kernel_shape"
      ints: 1
      ints: 1
      type: INTS
    }
    attribute {
      name: "pads"
      ints: 0
      ints: 0
      ints: 0
      ints: 0
      type: INTS
    }
    attribute {
      name: "strides"
      ints: 2
      ints: 2
      type: INTS
    }
  }
  node {
    input: "Convolution2DFunction_11"
    input: "param_res3_a_conv1_bn_gamma"
    input: "param_res3_a_conv1_bn_beta"
    input: "param_res3_a_conv1_bn_avg_mean"
    input: "param_res3_a_conv1_bn_avg_var"
    output: "FixedBatchNormalization_11"
    name: "FixedBatchNormalization_11"
    op_type: "BatchNormalization"
    attribute {
      name: "epsilon"
      f: 1.9999999494757503e-05
      type: FLOAT
    }
    attribute {
      name: "momentum"
      f: 0.0
      type: FLOAT
    }
  }
  node {
    input: "Convolution2DFunction_12"
    input: "param_res3_a_residual_conv_bn_gamma"
    input: "param_res3_a_residual_conv_bn_beta"
    input: "param_res3_a_residual_conv_bn_avg_mean"
    input: "param_res3_a_residual_conv_bn_avg_var"
    output: "FixedBatchNormalization_12"
    name: "FixedBatchNormalization_12"
    op_type: "BatchNormalization"
    attribute {
      name: "epsilon"
      f: 1.9999999494757503e-05
      type: FLOAT
    }
    attribute {
      name: "momentum"
      f: 0.0
      type: FLOAT
    }
  }
  node {
    input: "FixedBatchNormalization_11"
    output: "ReLU_10"
    name: "ReLU_10"
    op_type: "Relu"
  }
  node {
    input: "ReLU_10"
    input: "param_res3_a_conv2_conv_W"
    output: "Convolution2DFunction_13"
    name: "Convolution2DFunction_13"
    op_type: "Conv"
    attribute {
      name: "dilations"
      ints: 1
      ints: 1
      type: INTS
    }
    attribute {
      name: "group"
      i: 1
      type: INT
    }
    attribute {
      name: "kernel_shape"
      ints: 3
      ints: 3
      type: INTS
    }
    attribute {
      name: "pads"
      ints: 1
      ints: 1
      ints: 1
      ints: 1
      type: INTS
    }
    attribute {
      name: "strides"
      ints: 2
      ints: 2
      type: INTS
    }
  }
  node {
    input: "Convolution2DFunction_13"
    input: "param_res3_a_conv2_bn_gamma"
    input: "param_res3_a_conv2_bn_beta"
    input: "param_res3_a_conv2_bn_avg_mean"
    input: "param_res3_a_conv2_bn_avg_var"
    output: "FixedBatchNormalization_13"
    name: "FixedBatchNormalization_13"
    op_type: "BatchNormalization"
    attribute {
      name: "epsilon"
      f: 1.9999999494757503e-05
      type: FLOAT
    }
    attribute {
      name: "momentum"
      f: 0.0
      type: FLOAT
    }
  }
  node {
    input: "FixedBatchNormalization_13"
    output: "ReLU_11"
    name: "ReLU_11"
    op_type: "Relu"
  }
  node {
    input: "ReLU_11"
    input: "param_res3_a_conv3_conv_W"
    output: "Convolution2DFunction_14"
    name: "Convolution2DFunction_14"
    op_type: "Conv"
    attribute {
      name: "dilations"
      ints: 1
      ints: 1
      type: INTS
    }
    attribute {
      name: "group"
      i: 1
      type: INT
    }
    attribute {
      name: "kernel_shape"
      ints: 1
      ints: 1
      type: INTS
    }
    attribute {
      name: "pads"
      ints: 0
      ints: 0
      ints: 0
      ints: 0
      type: INTS
    }
    attribute {
      name: "strides"
      ints: 1
      ints: 1
      type: INTS
    }
  }
  node {
    input: "Convolution2DFunction_14"
    input: "param_res3_a_conv3_bn_gamma"
    input: "param_res3_a_conv3_bn_beta"
    input: "param_res3_a_conv3_bn_avg_mean"
    input: "param_res3_a_conv3_bn_avg_var"
    output: "FixedBatchNormalization_14"
    name: "FixedBatchNormalization_14"
    op_type: "BatchNormalization"
    attribute {
      name: "epsilon"
      f: 1.9999999494757503e-05
      type: FLOAT
    }
    attribute {
      name: "momentum"
      f: 0.0
      type: FLOAT
    }
  }
  node {
    input: "FixedBatchNormalization_14"
    input: "FixedBatchNormalization_12"
    output: "Add_3"
    name: "Add_3"
    op_type: "Add"
  }
  node {
    input: "Add_3"
    output: "ReLU_12"
    name: "ReLU_12"
    op_type: "Relu"
  }
  node {
    input: "ReLU_12"
    input: "param_res3_b1_conv1_conv_W"
    output: "Convolution2DFunction_15"
    name: "Convolution2DFunction_15"
    op_type: "Conv"
    attribute {
      name: "dilations"
      ints: 1
      ints: 1
      type: INTS
    }
    attribute {
      name: "group"
      i: 1
      type: INT
    }
    attribute {
      name: "kernel_shape"
      ints: 1
      ints: 1
      type: INTS
    }
    attribute {
      name: "pads"
      ints: 0
      ints: 0
      ints: 0
      ints: 0
      type: INTS
    }
    attribute {
      name: "strides"
      ints: 1
      ints: 1
      type: INTS
    }
  }
  node {
    input: "Convolution2DFunction_15"
    input: "param_res3_b1_conv1_bn_gamma"
    input: "param_res3_b1_conv1_bn_beta"
    input: "param_res3_b1_conv1_bn_avg_mean"
    input: "param_res3_b1_conv1_bn_avg_var"
    output: "FixedBatchNormalization_15"
    name: "FixedBatchNormalization_15"
    op_type: "BatchNormalization"
    attribute {
      name: "epsilon"
      f: 1.9999999494757503e-05
      type: FLOAT
    }
    attribute {
      name: "momentum"
      f: 0.0
      type: FLOAT
    }
  }
  node {
    input: "FixedBatchNormalization_15"
    output: "ReLU_13"
    name: "ReLU_13"
    op_type: "Relu"
  }
  node {
    input: "ReLU_13"
    input: "param_res3_b1_conv2_conv_W"
    output: "Convolution2DFunction_16"
    name: "Convolution2DFunction_16"
    op_type: "Conv"
    attribute {
      name: "dilations"
      ints: 1
      ints: 1
      type: INTS
    }
    attribute {
      name: "group"
      i: 1
      type: INT
    }
    attribute {
      name: "kernel_shape"
      ints: 3
      ints: 3
      type: INTS
    }
    attribute {
      name: "pads"
      ints: 1
      ints: 1
      ints: 1
      ints: 1
      type: INTS
    }
    attribute {
      name: "strides"
      ints: 1
      ints: 1
      type: INTS
    }
  }
  node {
    input: "Convolution2DFunction_16"
    input: "param_res3_b1_conv2_bn_gamma"
    input: "param_res3_b1_conv2_bn_beta"
    input: "param_res3_b1_conv2_bn_avg_mean"
    input: "param_res3_b1_conv2_bn_avg_var"
    output: "FixedBatchNormalization_16"
    name: "FixedBatchNormalization_16"
    op_type: "BatchNormalization"
    attribute {
      name: "epsilon"
      f: 1.9999999494757503e-05
      type: FLOAT
    }
    attribute {
      name: "momentum"
      f: 0.0
      type: FLOAT
    }
  }
  node {
    input: "FixedBatchNormalization_16"
    output: "ReLU_14"
    name: "ReLU_14"
    op_type: "Relu"
  }
  node {
    input: "ReLU_14"
    input: "param_res3_b1_conv3_conv_W"
    output: "Convolution2DFunction_17"
    name: "Convolution2DFunction_17"
    op_type: "Conv"
    attribute {
      name: "dilations"
      ints: 1
      ints: 1
      type: INTS
    }
    attribute {
      name: "group"
      i: 1
      type: INT
    }
    attribute {
      name: "kernel_shape"
      ints: 1
      ints: 1
      type: INTS
    }
    attribute {
      name: "pads"
      ints: 0
      ints: 0
      ints: 0
      ints: 0
      type: INTS
    }
    attribute {
      name: "strides"
      ints: 1
      ints: 1
      type: INTS
    }
  }
  node {
    input: "Convolution2DFunction_17"
    input: "param_res3_b1_conv3_bn_gamma"
    input: "param_res3_b1_conv3_bn_beta"
    input: "param_res3_b1_conv3_bn_avg_mean"
    input: "param_res3_b1_conv3_bn_avg_var"
    output: "FixedBatchNormalization_17"
    name: "FixedBatchNormalization_17"
    op_type: "BatchNormalization"
    attribute {
      name: "epsilon"
      f: 1.9999999494757503e-05
      type: FLOAT
    }
    attribute {
      name: "momentum"
      f: 0.0
      type: FLOAT
    }
  }
  node {
    input: "FixedBatchNormalization_17"
    input: "ReLU_12"
    output: "Add_4"
    name: "Add_4"
    op_type: "Add"
  }
  node {
    input: "Add_4"
    output: "ReLU_15"
    name: "ReLU_15"
    op_type: "Relu"
  }
  node {
    input: "ReLU_15"
    input: "param_res3_b2_conv1_conv_W"
    output: "Convolution2DFunction_18"
    name: "Convolution2DFunction_18"
    op_type: "Conv"
    attribute {
      name: "dilations"
      ints: 1
      ints: 1
      type: INTS
    }
    attribute {
      name: "group"
      i: 1
      type: INT
    }
    attribute {
      name: "kernel_shape"
      ints: 1
      ints: 1
      type: INTS
    }
    attribute {
      name: "pads"
      ints: 0
      ints: 0
      ints: 0
      ints: 0
      type: INTS
    }
    attribute {
      name: "strides"
      ints: 1
      ints: 1
      type: INTS
    }
  }
  node {
    input: "Convolution2DFunction_18"
    input: "param_res3_b2_conv1_bn_gamma"
    input: "param_res3_b2_conv1_bn_beta"
    input: "param_res3_b2_conv1_bn_avg_mean"
    input: "param_res3_b2_conv1_bn_avg_var"
    output: "FixedBatchNormalization_18"
    name: "FixedBatchNormalization_18"
    op_type: "BatchNormalization"
    attribute {
      name: "epsilon"
      f: 1.9999999494757503e-05
      type: FLOAT
    }
    attribute {
      name: "momentum"
      f: 0.0
      type: FLOAT
    }
  }
  node {
    input: "FixedBatchNormalization_18"
    output: "ReLU_16"
    name: "ReLU_16"
    op_type: "Relu"
  }
  node {
    input: "ReLU_16"
    input: "param_res3_b2_conv2_conv_W"
    output: "Convolution2DFunction_19"
    name: "Convolution2DFunction_19"
    op_type: "Conv"
    attribute {
      name: "dilations"
      ints: 1
      ints: 1
      type: INTS
    }
    attribute {
      name: "group"
      i: 1
      type: INT
    }
    attribute {
      name: "kernel_shape"
      ints: 3
      ints: 3
      type: INTS
    }
    attribute {
      name: "pads"
      ints: 1
      ints: 1
      ints: 1
      ints: 1
      type: INTS
    }
    attribute {
      name: "strides"
      ints: 1
      ints: 1
      type: INTS
    }
  }
  node {
    input: "Convolution2DFunction_19"
    input: "param_res3_b2_conv2_bn_gamma"
    input: "param_res3_b2_conv2_bn_beta"
    input: "param_res3_b2_conv2_bn_avg_mean"
    input: "param_res3_b2_conv2_bn_avg_var"
    output: "FixedBatchNormalization_19"
    name: "FixedBatchNormalization_19"
    op_type: "BatchNormalization"
    attribute {
      name: "epsilon"
      f: 1.9999999494757503e-05
      type: FLOAT
    }
    attribute {
      name: "momentum"
      f: 0.0
      type: FLOAT
    }
  }
  node {
    input: "FixedBatchNormalization_19"
    output: "ReLU_17"
    name: "ReLU_17"
    op_type: "Relu"
  }
  node {
    input: "ReLU_17"
    input: "param_res3_b2_conv3_conv_W"
    output: "Convolution2DFunction_20"
    name: "Convolution2DFunction_20"
    op_type: "Conv"
    attribute {
      name: "dilations"
      ints: 1
      ints: 1
      type: INTS
    }
    attribute {
      name: "group"
      i: 1
      type: INT
    }
    attribute {
      name: "kernel_shape"
      ints: 1
      ints: 1
      type: INTS
    }
    attribute {
      name: "pads"
      ints: 0
      ints: 0
      ints: 0
      ints: 0
      type: INTS
    }
    attribute {
      name: "strides"
      ints: 1
      ints: 1
      type: INTS
    }
  }
  node {
    input: "Convolution2DFunction_20"
    input: "param_res3_b2_conv3_bn_gamma"
    input: "param_res3_b2_conv3_bn_beta"
    input: "param_res3_b2_conv3_bn_avg_mean"
    input: "param_res3_b2_conv3_bn_avg_var"
    output: "FixedBatchNormalization_20"
    name: "FixedBatchNormalization_20"
    op_type: "BatchNormalization"
    attribute {
      name: "epsilon"
      f: 1.9999999494757503e-05
      type: FLOAT
    }
    attribute {
      name: "momentum"
      f: 0.0
      type: FLOAT
    }
  }
  node {
    input: "FixedBatchNormalization_20"
    input: "ReLU_15"
    output: "Add_5"
    name: "Add_5"
    op_type: "Add"
  }
  node {
    input: "Add_5"
    output: "ReLU_18"
    name: "ReLU_18"
    op_type: "Relu"
  }
  node {
    input: "ReLU_18"
    input: "param_res3_b3_conv1_conv_W"
    output: "Convolution2DFunction_21"
    name: "Convolution2DFunction_21"
    op_type: "Conv"
    attribute {
      name: "dilations"
      ints: 1
      ints: 1
      type: INTS
    }
    attribute {
      name: "group"
      i: 1
      type: INT
    }
    attribute {
      name: "kernel_shape"
      ints: 1
      ints: 1
      type: INTS
    }
    attribute {
      name: "pads"
      ints: 0
      ints: 0
      ints: 0
      ints: 0
      type: INTS
    }
    attribute {
      name: "strides"
      ints: 1
      ints: 1
      type: INTS
    }
  }
  node {
    input: "Convolution2DFunction_21"
    input: "param_res3_b3_conv1_bn_gamma"
    input: "param_res3_b3_conv1_bn_beta"
    input: "param_res3_b3_conv1_bn_avg_mean"
    input: "param_res3_b3_conv1_bn_avg_var"
    output: "FixedBatchNormalization_21"
    name: "FixedBatchNormalization_21"
    op_type: "BatchNormalization"
    attribute {
      name: "epsilon"
      f: 1.9999999494757503e-05
      type: FLOAT
    }
    attribute {
      name: "momentum"
      f: 0.0
      type: FLOAT
    }
  }
  node {
    input: "FixedBatchNormalization_21"
    output: "ReLU_19"
    name: "ReLU_19"
    op_type: "Relu"
  }
  node {
    input: "ReLU_19"
    input: "param_res3_b3_conv2_conv_W"
    output: "Convolution2DFunction_22"
    name: "Convolution2DFunction_22"
    op_type: "Conv"
    attribute {
      name: "dilations"
      ints: 1
      ints: 1
      type: INTS
    }
    attribute {
      name: "group"
      i: 1
      type: INT
    }
    attribute {
      name: "kernel_shape"
      ints: 3
      ints: 3
      type: INTS
    }
    attribute {
      name: "pads"
      ints: 1
      ints: 1
      ints: 1
      ints: 1
      type: INTS
    }
    attribute {
      name: "strides"
      ints: 1
      ints: 1
      type: INTS
    }
  }
  node {
    input: "Convolution2DFunction_22"
    input: "param_res3_b3_conv2_bn_gamma"
    input: "param_res3_b3_conv2_bn_beta"
    input: "param_res3_b3_conv2_bn_avg_mean"
    input: "param_res3_b3_conv2_bn_avg_var"
    output: "FixedBatchNormalization_22"
    name: "FixedBatchNormalization_22"
    op_type: "BatchNormalization"
    attribute {
      name: "epsilon"
      f: 1.9999999494757503e-05
      type: FLOAT
    }
    attribute {
      name: "momentum"
      f: 0.0
      type: FLOAT
    }
  }
  node {
    input: "FixedBatchNormalization_22"
    output: "ReLU_20"
    name: "ReLU_20"
    op_type: "Relu"
  }
  node {
    input: "ReLU_20"
    input: "param_res3_b3_conv3_conv_W"
    output: "Convolution2DFunction_23"
    name: "Convolution2DFunction_23"
    op_type: "Conv"
    attribute {
      name: "dilations"
      ints: 1
      ints: 1
      type: INTS
    }
    attribute {
      name: "group"
      i: 1
      type: INT
    }
    attribute {
      name: "kernel_shape"
      ints: 1
      ints: 1
      type: INTS
    }
    attribute {
      name: "pads"
      ints: 0
      ints: 0
      ints: 0
      ints: 0
      type: INTS
    }
    attribute {
      name: "strides"
      ints: 1
      ints: 1
      type: INTS
    }
  }
  node {
    input: "Convolution2DFunction_23"
    input: "param_res3_b3_conv3_bn_gamma"
    input: "param_res3_b3_conv3_bn_beta"
    input: "param_res3_b3_conv3_bn_avg_mean"
    input: "param_res3_b3_conv3_bn_avg_var"
    output: "FixedBatchNormalization_23"
    name: "FixedBatchNormalization_23"
    op_type: "BatchNormalization"
    attribute {
      name: "epsilon"
      f: 1.9999999494757503e-05
      type: FLOAT
    }
    attribute {
      name: "momentum"
      f: 0.0
      type: FLOAT
    }
  }
  node {
    input: "FixedBatchNormalization_23"
    input: "ReLU_18"
    output: "Add_6"
    name: "Add_6"
    op_type: "Add"
  }
  node {
    input: "Add_6"
    output: "ReLU_21"
    name: "ReLU_21"
    op_type: "Relu"
  }
  node {
    input: "ReLU_21"
    input: "param_res4_a_conv1_conv_W"
    output: "Convolution2DFunction_24"
    name: "Convolution2DFunction_24"
    op_type: "Conv"
    attribute {
      name: "dilations"
      ints: 1
      ints: 1
      type: INTS
    }
    attribute {
      name: "group"
      i: 1
      type: INT
    }
    attribute {
      name: "kernel_shape"
      ints: 1
      ints: 1
      type: INTS
    }
    attribute {
      name: "pads"
      ints: 0
      ints: 0
      ints: 0
      ints: 0
      type: INTS
    }
    attribute {
      name: "strides"
      ints: 1
      ints: 1
      type: INTS
    }
  }
  node {
    input: "ReLU_21"
    input: "param_res4_a_residual_conv_conv_W"
    output: "Convolution2DFunction_25"
    name: "Convolution2DFunction_25"
    op_type: "Conv"
    attribute {
      name: "dilations"
      ints: 1
      ints: 1
      type: INTS
    }
    attribute {
      name: "group"
      i: 1
      type: INT
    }
    attribute {
      name: "kernel_shape"
      ints: 1
      ints: 1
      type: INTS
    }
    attribute {
      name: "pads"
      ints: 0
      ints: 0
      ints: 0
      ints: 0
      type: INTS
    }
    attribute {
      name: "strides"
      ints: 2
      ints: 2
      type: INTS
    }
  }
  node {
    input: "Convolution2DFunction_24"
    input: "param_res4_a_conv1_bn_gamma"
    input: "param_res4_a_conv1_bn_beta"
    input: "param_res4_a_conv1_bn_avg_mean"
    input: "param_res4_a_conv1_bn_avg_var"
    output: "FixedBatchNormalization_24"
    name: "FixedBatchNormalization_24"
    op_type: "BatchNormalization"
    attribute {
      name: "epsilon"
      f: 1.9999999494757503e-05
      type: FLOAT
    }
    attribute {
      name: "momentum"
      f: 0.0
      type: FLOAT
    }
  }
  node {
    input: "Convolution2DFunction_25"
    input: "param_res4_a_residual_conv_bn_gamma"
    input: "param_res4_a_residual_conv_bn_beta"
    input: "param_res4_a_residual_conv_bn_avg_mean"
    input: "param_res4_a_residual_conv_bn_avg_var"
    output: "FixedBatchNormalization_25"
    name: "FixedBatchNormalization_25"
    op_type: "BatchNormalization"
    attribute {
      name: "epsilon"
      f: 1.9999999494757503e-05
      type: FLOAT
    }
    attribute {
      name: "momentum"
      f: 0.0
      type: FLOAT
    }
  }
  node {
    input: "FixedBatchNormalization_24"
    output: "ReLU_22"
    name: "ReLU_22"
    op_type: "Relu"
  }
  node {
    input: "ReLU_22"
    input: "param_res4_a_conv2_conv_W"
    output: "Convolution2DFunction_26"
    name: "Convolution2DFunction_26"
    op_type: "Conv"
    attribute {
      name: "dilations"
      ints: 1
      ints: 1
      type: INTS
    }
    attribute {
      name: "group"
      i: 1
      type: INT
    }
    attribute {
      name: "kernel_shape"
      ints: 3
      ints: 3
      type: INTS
    }
    attribute {
      name: "pads"
      ints: 1
      ints: 1
      ints: 1
      ints: 1
      type: INTS
    }
    attribute {
      name: "strides"
      ints: 2
      ints: 2
      type: INTS
    }
  }
  node {
    input: "Convolution2DFunction_26"
    input: "param_res4_a_conv2_bn_gamma"
    input: "param_res4_a_conv2_bn_beta"
    input: "param_res4_a_conv2_bn_avg_mean"
    input: "param_res4_a_conv2_bn_avg_var"
    output: "FixedBatchNormalization_26"
    name: "FixedBatchNormalization_26"
    op_type: "BatchNormalization"
    attribute {
      name: "epsilon"
      f: 1.9999999494757503e-05
      type: FLOAT
    }
    attribute {
      name: "momentum"
      f: 0.0
      type: FLOAT
    }
  }
  node {
    input: "FixedBatchNormalization_26"
    output: "ReLU_23"
    name: "ReLU_23"
    op_type: "Relu"
  }
  node {
    input: "ReLU_23"
    input: "param_res4_a_conv3_conv_W"
    output: "Convolution2DFunction_27"
    name: "Convolution2DFunction_27"
    op_type: "Conv"
    attribute {
      name: "dilations"
      ints: 1
      ints: 1
      type: INTS
    }
    attribute {
      name: "group"
      i: 1
      type: INT
    }
    attribute {
      name: "kernel_shape"
      ints: 1
      ints: 1
      type: INTS
    }
    attribute {
      name: "pads"
      ints: 0
      ints: 0
      ints: 0
      ints: 0
      type: INTS
    }
    attribute {
      name: "strides"
      ints: 1
      ints: 1
      type: INTS
    }
  }
  node {
    input: "Convolution2DFunction_27"
    input: "param_res4_a_conv3_bn_gamma"
    input: "param_res4_a_conv3_bn_beta"
    input: "param_res4_a_conv3_bn_avg_mean"
    input: "param_res4_a_conv3_bn_avg_var"
    output: "FixedBatchNormalization_27"
    name: "FixedBatchNormalization_27"
    op_type: "BatchNormalization"
    attribute {
      name: "epsilon"
      f: 1.9999999494757503e-05
      type: FLOAT
    }
    attribute {
      name: "momentum"
      f: 0.0
      type: FLOAT
    }
  }
  node {
    input: "FixedBatchNormalization_27"
    input: "FixedBatchNormalization_25"
    output: "Add_7"
    name: "Add_7"
    op_type: "Add"
  }
  node {
    input: "Add_7"
    output: "ReLU_24"
    name: "ReLU_24"
    op_type: "Relu"
  }
  node {
    input: "ReLU_24"
    input: "param_res4_b1_conv1_conv_W"
    output: "Convolution2DFunction_28"
    name: "Convolution2DFunction_28"
    op_type: "Conv"
    attribute {
      name: "dilations"
      ints: 1
      ints: 1
      type: INTS
    }
    attribute {
      name: "group"
      i: 1
      type: INT
    }
    attribute {
      name: "kernel_shape"
      ints: 1
      ints: 1
      type: INTS
    }
    attribute {
      name: "pads"
      ints: 0
      ints: 0
      ints: 0
      ints: 0
      type: INTS
    }
    attribute {
      name: "strides"
      ints: 1
      ints: 1
      type: INTS
    }
  }
  node {
    input: "Convolution2DFunction_28"
    input: "param_res4_b1_conv1_bn_gamma"
    input: "param_res4_b1_conv1_bn_beta"
    input: "param_res4_b1_conv1_bn_avg_mean"
    input: "param_res4_b1_conv1_bn_avg_var"
    output: "FixedBatchNormalization_28"
    name: "FixedBatchNormalization_28"
    op_type: "BatchNormalization"
    attribute {
      name: "epsilon"
      f: 1.9999999494757503e-05
      type: FLOAT
    }
    attribute {
      name: "momentum"
      f: 0.0
      type: FLOAT
    }
  }
  node {
    input: "FixedBatchNormalization_28"
    output: "ReLU_25"
    name: "ReLU_25"
    op_type: "Relu"
  }
  node {
    input: "ReLU_25"
    input: "param_res4_b1_conv2_conv_W"
    output: "Convolution2DFunction_29"
    name: "Convolution2DFunction_29"
    op_type: "Conv"
    attribute {
      name: "dilations"
      ints: 1
      ints: 1
      type: INTS
    }
    attribute {
      name: "group"
      i: 1
      type: INT
    }
    attribute {
      name: "kernel_shape"
      ints: 3
      ints: 3
      type: INTS
    }
    attribute {
      name: "pads"
      ints: 1
      ints: 1
      ints: 1
      ints: 1
      type: INTS
    }
    attribute {
      name: "strides"
      ints: 1
      ints: 1
      type: INTS
    }
  }
  node {
    input: "Convolution2DFunction_29"
    input: "param_res4_b1_conv2_bn_gamma"
    input: "param_res4_b1_conv2_bn_beta"
    input: "param_res4_b1_conv2_bn_avg_mean"
    input: "param_res4_b1_conv2_bn_avg_var"
    output: "FixedBatchNormalization_29"
    name: "FixedBatchNormalization_29"
    op_type: "BatchNormalization"
    attribute {
      name: "epsilon"
      f: 1.9999999494757503e-05
      type: FLOAT
    }
    attribute {
      name: "momentum"
      f: 0.0
      type: FLOAT
    }
  }
  node {
    input: "FixedBatchNormalization_29"
    output: "ReLU_26"
    name: "ReLU_26"
    op_type: "Relu"
  }
  node {
    input: "ReLU_26"
    input: "param_res4_b1_conv3_conv_W"
    output: "Convolution2DFunction_30"
    name: "Convolution2DFunction_30"
    op_type: "Conv"
    attribute {
      name: "dilations"
      ints: 1
      ints: 1
      type: INTS
    }
    attribute {
      name: "group"
      i: 1
      type: INT
    }
    attribute {
      name: "kernel_shape"
      ints: 1
      ints: 1
      type: INTS
    }
    attribute {
      name: "pads"
      ints: 0
      ints: 0
      ints: 0
      ints: 0
      type: INTS
    }
    attribute {
      name: "strides"
      ints: 1
      ints: 1
      type: INTS
    }
  }
  node {
    input: "Convolution2DFunction_30"
    input: "param_res4_b1_conv3_bn_gamma"
    input: "param_res4_b1_conv3_bn_beta"
    input: "param_res4_b1_conv3_bn_avg_mean"
    input: "param_res4_b1_conv3_bn_avg_var"
    output: "FixedBatchNormalization_30"
    name: "FixedBatchNormalization_30"
    op_type: "BatchNormalization"
    attribute {
      name: "epsilon"
      f: 1.9999999494757503e-05
      type: FLOAT
    }
    attribute {
      name: "momentum"
      f: 0.0
      type: FLOAT
    }
  }
  node {
    input: "FixedBatchNormalization_30"
    input: "ReLU_24"
    output: "Add_8"
    name: "Add_8"
    op_type: "Add"
  }
  node {
    input: "Add_8"
    output: "ReLU_27"
    name: "ReLU_27"
    op_type: "Relu"
  }
  node {
    input: "ReLU_27"
    input: "param_res4_b2_conv1_conv_W"
    output: "Convolution2DFunction_31"
    name: "Convolution2DFunction_31"
    op_type: "Conv"
    attribute {
      name: "dilations"
      ints: 1
      ints: 1
      type: INTS
    }
    attribute {
      name: "group"
      i: 1
      type: INT
    }
    attribute {
      name: "kernel_shape"
      ints: 1
      ints: 1
      type: INTS
    }
    attribute {
      name: "pads"
      ints: 0
      ints: 0
      ints: 0
      ints: 0
      type: INTS
    }
    attribute {
      name: "strides"
      ints: 1
      ints: 1
      type: INTS
    }
  }
  node {
    input: "Convolution2DFunction_31"
    input: "param_res4_b2_conv1_bn_gamma"
    input: "param_res4_b2_conv1_bn_beta"
    input: "param_res4_b2_conv1_bn_avg_mean"
    input: "param_res4_b2_conv1_bn_avg_var"
    output: "FixedBatchNormalization_31"
    name: "FixedBatchNormalization_31"
    op_type: "BatchNormalization"
    attribute {
      name: "epsilon"
      f: 1.9999999494757503e-05
      type: FLOAT
    }
    attribute {
      name: "momentum"
      f: 0.0
      type: FLOAT
    }
  }
  node {
    input: "FixedBatchNormalization_31"
    output: "ReLU_28"
    name: "ReLU_28"
    op_type: "Relu"
  }
  node {
    input: "ReLU_28"
    input: "param_res4_b2_conv2_conv_W"
    output: "Convolution2DFunction_32"
    name: "Convolution2DFunction_32"
    op_type: "Conv"
    attribute {
      name: "dilations"
      ints: 1
      ints: 1
      type: INTS
    }
    attribute {
      name: "group"
      i: 1
      type: INT
    }
    attribute {
      name: "kernel_shape"
      ints: 3
      ints: 3
      type: INTS
    }
    attribute {
      name: "pads"
      ints: 1
      ints: 1
      ints: 1
      ints: 1
      type: INTS
    }
    attribute {
      name: "strides"
      ints: 1
      ints: 1
      type: INTS
    }
  }
  node {
    input: "Convolution2DFunction_32"
    input: "param_res4_b2_conv2_bn_gamma"
    input: "param_res4_b2_conv2_bn_beta"
    input: "param_res4_b2_conv2_bn_avg_mean"
    input: "param_res4_b2_conv2_bn_avg_var"
    output: "FixedBatchNormalization_32"
    name: "FixedBatchNormalization_32"
    op_type: "BatchNormalization"
    attribute {
      name: "epsilon"
      f: 1.9999999494757503e-05
      type: FLOAT
    }
    attribute {
      name: "momentum"
      f: 0.0
      type: FLOAT
    }
  }
  node {
    input: "FixedBatchNormalization_32"
    output: "ReLU_29"
    name: "ReLU_29"
    op_type: "Relu"
  }
  node {
    input: "ReLU_29"
    input: "param_res4_b2_conv3_conv_W"
    output: "Convolution2DFunction_33"
    name: "Convolution2DFunction_33"
    op_type: "Conv"
    attribute {
      name: "dilations"
      ints: 1
      ints: 1
      type: INTS
    }
    attribute {
      name: "group"
      i: 1
      type: INT
    }
    attribute {
      name: "kernel_shape"
      ints: 1
      ints: 1
      type: INTS
    }
    attribute {
      name: "pads"
      ints: 0
      ints: 0
      ints: 0
      ints: 0
      type: INTS
    }
    attribute {
      name: "strides"
      ints: 1
      ints: 1
      type: INTS
    }
  }
  node {
    input: "Convolution2DFunction_33"
    input: "param_res4_b2_conv3_bn_gamma"
    input: "param_res4_b2_conv3_bn_beta"
    input: "param_res4_b2_conv3_bn_avg_mean"
    input: "param_res4_b2_conv3_bn_avg_var"
    output: "FixedBatchNormalization_33"
    name: "FixedBatchNormalization_33"
    op_type: "BatchNormalization"
    attribute {
      name: "epsilon"
      f: 1.9999999494757503e-05
      type: FLOAT
    }
    attribute {
      name: "momentum"
      f: 0.0
      type: FLOAT
    }
  }
  node {
    input: "FixedBatchNormalization_33"
    input: "ReLU_27"
    output: "Add_9"
    name: "Add_9"
    op_type: "Add"
  }
  node {
    input: "Add_9"
    output: "ReLU_30"
    name: "ReLU_30"
    op_type: "Relu"
  }
  node {
    input: "ReLU_30"
    input: "param_res4_b3_conv1_conv_W"
    output: "Convolution2DFunction_34"
    name: "Convolution2DFunction_34"
    op_type: "Conv"
    attribute {
      name: "dilations"
      ints: 1
      ints: 1
      type: INTS
    }
    attribute {
      name: "group"
      i: 1
      type: INT
    }
    attribute {
      name: "kernel_shape"
      ints: 1
      ints: 1
      type: INTS
    }
    attribute {
      name: "pads"
      ints: 0
      ints: 0
      ints: 0
      ints: 0
      type: INTS
    }
    attribute {
      name: "strides"
      ints: 1
      ints: 1
      type: INTS
    }
  }
  node {
    input: "Convolution2DFunction_34"
    input: "param_res4_b3_conv1_bn_gamma"
    input: "param_res4_b3_conv1_bn_beta"
    input: "param_res4_b3_conv1_bn_avg_mean"
    input: "param_res4_b3_conv1_bn_avg_var"
    output: "FixedBatchNormalization_34"
    name: "FixedBatchNormalization_34"
    op_type: "BatchNormalization"
    attribute {
      name: "epsilon"
      f: 1.9999999494757503e-05
      type: FLOAT
    }
    attribute {
      name: "momentum"
      f: 0.0
      type: FLOAT
    }
  }
  node {
    input: "FixedBatchNormalization_34"
    output: "ReLU_31"
    name: "ReLU_31"
    op_type: "Relu"
  }
  node {
    input: "ReLU_31"
    input: "param_res4_b3_conv2_conv_W"
    output: "Convolution2DFunction_35"
    name: "Convolution2DFunction_35"
    op_type: "Conv"
    attribute {
      name: "dilations"
      ints: 1
      ints: 1
      type: INTS
    }
    attribute {
      name: "group"
      i: 1
      type: INT
    }
    attribute {
      name: "kernel_shape"
      ints: 3
      ints: 3
      type: INTS
    }
    attribute {
      name: "pads"
      ints: 1
      ints: 1
      ints: 1
      ints: 1
      type: INTS
    }
    attribute {
      name: "strides"
      ints: 1
      ints: 1
      type: INTS
    }
  }
  node {
    input: "Convolution2DFunction_35"
    input: "param_res4_b3_conv2_bn_gamma"
    input: "param_res4_b3_conv2_bn_beta"
    input: "param_res4_b3_conv2_bn_avg_mean"
    input: "param_res4_b3_conv2_bn_avg_var"
    output: "FixedBatchNormalization_35"
    name: "FixedBatchNormalization_35"
    op_type: "BatchNormalization"
    attribute {
      name: "epsilon"
      f: 1.9999999494757503e-05
      type: FLOAT
    }
    attribute {
      name: "momentum"
      f: 0.0
      type: FLOAT
    }
  }
  node {
    input: "FixedBatchNormalization_35"
    output: "ReLU_32"
    name: "ReLU_32"
    op_type: "Relu"
  }
  node {
    input: "ReLU_32"
    input: "param_res4_b3_conv3_conv_W"
    output: "Convolution2DFunction_36"
    name: "Convolution2DFunction_36"
    op_type: "Conv"
    attribute {
      name: "dilations"
      ints: 1
      ints: 1
      type: INTS
    }
    attribute {
      name: "group"
      i: 1
      type: INT
    }
    attribute {
      name: "kernel_shape"
      ints: 1
      ints: 1
      type: INTS
    }
    attribute {
      name: "pads"
      ints: 0
      ints: 0
      ints: 0
      ints: 0
      type: INTS
    }
    attribute {
      name: "strides"
      ints: 1
      ints: 1
      type: INTS
    }
  }
  node {
    input: "Convolution2DFunction_36"
    input: "param_res4_b3_conv3_bn_gamma"
    input: "param_res4_b3_conv3_bn_beta"
    input: "param_res4_b3_conv3_bn_avg_mean"
    input: "param_res4_b3_conv3_bn_avg_var"
    output: "FixedBatchNormalization_36"
    name: "FixedBatchNormalization_36"
    op_type: "BatchNormalization"
    attribute {
      name: "epsilon"
      f: 1.9999999494757503e-05
      type: FLOAT
    }
    attribute {
      name: "momentum"
      f: 0.0
      type: FLOAT
    }
  }
  node {
    input: "FixedBatchNormalization_36"
    input: "ReLU_30"
    output: "Add_10"
    name: "Add_10"
    op_type: "Add"
  }
  node {
    input: "Add_10"
    output: "ReLU_33"
    name: "ReLU_33"
    op_type: "Relu"
  }
  node {
    input: "ReLU_33"
    input: "param_res4_b4_conv1_conv_W"
    output: "Convolution2DFunction_37"
    name: "Convolution2DFunction_37"
    op_type: "Conv"
    attribute {
      name: "dilations"
      ints: 1
      ints: 1
      type: INTS
    }
    attribute {
      name: "group"
      i: 1
      type: INT
    }
    attribute {
      name: "kernel_shape"
      ints: 1
      ints: 1
      type: INTS
    }
    attribute {
      name: "pads"
      ints: 0
      ints: 0
      ints: 0
      ints: 0
      type: INTS
    }
    attribute {
      name: "strides"
      ints: 1
      ints: 1
      type: INTS
    }
  }
  node {
    input: "Convolution2DFunction_37"
    input: "param_res4_b4_conv1_bn_gamma"
    input: "param_res4_b4_conv1_bn_beta"
    input: "param_res4_b4_conv1_bn_avg_mean"
    input: "param_res4_b4_conv1_bn_avg_var"
    output: "FixedBatchNormalization_37"
    name: "FixedBatchNormalization_37"
    op_type: "BatchNormalization"
    attribute {
      name: "epsilon"
      f: 1.9999999494757503e-05
      type: FLOAT
    }
    attribute {
      name: "momentum"
      f: 0.0
      type: FLOAT
    }
  }
  node {
    input: "FixedBatchNormalization_37"
    output: "ReLU_34"
    name: "ReLU_34"
    op_type: "Relu"
  }
  node {
    input: "ReLU_34"
    input: "param_res4_b4_conv2_conv_W"
    output: "Convolution2DFunction_38"
    name: "Convolution2DFunction_38"
    op_type: "Conv"
    attribute {
      name: "dilations"
      ints: 1
      ints: 1
      type: INTS
    }
    attribute {
      name: "group"
      i: 1
      type: INT
    }
    attribute {
      name: "kernel_shape"
      ints: 3
      ints: 3
      type: INTS
    }
    attribute {
      name: "pads"
      ints: 1
      ints: 1
      ints: 1
      ints: 1
      type: INTS
    }
    attribute {
      name: "strides"
      ints: 1
      ints: 1
      type: INTS
    }
  }
  node {
    input: "Convolution2DFunction_38"
    input: "param_res4_b4_conv2_bn_gamma"
    input: "param_res4_b4_conv2_bn_beta"
    input: "param_res4_b4_conv2_bn_avg_mean"
    input: "param_res4_b4_conv2_bn_avg_var"
    output: "FixedBatchNormalization_38"
    name: "FixedBatchNormalization_38"
    op_type: "BatchNormalization"
    attribute {
      name: "epsilon"
      f: 1.9999999494757503e-05
      type: FLOAT
    }
    attribute {
      name: "momentum"
      f: 0.0
      type: FLOAT
    }
  }
  node {
    input: "FixedBatchNormalization_38"
    output: "ReLU_35"
    name: "ReLU_35"
    op_type: "Relu"
  }
  node {
    input: "ReLU_35"
    input: "param_res4_b4_conv3_conv_W"
    output: "Convolution2DFunction_39"
    name: "Convolution2DFunction_39"
    op_type: "Conv"
    attribute {
      name: "dilations"
      ints: 1
      ints: 1
      type: INTS
    }
    attribute {
      name: "group"
      i: 1
      type: INT
    }
    attribute {
      name: "kernel_shape"
      ints: 1
      ints: 1
      type: INTS
    }
    attribute {
      name: "pads"
      ints: 0
      ints: 0
      ints: 0
      ints: 0
      type: INTS
    }
    attribute {
      name: "strides"
      ints: 1
      ints: 1
      type: INTS
    }
  }
  node {
    input: "Convolution2DFunction_39"
    input: "param_res4_b4_conv3_bn_gamma"
    input: "param_res4_b4_conv3_bn_beta"
    input: "param_res4_b4_conv3_bn_avg_mean"
    input: "param_res4_b4_conv3_bn_avg_var"
    output: "FixedBatchNormalization_39"
    name: "FixedBatchNormalization_39"
    op_type: "BatchNormalization"
    attribute {
      name: "epsilon"
      f: 1.9999999494757503e-05
      type: FLOAT
    }
    attribute {
      name: "momentum"
      f: 0.0
      type: FLOAT
    }
  }
  node {
    input: "FixedBatchNormalization_39"
    input: "ReLU_33"
    output: "Add_11"
    name: "Add_11"
    op_type: "Add"
  }
  node {
    input: "Add_11"
    output: "ReLU_36"
    name: "ReLU_36"
    op_type: "Relu"
  }
  node {
    input: "ReLU_36"
    input: "param_res4_b5_conv1_conv_W"
    output: "Convolution2DFunction_40"
    name: "Convolution2DFunction_40"
    op_type: "Conv"
    attribute {
      name: "dilations"
      ints: 1
      ints: 1
      type: INTS
    }
    attribute {
      name: "group"
      i: 1
      type: INT
    }
    attribute {
      name: "kernel_shape"
      ints: 1
      ints: 1
      type: INTS
    }
    attribute {
      name: "pads"
      ints: 0
      ints: 0
      ints: 0
      ints: 0
      type: INTS
    }
    attribute {
      name: "strides"
      ints: 1
      ints: 1
      type: INTS
    }
  }
  node {
    input: "Convolution2DFunction_40"
    input: "param_res4_b5_conv1_bn_gamma"
    input: "param_res4_b5_conv1_bn_beta"
    input: "param_res4_b5_conv1_bn_avg_mean"
    input: "param_res4_b5_conv1_bn_avg_var"
    output: "FixedBatchNormalization_40"
    name: "FixedBatchNormalization_40"
    op_type: "BatchNormalization"
    attribute {
      name: "epsilon"
      f: 1.9999999494757503e-05
      type: FLOAT
    }
    attribute {
      name: "momentum"
      f: 0.0
      type: FLOAT
    }
  }
  node {
    input: "FixedBatchNormalization_40"
    output: "ReLU_37"
    name: "ReLU_37"
    op_type: "Relu"
  }
  node {
    input: "ReLU_37"
    input: "param_res4_b5_conv2_conv_W"
    output: "Convolution2DFunction_41"
    name: "Convolution2DFunction_41"
    op_type: "Conv"
    attribute {
      name: "dilations"
      ints: 1
      ints: 1
      type: INTS
    }
    attribute {
      name: "group"
      i: 1
      type: INT
    }
    attribute {
      name: "kernel_shape"
      ints: 3
      ints: 3
      type: INTS
    }
    attribute {
      name: "pads"
      ints: 1
      ints: 1
      ints: 1
      ints: 1
      type: INTS
    }
    attribute {
      name: "strides"
      ints: 1
      ints: 1
      type: INTS
    }
  }
  node {
    input: "Convolution2DFunction_41"
    input: "param_res4_b5_conv2_bn_gamma"
    input: "param_res4_b5_conv2_bn_beta"
    input: "param_res4_b5_conv2_bn_avg_mean"
    input: "param_res4_b5_conv2_bn_avg_var"
    output: "FixedBatchNormalization_41"
    name: "FixedBatchNormalization_41"
    op_type: "BatchNormalization"
    attribute {
      name: "epsilon"
      f: 1.9999999494757503e-05
      type: FLOAT
    }
    attribute {
      name: "momentum"
      f: 0.0
      type: FLOAT
    }
  }
  node {
    input: "FixedBatchNormalization_41"
    output: "ReLU_38"
    name: "ReLU_38"
    op_type: "Relu"
  }
  node {
    input: "ReLU_38"
    input: "param_res4_b5_conv3_conv_W"
    output: "Convolution2DFunction_42"
    name: "Convolution2DFunction_42"
    op_type: "Conv"
    attribute {
      name: "dilations"
      ints: 1
      ints: 1
      type: INTS
    }
    attribute {
      name: "group"
      i: 1
      type: INT
    }
    attribute {
      name: "kernel_shape"
      ints: 1
      ints: 1
      type: INTS
    }
    attribute {
      name: "pads"
      ints: 0
      ints: 0
      ints: 0
      ints: 0
      type: INTS
    }
    attribute {
      name: "strides"
      ints: 1
      ints: 1
      type: INTS
    }
  }
  node {
    input: "Convolution2DFunction_42"
    input: "param_res4_b5_conv3_bn_gamma"
    input: "param_res4_b5_conv3_bn_beta"
    input: "param_res4_b5_conv3_bn_avg_mean"
    input: "param_res4_b5_conv3_bn_avg_var"
    output: "FixedBatchNormalization_42"
    name: "FixedBatchNormalization_42"
    op_type: "BatchNormalization"
    attribute {
      name: "epsilon"
      f: 1.9999999494757503e-05
      type: FLOAT
    }
    attribute {
      name: "momentum"
      f: 0.0
      type: FLOAT
    }
  }
  node {
    input: "FixedBatchNormalization_42"
    input: "ReLU_36"
    output: "Add_12"
    name: "Add_12"
    op_type: "Add"
  }
  node {
    input: "Add_12"
    output: "ReLU_39"
    name: "ReLU_39"
    op_type: "Relu"
  }
  node {
    input: "ReLU_39"
    input: "param_res5_a_conv1_conv_W"
    output: "Convolution2DFunction_43"
    name: "Convolution2DFunction_43"
    op_type: "Conv"
    attribute {
      name: "dilations"
      ints: 1
      ints: 1
      type: INTS
    }
    attribute {
      name: "group"
      i: 1
      type: INT
    }
    attribute {
      name: "kernel_shape"
      ints: 1
      ints: 1
      type: INTS
    }
    attribute {
      name: "pads"
      ints: 0
      ints: 0
      ints: 0
      ints: 0
      type: INTS
    }
    attribute {
      name: "strides"
      ints: 1
      ints: 1
      type: INTS
    }
  }
  node {
    input: "ReLU_39"
    input: "param_res5_a_residual_conv_conv_W"
    output: "Convolution2DFunction_44"
    name: "Convolution2DFunction_44"
    op_type: "Conv"
    attribute {
      name: "dilations"
      ints: 1
      ints: 1
      type: INTS
    }
    attribute {
      name: "group"
      i: 1
      type: INT
    }
    attribute {
      name: "kernel_shape"
      ints: 1
      ints: 1
      type: INTS
    }
    attribute {
      name: "pads"
      ints: 0
      ints: 0
      ints: 0
      ints: 0
      type: INTS
    }
    attribute {
      name: "strides"
      ints: 2
      ints: 2
      type: INTS
    }
  }
  node {
    input: "Convolution2DFunction_43"
    input: "param_res5_a_conv1_bn_gamma"
    input: "param_res5_a_conv1_bn_beta"
    input: "param_res5_a_conv1_bn_avg_mean"
    input: "param_res5_a_conv1_bn_avg_var"
    output: "FixedBatchNormalization_43"
    name: "FixedBatchNormalization_43"
    op_type: "BatchNormalization"
    attribute {
      name: "epsilon"
      f: 1.9999999494757503e-05
      type: FLOAT
    }
    attribute {
      name: "momentum"
      f: 0.0
      type: FLOAT
    }
  }
  node {
    input: "Convolution2DFunction_44"
    input: "param_res5_a_residual_conv_bn_gamma"
    input: "param_res5_a_residual_conv_bn_beta"
    input: "param_res5_a_residual_conv_bn_avg_mean"
    input: "param_res5_a_residual_conv_bn_avg_var"
    output: "FixedBatchNormalization_44"
    name: "FixedBatchNormalization_44"
    op_type: "BatchNormalization"
    attribute {
      name: "epsilon"
      f: 1.9999999494757503e-05
      type: FLOAT
    }
    attribute {
      name: "momentum"
      f: 0.0
      type: FLOAT
    }
  }
  node {
    input: "FixedBatchNormalization_43"
    output: "ReLU_40"
    name: "ReLU_40"
    op_type: "Relu"
  }
  node {
    input: "ReLU_40"
    input: "param_res5_a_conv2_conv_W"
    output: "Convolution2DFunction_45"
    name: "Convolution2DFunction_45"
    op_type: "Conv"
    attribute {
      name: "dilations"
      ints: 1
      ints: 1
      type: INTS
    }
    attribute {
      name: "group"
      i: 1
      type: INT
    }
    attribute {
      name: "kernel_shape"
      ints: 3
      ints: 3
      type: INTS
    }
    attribute {
      name: "pads"
      ints: 1
      ints: 1
      ints: 1
      ints: 1
      type: INTS
    }
    attribute {
      name: "strides"
      ints: 2
      ints: 2
      type: INTS
    }
  }
  node {
    input: "Convolution2DFunction_45"
    input: "param_res5_a_conv2_bn_gamma"
    input: "param_res5_a_conv2_bn_beta"
    input: "param_res5_a_conv2_bn_avg_mean"
    input: "param_res5_a_conv2_bn_avg_var"
    output: "FixedBatchNormalization_45"
    name: "FixedBatchNormalization_45"
    op_type: "BatchNormalization"
    attribute {
      name: "epsilon"
      f: 1.9999999494757503e-05
      type: FLOAT
    }
    attribute {
      name: "momentum"
      f: 0.0
      type: FLOAT
    }
  }
  node {
    input: "FixedBatchNormalization_45"
    output: "ReLU_41"
    name: "ReLU_41"
    op_type: "Relu"
  }
  node {
    input: "ReLU_41"
    input: "param_res5_a_conv3_conv_W"
    output: "Convolution2DFunction_46"
    name: "Convolution2DFunction_46"
    op_type: "Conv"
    attribute {
      name: "dilations"
      ints: 1
      ints: 1
      type: INTS
    }
    attribute {
      name: "group"
      i: 1
      type: INT
    }
    attribute {
      name: "kernel_shape"
      ints: 1
      ints: 1
      type: INTS
    }
    attribute {
      name: "pads"
      ints: 0
      ints: 0
      ints: 0
      ints: 0
      type: INTS
    }
    attribute {
      name: "strides"
      ints: 1
      ints: 1
      type: INTS
    }
  }
  node {
    input: "Convolution2DFunction_46"
    input: "param_res5_a_conv3_bn_gamma"
    input: "param_res5_a_conv3_bn_beta"
    input: "param_res5_a_conv3_bn_avg_mean"
    input: "param_res5_a_conv3_bn_avg_var"
    output: "FixedBatchNormalization_46"
    name: "FixedBatchNormalization_46"
    op_type: "BatchNormalization"
    attribute {
      name: "epsilon"
      f: 1.9999999494757503e-05
      type: FLOAT
    }
    attribute {
      name: "momentum"
      f: 0.0
      type: FLOAT
    }
  }
  node {
    input: "FixedBatchNormalization_46"
    input: "FixedBatchNormalization_44"
    output: "Add_13"
    name: "Add_13"
    op_type: "Add"
  }
  node {
    input: "Add_13"
    output: "ReLU_42"
    name: "ReLU_42"
    op_type: "Relu"
  }
  node {
    input: "ReLU_42"
    input: "param_res5_b1_conv1_conv_W"
    output: "Convolution2DFunction_47"
    name: "Convolution2DFunction_47"
    op_type: "Conv"
    attribute {
      name: "dilations"
      ints: 1
      ints: 1
      type: INTS
    }
    attribute {
      name: "group"
      i: 1
      type: INT
    }
    attribute {
      name: "kernel_shape"
      ints: 1
      ints: 1
      type: INTS
    }
    attribute {
      name: "pads"
      ints: 0
      ints: 0
      ints: 0
      ints: 0
      type: INTS
    }
    attribute {
      name: "strides"
      ints: 1
      ints: 1
      type: INTS
    }
  }
  node {
    input: "Convolution2DFunction_47"
    input: "param_res5_b1_conv1_bn_gamma"
    input: "param_res5_b1_conv1_bn_beta"
    input: "param_res5_b1_conv1_bn_avg_mean"
    input: "param_res5_b1_conv1_bn_avg_var"
    output: "FixedBatchNormalization_47"
    name: "FixedBatchNormalization_47"
    op_type: "BatchNormalization"
    attribute {
      name: "epsilon"
      f: 1.9999999494757503e-05
      type: FLOAT
    }
    attribute {
      name: "momentum"
      f: 0.0
      type: FLOAT
    }
  }
  node {
    input: "FixedBatchNormalization_47"
    output: "ReLU_43"
    name: "ReLU_43"
    op_type: "Relu"
  }
  node {
    input: "ReLU_43"
    input: "param_res5_b1_conv2_conv_W"
    output: "Convolution2DFunction_48"
    name: "Convolution2DFunction_48"
    op_type: "Conv"
    attribute {
      name: "dilations"
      ints: 1
      ints: 1
      type: INTS
    }
    attribute {
      name: "group"
      i: 1
      type: INT
    }
    attribute {
      name: "kernel_shape"
      ints: 3
      ints: 3
      type: INTS
    }
    attribute {
      name: "pads"
      ints: 1
      ints: 1
      ints: 1
      ints: 1
      type: INTS
    }
    attribute {
      name: "strides"
      ints: 1
      ints: 1
      type: INTS
    }
  }
  node {
    input: "Convolution2DFunction_48"
    input: "param_res5_b1_conv2_bn_gamma"
    input: "param_res5_b1_conv2_bn_beta"
    input: "param_res5_b1_conv2_bn_avg_mean"
    input: "param_res5_b1_conv2_bn_avg_var"
    output: "FixedBatchNormalization_48"
    name: "FixedBatchNormalization_48"
    op_type: "BatchNormalization"
    attribute {
      name: "epsilon"
      f: 1.9999999494757503e-05
      type: FLOAT
    }
    attribute {
      name: "momentum"
      f: 0.0
      type: FLOAT
    }
  }
  node {
    input: "FixedBatchNormalization_48"
    output: "ReLU_44"
    name: "ReLU_44"
    op_type: "Relu"
  }
  node {
    input: "ReLU_44"
    input: "param_res5_b1_conv3_conv_W"
    output: "Convolution2DFunction_49"
    name: "Convolution2DFunction_49"
    op_type: "Conv"
    attribute {
      name: "dilations"
      ints: 1
      ints: 1
      type: INTS
    }
    attribute {
      name: "group"
      i: 1
      type: INT
    }
    attribute {
      name: "kernel_shape"
      ints: 1
      ints: 1
      type: INTS
    }
    attribute {
      name: "pads"
      ints: 0
      ints: 0
      ints: 0
      ints: 0
      type: INTS
    }
    attribute {
      name: "strides"
      ints: 1
      ints: 1
      type: INTS
    }
  }
  node {
    input: "Convolution2DFunction_49"
    input: "param_res5_b1_conv3_bn_gamma"
    input: "param_res5_b1_conv3_bn_beta"
    input: "param_res5_b1_conv3_bn_avg_mean"
    input: "param_res5_b1_conv3_bn_avg_var"
    output: "FixedBatchNormalization_49"
    name: "FixedBatchNormalization_49"
    op_type: "BatchNormalization"
    attribute {
      name: "epsilon"
      f: 1.9999999494757503e-05
      type: FLOAT
    }
    attribute {
      name: "momentum"
      f: 0.0
      type: FLOAT
    }
  }
  node {
    input: "FixedBatchNormalization_49"
    input: "ReLU_42"
    output: "Add_14"
    name: "Add_14"
    op_type: "Add"
  }
  node {
    input: "Add_14"
    output: "ReLU_45"
    name: "ReLU_45"
    op_type: "Relu"
  }
  node {
    input: "ReLU_45"
    input: "param_res5_b2_conv1_conv_W"
    output: "Convolution2DFunction_50"
    name: "Convolution2DFunction_50"
    op_type: "Conv"
    attribute {
      name: "dilations"
      ints: 1
      ints: 1
      type: INTS
    }
    attribute {
      name: "group"
      i: 1
      type: INT
    }
    attribute {
      name: "kernel_shape"
      ints: 1
      ints: 1
      type: INTS
    }
    attribute {
      name: "pads"
      ints: 0
      ints: 0
      ints: 0
      ints: 0
      type: INTS
    }
    attribute {
      name: "strides"
      ints: 1
      ints: 1
      type: INTS
    }
  }
  node {
    input: "Convolution2DFunction_50"
    input: "param_res5_b2_conv1_bn_gamma"
    input: "param_res5_b2_conv1_bn_beta"
    input: "param_res5_b2_conv1_bn_avg_mean"
    input: "param_res5_b2_conv1_bn_avg_var"
    output: "FixedBatchNormalization_50"
    name: "FixedBatchNormalization_50"
    op_type: "BatchNormalization"
    attribute {
      name: "epsilon"
      f: 1.9999999494757503e-05
      type: FLOAT
    }
    attribute {
      name: "momentum"
      f: 0.0
      type: FLOAT
    }
  }
  node {
    input: "FixedBatchNormalization_50"
    output: "ReLU_46"
    name: "ReLU_46"
    op_type: "Relu"
  }
  node {
    input: "ReLU_46"
    input: "param_res5_b2_conv2_conv_W"
    output: "Convolution2DFunction_51"
    name: "Convolution2DFunction_51"
    op_type: "Conv"
    attribute {
      name: "dilations"
      ints: 1
      ints: 1
      type: INTS
    }
    attribute {
      name: "group"
      i: 1
      type: INT
    }
    attribute {
      name: "kernel_shape"
      ints: 3
      ints: 3
      type: INTS
    }
    attribute {
      name: "pads"
      ints: 1
      ints: 1
      ints: 1
      ints: 1
      type: INTS
    }
    attribute {
      name: "strides"
      ints: 1
      ints: 1
      type: INTS
    }
  }
  node {
    input: "Convolution2DFunction_51"
    input: "param_res5_b2_conv2_bn_gamma"
    input: "param_res5_b2_conv2_bn_beta"
    input: "param_res5_b2_conv2_bn_avg_mean"
    input: "param_res5_b2_conv2_bn_avg_var"
    output: "FixedBatchNormalization_51"
    name: "FixedBatchNormalization_51"
    op_type: "BatchNormalization"
    attribute {
      name: "epsilon"
      f: 1.9999999494757503e-05
      type: FLOAT
    }
    attribute {
      name: "momentum"
      f: 0.0
      type: FLOAT
    }
  }
  node {
    input: "FixedBatchNormalization_51"
    output: "ReLU_47"
    name: "ReLU_47"
    op_type: "Relu"
  }
  node {
    input: "ReLU_47"
    input: "param_res5_b2_conv3_conv_W"
    output: "Convolution2DFunction_52"
    name: "Convolution2DFunction_52"
    op_type: "Conv"
    attribute {
      name: "dilations"
      ints: 1
      ints: 1
      type: INTS
    }
    attribute {
      name: "group"
      i: 1
      type: INT
    }
    attribute {
      name: "kernel_shape"
      ints: 1
      ints: 1
      type: INTS
    }
    attribute {
      name: "pads"
      ints: 0
      ints: 0
      ints: 0
      ints: 0
      type: INTS
    }
    attribute {
      name: "strides"
      ints: 1
      ints: 1
      type: INTS
    }
  }
  node {
    input: "Convolution2DFunction_52"
    input: "param_res5_b2_conv3_bn_gamma"
    input: "param_res5_b2_conv3_bn_beta"
    input: "param_res5_b2_conv3_bn_avg_mean"
    input: "param_res5_b2_conv3_bn_avg_var"
    output: "FixedBatchNormalization_52"
    name: "FixedBatchNormalization_52"
    op_type: "BatchNormalization"
    attribute {
      name: "epsilon"
      f: 1.9999999494757503e-05
      type: FLOAT
    }
    attribute {
      name: "momentum"
      f: 0.0
      type: FLOAT
    }
  }
  node {
    input: "FixedBatchNormalization_52"
    input: "ReLU_45"
    output: "Add_15"
    name: "Add_15"
    op_type: "Add"
  }
  node {
    input: "Add_15"
    output: "ReLU_48"
    name: "ReLU_48"
    op_type: "Relu"
  }
  node {
    input: "ReLU_48"
    output: "Sum_0"
    name: "Sum_0"
    op_type: "ReduceSum"
    attribute {
      name: "axes"
      ints: 2
      ints: 3
      type: INTS
    }
    attribute {
      name: "keepdims"
      i: 0
      type: INT
    }
  }
  node {
    output: "MulConstant_0_const_value"
    name: "MulConstant_0"
    op_type: "Constant"
    attribute {
      name: "value"
      t {
        data_type: 1
        float_data: 0.020408162847161293
        name: "MulConstant_0_const_value"
      }
      type: TENSOR
    }
  }
  node {
    input: "Sum_0"
    input: "MulConstant_0_const_value"
    output: "MulConstant_0"
    name: "MulConstant_0"
    op_type: "Mul"
  }
  node {
    input: "MulConstant_0"
    input: "param_fc6_W"
    input: "param_fc6_b"
    output: "LinearFunction_0"
    name: "LinearFunction_0"
    op_type: "Gemm"
    attribute {
      name: "alpha"
      f: 1.0
      type: FLOAT
    }
    attribute {
      name: "beta"
      f: 1.0
      type: FLOAT
    }
    attribute {
      name: "transA"
      i: 0
      type: INT
    }
    attribute {
      name: "transB"
      i: 1
      type: INT
    }
  }
  node {
    input: "LinearFunction_0"
    output: "Softmax_0"
    name: "Softmax_0"
    op_type: "Softmax"
    attribute {
      name: "axis"
      i: 1
      type: INT
    }
  }
  initializer {
      dims: 64
      data_type: 1
      name: "param_conv1_bn_beta"
  }
  initializer {
      dims: 64
      data_type: 1
      name: "param_conv1_bn_gamma"
  }
  initializer {
      dims: 64
      dims: 3
      dims: 7
      dims: 7
      data_type: 1
      name: "param_conv1_conv_W"
  }
  initializer {
      dims: 1000
      dims: 2048
      data_type: 1
      name: "param_fc6_W"
  }
  initializer {
      dims: 1000
      data_type: 1
      name: "param_fc6_b"
  }
  initializer {
      dims: 64
      data_type: 1
      name: "param_res2_a_conv1_bn_beta"
  }
  initializer {
      dims: 64
      data_type: 1
      name: "param_res2_a_conv1_bn_gamma"
  }
  initializer {
      dims: 64
      dims: 64
      dims: 1
      dims: 1
      data_type: 1
      name: "param_res2_a_conv1_conv_W"
  }
  initializer {
      dims: 64
      data_type: 1
      name: "param_res2_a_conv2_bn_beta"
  }
  initializer {
      dims: 64
      data_type: 1
      name: "param_res2_a_conv2_bn_gamma"
  }
  initializer {
      dims: 64
      dims: 64
      dims: 3
      dims: 3
      data_type: 1
      name: "param_res2_a_conv2_conv_W"
  }
  initializer {
      dims: 256
      data_type: 1
      name: "param_res2_a_conv3_bn_beta"
  }
  initializer {
      dims: 256
      data_type: 1
      name: "param_res2_a_conv3_bn_gamma"
  }
  initializer {
      dims: 256
      dims: 64
      dims: 1
      dims: 1
      data_type: 1
      name: "param_res2_a_conv3_conv_W"
  }
  initializer {
      dims: 256
      data_type: 1
      name: "param_res2_a_residual_conv_bn_beta"
  }
  initializer {
      dims: 256
      data_type: 1
      name: "param_res2_a_residual_conv_bn_gamma"
  }
  initializer {
      dims: 256
      dims: 64
      dims: 1
      dims: 1
      data_type: 1
      name: "param_res2_a_residual_conv_conv_W"
  }
  initializer {
      dims: 64
      data_type: 1
      name: "param_res2_b1_conv1_bn_beta"
  }
  initializer {
      dims: 64
      data_type: 1
      name: "param_res2_b1_conv1_bn_gamma"
  }
  initializer {
      dims: 64
      dims: 256
      dims: 1
      dims: 1
      data_type: 1
      name: "param_res2_b1_conv1_conv_W"
  }
  initializer {
      dims: 64
      data_type: 1
      name: "param_res2_b1_conv2_bn_beta"
  }
  initializer {
      dims: 64
      data_type: 1
      name: "param_res2_b1_conv2_bn_gamma"
  }
  initializer {
      dims: 64
      dims: 64
      dims: 3
      dims: 3
      data_type: 1
      name: "param_res2_b1_conv2_conv_W"
  }
  initializer {
      dims: 256
      data_type: 1
      name: "param_res2_b1_conv3_bn_beta"
  }
  initializer {
      dims: 256
      data_type: 1
      name: "param_res2_b1_conv3_bn_gamma"
  }
  initializer {
      dims: 256
      dims: 64
      dims: 1
      dims: 1
      data_type: 1
      name: "param_res2_b1_conv3_conv_W"
  }
  initializer {
      dims: 64
      data_type: 1
      name: "param_res2_b2_conv1_bn_beta"
  }
  initializer {
      dims: 64
      data_type: 1
      name: "param_res2_b2_conv1_bn_gamma"
  }
  initializer {
      dims: 64
      dims: 256
      dims: 1
      dims: 1
      data_type: 1
      name: "param_res2_b2_conv1_conv_W"
  }
  initializer {
      dims: 64
      data_type: 1
      name: "param_res2_b2_conv2_bn_beta"
  }
  initializer {
      dims: 64
      data_type: 1
      name: "param_res2_b2_conv2_bn_gamma"
  }
  initializer {
      dims: 64
      dims: 64
      dims: 3
      dims: 3
      data_type: 1
      name: "param_res2_b2_conv2_conv_W"
  }
  initializer {
      dims: 256
      data_type: 1
      name: "param_res2_b2_conv3_bn_beta"
  }
  initializer {
      dims: 256
      data_type: 1
      name: "param_res2_b2_conv3_bn_gamma"
  }
  initializer {
      dims: 256
      dims: 64
      dims: 1
      dims: 1
      data_type: 1
      name: "param_res2_b2_conv3_conv_W"
  }
  initializer {
      dims: 128
      data_type: 1
      name: "param_res3_a_conv1_bn_beta"
  }
  initializer {
      dims: 128
      data_type: 1
      name: "param_res3_a_conv1_bn_gamma"
  }
  initializer {
      dims: 128
      dims: 256
      dims: 1
      dims: 1
      data_type: 1
      name: "param_res3_a_conv1_conv_W"
  }
  initializer {
      dims: 128
      data_type: 1
      name: "param_res3_a_conv2_bn_beta"
  }
  initializer {
      dims: 128
      data_type: 1
      name: "param_res3_a_conv2_bn_gamma"
  }
  initializer {
      dims: 128
      dims: 128
      dims: 3
      dims: 3
      data_type: 1
      name: "param_res3_a_conv2_conv_W"
  }
  initializer {
      dims: 512
      data_type: 1
      name: "param_res3_a_conv3_bn_beta"
  }
  initializer {
      dims: 512
      data_type: 1
      name: "param_res3_a_conv3_bn_gamma"
  }
  initializer {
      dims: 512
      dims: 128
      dims: 1
      dims: 1
      data_type: 1
      name: "param_res3_a_conv3_conv_W"
  }
  initializer {
      dims: 512
      data_type: 1
      name: "param_res3_a_residual_conv_bn_beta"
  }
  initializer {
      dims: 512
      data_type: 1
      name: "param_res3_a_residual_conv_bn_gamma"
  }
  initializer {
      dims: 512
      dims: 256
      dims: 1
      dims: 1
      data_type: 1
      name: "param_res3_a_residual_conv_conv_W"
  }
  initializer {
      dims: 128
      data_type: 1
      name: "param_res3_b1_conv1_bn_beta"
  }
  initializer {
      dims: 128
      data_type: 1
      name: "param_res3_b1_conv1_bn_gamma"
  }
  initializer {
      dims: 128
      dims: 512
      dims: 1
      dims: 1
      data_type: 1
      name: "param_res3_b1_conv1_conv_W"
  }
  initializer {
      dims: 128
      data_type: 1
      name: "param_res3_b1_conv2_bn_beta"
  }
  initializer {
      dims: 128
      data_type: 1
      name: "param_res3_b1_conv2_bn_gamma"
  }
  initializer {
      dims: 128
      dims: 128
      dims: 3
      dims: 3
      data_type: 1
      name: "param_res3_b1_conv2_conv_W"
  }
  initializer {
      dims: 512
      data_type: 1
      name: "param_res3_b1_conv3_bn_beta"
  }
  initializer {
      dims: 512
      data_type: 1
      name: "param_res3_b1_conv3_bn_gamma"
  }
  initializer {
      dims: 512
      dims: 128
      dims: 1
      dims: 1
      data_type: 1
      name: "param_res3_b1_conv3_conv_W"
  }
  initializer {
      dims: 128
      data_type: 1
      name: "param_res3_b2_conv1_bn_beta"
  }
  initializer {
      dims: 128
      data_type: 1
      name: "param_res3_b2_conv1_bn_gamma"
  }
  initializer {
      dims: 128
      dims: 512
      dims: 1
      dims: 1
      data_type: 1
      name: "param_res3_b2_conv1_conv_W"
  }
  initializer {
      dims: 128
      data_type: 1
      name: "param_res3_b2_conv2_bn_beta"
  }
  initializer {
      dims: 128
      data_type: 1
      name: "param_res3_b2_conv2_bn_gamma"
  }
  initializer {
      dims: 128
      dims: 128
      dims: 3
      dims: 3
      data_type: 1
      name: "param_res3_b2_conv2_conv_W"
  }
  initializer {
      dims: 512
      data_type: 1
      name: "param_res3_b2_conv3_bn_beta"
  }
  initializer {
      dims: 512
      data_type: 1
      name: "param_res3_b2_conv3_bn_gamma"
  }
  initializer {
      dims: 512
      dims: 128
      dims: 1
      dims: 1
      data_type: 1
      name: "param_res3_b2_conv3_conv_W"
  }
  initializer {
      dims: 128
      data_type: 1
      name: "param_res3_b3_conv1_bn_beta"
  }
  initializer {
      dims: 128
      data_type: 1
      name: "param_res3_b3_conv1_bn_gamma"
  }
  initializer {
      dims: 128
      dims: 512
      dims: 1
      dims: 1
      data_type: 1
      name: "param_res3_b3_conv1_conv_W"
  }
  initializer {
      dims: 128
      data_type: 1
      name: "param_res3_b3_conv2_bn_beta"
  }
  initializer {
      dims: 128
      data_type: 1
      name: "param_res3_b3_conv2_bn_gamma"
  }
  initializer {
      dims: 128
      dims: 128
      dims: 3
      dims: 3
      data_type: 1
      name: "param_res3_b3_conv2_conv_W"
  }
  initializer {
      dims: 512
      data_type: 1
      name: "param_res3_b3_conv3_bn_beta"
  }
  initializer {
      dims: 512
      data_type: 1
      name: "param_res3_b3_conv3_bn_gamma"
  }
  initializer {
      dims: 512
      dims: 128
      dims: 1
      dims: 1
      data_type: 1
      name: "param_res3_b3_conv3_conv_W"
  }
  initializer {
      dims: 256
      data_type: 1
      name: "param_res4_a_conv1_bn_beta"
  }
  initializer {
      dims: 256
      data_type: 1
      name: "param_res4_a_conv1_bn_gamma"
  }
  initializer {
      dims: 256
      dims: 512
      dims: 1
      dims: 1
      data_type: 1
      name: "param_res4_a_conv1_conv_W"
  }
  initializer {
      dims: 256
      data_type: 1
      name: "param_res4_a_conv2_bn_beta"
  }
  initializer {
      dims: 256
      data_type: 1
      name: "param_res4_a_conv2_bn_gamma"
  }
  initializer {
      dims: 256
      dims: 256
      dims: 3
      dims: 3
      data_type: 1
      name: "param_res4_a_conv2_conv_W"
  }
  initializer {
      dims: 1024
      data_type: 1
      name: "param_res4_a_conv3_bn_beta"
  }
  initializer {
      dims: 1024
      data_type: 1
      name: "param_res4_a_conv3_bn_gamma"
  }
  initializer {
      dims: 1024
      dims: 256
      dims: 1
      dims: 1
      data_type: 1
      name: "param_res4_a_conv3_conv_W"
  }
  initializer {
      dims: 1024
      data_type: 1
      name: "param_res4_a_residual_conv_bn_beta"
  }
  initializer {
      dims: 1024
      data_type: 1
      name: "param_res4_a_residual_conv_bn_gamma"
  }
  initializer {
      dims: 1024
      dims: 512
      dims: 1
      dims: 1
      data_type: 1
      name: "param_res4_a_residual_conv_conv_W"
  }
  initializer {
      dims: 256
      data_type: 1
      name: "param_res4_b1_conv1_bn_beta"
  }
  initializer {
      dims: 256
      data_type: 1
      name: "param_res4_b1_conv1_bn_gamma"
  }
  initializer {
      dims: 256
      dims: 1024
      dims: 1
      dims: 1
      data_type: 1
      name: "param_res4_b1_conv1_conv_W"
  }
  initializer {
      dims: 256
      data_type: 1
      name: "param_res4_b1_conv2_bn_beta"
  }
  initializer {
      dims: 256
      data_type: 1
      name: "param_res4_b1_conv2_bn_gamma"
  }
  initializer {
      dims: 256
      dims: 256
      dims: 3
      dims: 3
      data_type: 1
      name: "param_res4_b1_conv2_conv_W"
  }
  initializer {
      dims: 1024
      data_type: 1
      name: "param_res4_b1_conv3_bn_beta"
  }
  initializer {
      dims: 1024
      data_type: 1
      name: "param_res4_b1_conv3_bn_gamma"
  }
  initializer {
      dims: 1024
      dims: 256
      dims: 1
      dims: 1
      data_type: 1
      name: "param_res4_b1_conv3_conv_W"
  }
  initializer {
      dims: 256
      data_type: 1
      name: "param_res4_b2_conv1_bn_beta"
  }
  initializer {
      dims: 256
      data_type: 1
      name: "param_res4_b2_conv1_bn_gamma"
  }
  initializer {
      dims: 256
      dims: 1024
      dims: 1
      dims: 1
      data_type: 1
      name: "param_res4_b2_conv1_conv_W"
  }
  initializer {
      dims: 256
      data_type: 1
      name: "param_res4_b2_conv2_bn_beta"
  }
  initializer {
      dims: 256
      data_type: 1
      name: "param_res4_b2_conv2_bn_gamma"
  }
  initializer {
      dims: 256
      dims: 256
      dims: 3
      dims: 3
      data_type: 1
      name: "param_res4_b2_conv2_conv_W"
  }
  initializer {
      dims: 1024
      data_type: 1
      name: "param_res4_b2_conv3_bn_beta"
  }
  initializer {
      dims: 1024
      data_type: 1
      name: "param_res4_b2_conv3_bn_gamma"
  }
  initializer {
      dims: 1024
      dims: 256
      dims: 1
      dims: 1
      data_type: 1
      name: "param_res4_b2_conv3_conv_W"
  }
  initializer {
      dims: 256
      data_type: 1
      name: "param_res4_b3_conv1_bn_beta"
  }
  initializer {
      dims: 256
      data_type: 1
      name: "param_res4_b3_conv1_bn_gamma"
  }
  initializer {
      dims: 256
      dims: 1024
      dims: 1
      dims: 1
      data_type: 1
      name: "param_res4_b3_conv1_conv_W"
  }
  initializer {
      dims: 256
      data_type: 1
      name: "param_res4_b3_conv2_bn_beta"
  }
  initializer {
      dims: 256
      data_type: 1
      name: "param_res4_b3_conv2_bn_gamma"
  }
  initializer {
      dims: 256
      dims: 256
      dims: 3
      dims: 3
      data_type: 1
      name: "param_res4_b3_conv2_conv_W"
  }
  initializer {
      dims: 1024
      data_type: 1
      name: "param_res4_b3_conv3_bn_beta"
  }
  initializer {
      dims: 1024
      data_type: 1
      name: "param_res4_b3_conv3_bn_gamma"
  }
  initializer {
      dims: 1024
      dims: 256
      dims: 1
      dims: 1
      data_type: 1
      name: "param_res4_b3_conv3_conv_W"
  }
  initializer {
      dims: 256
      data_type: 1
      name: "param_res4_b4_conv1_bn_beta"
  }
  initializer {
      dims: 256
      data_type: 1
      name: "param_res4_b4_conv1_bn_gamma"
  }
  initializer {
      dims: 256
      dims: 1024
      dims: 1
      dims: 1
      data_type: 1
      name: "param_res4_b4_conv1_conv_W"
  }
  initializer {
      dims: 256
      data_type: 1
      name: "param_res4_b4_conv2_bn_beta"
  }
  initializer {
      dims: 256
      data_type: 1
      name: "param_res4_b4_conv2_bn_gamma"
  }
  initializer {
      dims: 256
      dims: 256
      dims: 3
      dims: 3
      data_type: 1
      name: "param_res4_b4_conv2_conv_W"
  }
  initializer {
      dims: 1024
      data_type: 1
      name: "param_res4_b4_conv3_bn_beta"
  }
  initializer {
      dims: 1024
      data_type: 1
      name: "param_res4_b4_conv3_bn_gamma"
  }
  initializer {
      dims: 1024
      dims: 256
      dims: 1
      dims: 1
      data_type: 1
      name: "param_res4_b4_conv3_conv_W"
  }
  initializer {
      dims: 256
      data_type: 1
      name: "param_res4_b5_conv1_bn_beta"
  }
  initializer {
      dims: 256
      data_type: 1
      name: "param_res4_b5_conv1_bn_gamma"
  }
  initializer {
      dims: 256
      dims: 1024
      dims: 1
      dims: 1
      data_type: 1
      name: "param_res4_b5_conv1_conv_W"
  }
  initializer {
      dims: 256
      data_type: 1
      name: "param_res4_b5_conv2_bn_beta"
  }
  initializer {
      dims: 256
      data_type: 1
      name: "param_res4_b5_conv2_bn_gamma"
  }
  initializer {
      dims: 256
      dims: 256
      dims: 3
      dims: 3
      data_type: 1
      name: "param_res4_b5_conv2_conv_W"
  }
  initializer {
      dims: 1024
      data_type: 1
      name: "param_res4_b5_conv3_bn_beta"
  }
  initializer {
      dims: 1024
      data_type: 1
      name: "param_res4_b5_conv3_bn_gamma"
  }
  initializer {
      dims: 1024
      dims: 256
      dims: 1
      dims: 1
      data_type: 1
      name: "param_res4_b5_conv3_conv_W"
  }
  initializer {
      dims: 512
      data_type: 1
      name: "param_res5_a_conv1_bn_beta"
  }
  initializer {
      dims: 512
      data_type: 1
      name: "param_res5_a_conv1_bn_gamma"
  }
  initializer {
      dims: 512
      dims: 1024
      dims: 1
      dims: 1
      data_type: 1
      name: "param_res5_a_conv1_conv_W"
  }
  initializer {
      dims: 512
      data_type: 1
      name: "param_res5_a_conv2_bn_beta"
  }
  initializer {
      dims: 512
      data_type: 1
      name: "param_res5_a_conv2_bn_gamma"
  }
  initializer {
      dims: 512
      dims: 512
      dims: 3
      dims: 3
      data_type: 1
      name: "param_res5_a_conv2_conv_W"
  }
  initializer {
      dims: 2048
      data_type: 1
      name: "param_res5_a_conv3_bn_beta"
  }
  initializer {
      dims: 2048
      data_type: 1
      name: "param_res5_a_conv3_bn_gamma"
  }
  initializer {
      dims: 2048
      dims: 512
      dims: 1
      dims: 1
      data_type: 1
      name: "param_res5_a_conv3_conv_W"
  }
  initializer {
      dims: 2048
      data_type: 1
      name: "param_res5_a_residual_conv_bn_beta"
  }
  initializer {
      dims: 2048
      data_type: 1
      name: "param_res5_a_residual_conv_bn_gamma"
  }
  initializer {
      dims: 2048
      dims: 1024
      dims: 1
      dims: 1
      data_type: 1
      name: "param_res5_a_residual_conv_conv_W"
  }
  initializer {
      dims: 512
      data_type: 1
      name: "param_res5_b1_conv1_bn_beta"
  }
  initializer {
      dims: 512
      data_type: 1
      name: "param_res5_b1_conv1_bn_gamma"
  }
  initializer {
      dims: 512
      dims: 2048
      dims: 1
      dims: 1
      data_type: 1
      name: "param_res5_b1_conv1_conv_W"
  }
  initializer {
      dims: 512
      data_type: 1
      name: "param_res5_b1_conv2_bn_beta"
  }
  initializer {
      dims: 512
      data_type: 1
      name: "param_res5_b1_conv2_bn_gamma"
  }
  initializer {
      dims: 512
      dims: 512
      dims: 3
      dims: 3
      data_type: 1
      name: "param_res5_b1_conv2_conv_W"
  }
  initializer {
      dims: 2048
      data_type: 1
      name: "param_res5_b1_conv3_bn_beta"
  }
  initializer {
      dims: 2048
      data_type: 1
      name: "param_res5_b1_conv3_bn_gamma"
  }
  initializer {
      dims: 2048
      dims: 512
      dims: 1
      dims: 1
      data_type: 1
      name: "param_res5_b1_conv3_conv_W"
  }
  initializer {
      dims: 512
      data_type: 1
      name: "param_res5_b2_conv1_bn_beta"
  }
  initializer {
      dims: 512
      data_type: 1
      name: "param_res5_b2_conv1_bn_gamma"
  }
  initializer {
      dims: 512
      dims: 2048
      dims: 1
      dims: 1
      data_type: 1
      name: "param_res5_b2_conv1_conv_W"
  }
  initializer {
      dims: 512
      data_type: 1
      name: "param_res5_b2_conv2_bn_beta"
  }
  initializer {
      dims: 512
      data_type: 1
      name: "param_res5_b2_conv2_bn_gamma"
  }
  initializer {
      dims: 512
      dims: 512
      dims: 3
      dims: 3
      data_type: 1
      name: "param_res5_b2_conv2_conv_W"
  }
  initializer {
      dims: 2048
      data_type: 1
      name: "param_res5_b2_conv3_bn_beta"
  }
  initializer {
      dims: 2048
      data_type: 1
      name: "param_res5_b2_conv3_bn_gamma"
  }
  initializer {
      dims: 2048
      dims: 512
      dims: 1
      dims: 1
      data_type: 1
      name: "param_res5_b2_conv3_conv_W"
  }
  initializer {
      dims: 128
      data_type: 1
      name: "v460"
  }
  initializer {
      dims: 256
      data_type: 1
      name: "v416"
  }
  initializer {
      dims: 128
      data_type: 1
      name: "v441"
  }
  initializer {
      dims: 512
      data_type: 1
      name: "v709"
  }
  initializer {
      dims: 512
      data_type: 1
      name: "v501"
  }
  initializer {
      dims: 1024
      data_type: 1
      name: "v617"
  }
  initializer {
      dims: 256
      data_type: 1
      name: "v553"
  }
  initializer {
      dims: 64
      data_type: 1
      name: "v371"
  }
  initializer {
      dims: 256
      data_type: 1
      name: "v680"
  }
  initializer {
      dims: 64
      data_type: 1
      name: "v340"
  }
  initializer {
      dims: 1024
      data_type: 1
      name: "v561"
  }
  initializer {
      dims: 64
      data_type: 1
      name: "v400"
  }
  initializer {
      dims: 512
      data_type: 1
      name: "v742"
  }
  initializer {
      dims: 256
      data_type: 1
      name: "v609"
  }
  initializer {
      dims: 512
      data_type: 1
      name: "v433"
  }
  initializer {
      dims: 64
      data_type: 1
      name: "v327"
  }
  initializer {
      dims: 256
      data_type: 1
      name: "v607"
  }
  initializer {
      dims: 128
      data_type: 1
      name: "v439"
  }
  initializer {
      dims: 128
      data_type: 1
      name: "v495"
  }
  initializer {
      dims: 2048
      data_type: 1
      name: "v756"
  }
  initializer {
      dims: 256
      data_type: 1
      name: "v688"
  }
  initializer {
      dims: 512
      data_type: 1
      name: "v740"
  }
  initializer {
      dims: 512
      data_type: 1
      name: "v748"
  }
  initializer {
      dims: 512
      data_type: 1
      name: "v767"
  }
  initializer {
      dims: 2048
      data_type: 1
      name: "v713"
  }
  initializer {
      dims: 128
      data_type: 1
      name: "v512"
  }
  initializer {
      dims: 512
      data_type: 1
      name: "v528"
  }
  initializer {
      dims: 256
      data_type: 1
      name: "v555"
  }
  initializer {
      dims: 1024
      data_type: 1
      name: "v642"
  }
  initializer {
      dims: 128
      data_type: 1
      name: "v520"
  }
  initializer {
      dims: 128
      data_type: 1
      name: "v458"
  }
  initializer {
      dims: 512
      data_type: 1
      name: "v769"
  }
  initializer {
      dims: 128
      data_type: 1
      name: "v427"
  }
  initializer {
      dims: 1024
      data_type: 1
      name: "v669"
  }
  initializer {
      dims: 1024
      data_type: 1
      name: "v588"
  }
  initializer {
      dims: 512
      data_type: 1
      name: "v449"
  }
  initializer {
      dims: 256
      data_type: 1
      name: "v362"
  }
  initializer {
      dims: 1024
      data_type: 1
      name: "v696"
  }
  initializer {
      dims: 256
      data_type: 1
      name: "v653"
  }
  initializer {
      dims: 1024
      data_type: 1
      name: "v671"
  }
  initializer {
      dims: 1024
      data_type: 1
      name: "v615"
  }
  initializer {
      dims: 128
      data_type: 1
      name: "v468"
  }
  initializer {
      dims: 64
      data_type: 1
      name: "v398"
  }
  initializer {
      dims: 2048
      data_type: 1
      name: "v715"
  }
  initializer {
      dims: 64
      data_type: 1
      name: "v408"
  }
  initializer {
      dims: 128
      data_type: 1
      name: "v493"
  }
  initializer {
      dims: 64
      data_type: 1
      name: "v352"
  }
  initializer {
      dims: 64
      data_type: 1
      name: "v373"
  }
  initializer {
      dims: 2048
      data_type: 1
      name: "v729"
  }
  initializer {
      dims: 256
      data_type: 1
      name: "v582"
  }
  initializer {
      dims: 256
      data_type: 1
      name: "v601"
  }
  initializer {
      dims: 2048
      data_type: 1
      name: "v758"
  }
  initializer {
      dims: 256
      data_type: 1
      name: "v541"
  }
  initializer {
      dims: 512
      data_type: 1
      name: "v775"
  }
  initializer {
      dims: 128
      data_type: 1
      name: "v425"
  }
  initializer {
      dims: 512
      data_type: 1
      name: "v447"
  }
  initializer {
      dims: 512
      data_type: 1
      name: "v476"
  }
  initializer {
      dims: 2048
      data_type: 1
      name: "v783"
  }
  initializer {
      dims: 256
      data_type: 1
      name: "v344"
  }
  initializer {
      dims: 256
      data_type: 1
      name: "v572"
  }
  initializer {
      dims: 256
      data_type: 1
      name: "v360"
  }
  initializer {
      dims: 512
      data_type: 1
      name: "v721"
  }
  initializer {
      dims: 512
      data_type: 1
      name: "v750"
  }
  initializer {
      dims: 256
      data_type: 1
      name: "v626"
  }
  initializer {
      dims: 256
      data_type: 1
      name: "v574"
  }
  initializer {
      dims: 512
      data_type: 1
      name: "v530"
  }
  initializer {
      dims: 64
      data_type: 1
      name: "v354"
  }
  initializer {
      dims: 64
      data_type: 1
      name: "v329"
  }
  initializer {
      dims: 256
      data_type: 1
      name: "v599"
  }
  initializer {
      dims: 128
      data_type: 1
      name: "v485"
  }
  initializer {
      dims: 128
      data_type: 1
      name: "v514"
  }
  initializer {
      dims: 256
      data_type: 1
      name: "v628"
  }
  initializer {
      dims: 256
      data_type: 1
      name: "v682"
  }
  initializer {
      dims: 256
      data_type: 1
      name: "v389"
  }
  initializer {
      dims: 512
      data_type: 1
      name: "v777"
  }
  initializer {
      dims: 128
      data_type: 1
      name: "v466"
  }
  initializer {
      dims: 256
      data_type: 1
      name: "v539"
  }
  initializer {
      dims: 256
      data_type: 1
      name: "v414"
  }
  initializer {
      dims: 256
      data_type: 1
      name: "v636"
  }
  initializer {
      dims: 512
      data_type: 1
      name: "v503"
  }
  initializer {
      dims: 1024
      data_type: 1
      name: "v590"
  }
  initializer {
      dims: 64
      data_type: 1
      name: "v379"
  }
  initializer {
      dims: 256
      data_type: 1
      name: "v634"
  }
  initializer {
      dims: 1024
      data_type: 1
      name: "v563"
  }
  initializer {
      dims: 256
      data_type: 1
      name: "v346"
  }
  initializer {
      dims: 64
      data_type: 1
      name: "v338"
  }
  initializer {
      dims: 128
      data_type: 1
      name: "v487"
  }
  initializer {
      dims: 256
      data_type: 1
      name: "v661"
  }
  initializer {
      dims: 256
      data_type: 1
      name: "v690"
  }
  initializer {
      dims: 2048
      data_type: 1
      name: "v785"
  }
  initializer {
      dims: 512
      data_type: 1
      name: "v723"
  }
  initializer {
      dims: 128
      data_type: 1
      name: "v522"
  }
  initializer {
      dims: 1024
      data_type: 1
      name: "v547"
  }
  initializer {
      dims: 256
      data_type: 1
      name: "v663"
  }
  initializer {
      dims: 256
      data_type: 1
      name: "v387"
  }
  initializer {
      dims: 512
      data_type: 1
      name: "v474"
  }
  initializer {
      dims: 1024
      data_type: 1
      name: "v644"
  }
  initializer {
      dims: 64
      data_type: 1
      name: "v381"
  }
  initializer {
      dims: 2048
      data_type: 1
      name: "v731"
  }
  initializer {
      dims: 64
      data_type: 1
      name: "v406"
  }
  initializer {
      dims: 256
      data_type: 1
      name: "v655"
  }
  initializer {
      dims: 1024
      data_type: 1
      name: "v545"
  }
  initializer {
      dims: 1024
      data_type: 1
      name: "v698"
  }
  initializer {
      dims: 512
      data_type: 1
      name: "v707"
  }
  initializer {
      dims: 256
      data_type: 1
      name: "v580"
  }
  initializer {
      dims: 512
      data_type: 1
      name: "v431"
  }
  initializer {
      dims: 64
      data_type: 1
      name: "param_conv1_bn_avg_mean"
  }
  initializer {
      dims: 64
      data_type: 1
      name: "param_conv1_bn_avg_var"
  }
  initializer {
      dims: 64
      data_type: 1
      name: "param_res2_a_conv1_bn_avg_mean"
  }
  initializer {
      dims: 64
      data_type: 1
      name: "param_res2_a_conv1_bn_avg_var"
  }
  initializer {
      dims: 256
      data_type: 1
      name: "param_res2_a_residual_conv_bn_avg_mean"
  }
  initializer {
      dims: 256
      data_type: 1
      name: "param_res2_a_residual_conv_bn_avg_var"
  }
  initializer {
      dims: 64
      data_type: 1
      name: "param_res2_a_conv2_bn_avg_mean"
  }
  initializer {
      dims: 64
      data_type: 1
      name: "param_res2_a_conv2_bn_avg_var"
  }
  initializer {
      dims: 256
      data_type: 1
      name: "param_res2_a_conv3_bn_avg_mean"
  }
  initializer {
      dims: 256
      data_type: 1
      name: "param_res2_a_conv3_bn_avg_var"
  }
  initializer {
      dims: 64
      data_type: 1
      name: "param_res2_b1_conv1_bn_avg_mean"
  }
  initializer {
      dims: 64
      data_type: 1
      name: "param_res2_b1_conv1_bn_avg_var"
  }
  initializer {
      dims: 64
      data_type: 1
      name: "param_res2_b1_conv2_bn_avg_mean"
  }
  initializer {
      dims: 64
      data_type: 1
      name: "param_res2_b1_conv2_bn_avg_var"
  }
  initializer {
      dims: 256
      data_type: 1
      name: "param_res2_b1_conv3_bn_avg_mean"
  }
  initializer {
      dims: 256
      data_type: 1
      name: "param_res2_b1_conv3_bn_avg_var"
  }
  initializer {
      dims: 64
      data_type: 1
      name: "param_res2_b2_conv1_bn_avg_mean"
  }
  initializer {
      dims: 64
      data_type: 1
      name: "param_res2_b2_conv1_bn_avg_var"
  }
  initializer {
      dims: 64
      data_type: 1
      name: "param_res2_b2_conv2_bn_avg_mean"
  }
  initializer {
      dims: 64
      data_type: 1
      name: "param_res2_b2_conv2_bn_avg_var"
  }
  initializer {
      dims: 256
      data_type: 1
      name: "param_res2_b2_conv3_bn_avg_mean"
  }
  initializer {
      dims: 256
      data_type: 1
      name: "param_res2_b2_conv3_bn_avg_var"
  }
  initializer {
      dims: 128
      data_type: 1
      name: "param_res3_a_conv1_bn_avg_mean"
  }
  initializer {
      dims: 128
      data_type: 1
      name: "param_res3_a_conv1_bn_avg_var"
  }
  initializer {
      dims: 512
      data_type: 1
      name: "param_res3_a_residual_conv_bn_avg_mean"
  }
  initializer {
      dims: 512
      data_type: 1
      name: "param_res3_a_residual_conv_bn_avg_var"
  }
  initializer {
      dims: 128
      data_type: 1
      name: "param_res3_a_conv2_bn_avg_mean"
  }
  initializer {
      dims: 128
      data_type: 1
      name: "param_res3_a_conv2_bn_avg_var"
  }
  initializer {
      dims: 512
      data_type: 1
      name: "param_res3_a_conv3_bn_avg_mean"
  }
  initializer {
      dims: 512
      data_type: 1
      name: "param_res3_a_conv3_bn_avg_var"
  }
  initializer {
      dims: 128
      data_type: 1
      name: "param_res3_b1_conv1_bn_avg_mean"
  }
  initializer {
      dims: 128
      data_type: 1
      name: "param_res3_b1_conv1_bn_avg_var"
  }
  initializer {
      dims: 128
      data_type: 1
      name: "param_res3_b1_conv2_bn_avg_mean"
  }
  initializer {
      dims: 128
      data_type: 1
      name: "param_res3_b1_conv2_bn_avg_var"
  }
  initializer {
      dims: 512
      data_type: 1
      name: "param_res3_b1_conv3_bn_avg_mean"
  }
  initializer {
      dims: 512
      data_type: 1
      name: "param_res3_b1_conv3_bn_avg_var"
  }
  initializer {
      dims: 128
      data_type: 1
      name: "param_res3_b2_conv1_bn_avg_mean"
  }
  initializer {
      dims: 128
      data_type: 1
      name: "param_res3_b2_conv1_bn_avg_var"
  }
  initializer {
      dims: 128
      data_type: 1
      name: "param_res3_b2_conv2_bn_avg_mean"
  }
  initializer {
      dims: 128
      data_type: 1
      name: "param_res3_b2_conv2_bn_avg_var"
  }
  initializer {
      dims: 512
      data_type: 1
      name: "param_res3_b2_conv3_bn_avg_mean"
  }
  initializer {
      dims: 512
      data_type: 1
      name: "param_res3_b2_conv3_bn_avg_var"
  }
  initializer {
      dims: 128
      data_type: 1
      name: "param_res3_b3_conv1_bn_avg_mean"
  }
  initializer {
      dims: 128
      data_type: 1
      name: "param_res3_b3_conv1_bn_avg_var"
  }
  initializer {
      dims: 128
      data_type: 1
      name: "param_res3_b3_conv2_bn_avg_mean"
  }
  initializer {
      dims: 128
      data_type: 1
      name: "param_res3_b3_conv2_bn_avg_var"
  }
  initializer {
      dims: 512
      data_type: 1
      name: "param_res3_b3_conv3_bn_avg_mean"
  }
  initializer {
      dims: 512
      data_type: 1
      name: "param_res3_b3_conv3_bn_avg_var"
  }
  initializer {
      dims: 256
      data_type: 1
      name: "param_res4_a_conv1_bn_avg_mean"
  }
  initializer {
      dims: 256
      data_type: 1
      name: "param_res4_a_conv1_bn_avg_var"
  }
  initializer {
      dims: 1024
      data_type: 1
      name: "param_res4_a_residual_conv_bn_avg_mean"
  }
  initializer {
      dims: 1024
      data_type: 1
      name: "param_res4_a_residual_conv_bn_avg_var"
  }
  initializer {
      dims: 256
      data_type: 1
      name: "param_res4_a_conv2_bn_avg_mean"
  }
  initializer {
      dims: 256
      data_type: 1
      name: "param_res4_a_conv2_bn_avg_var"
  }
  initializer {
      dims: 1024
      data_type: 1
      name: "param_res4_a_conv3_bn_avg_mean"
  }
  initializer {
      dims: 1024
      data_type: 1
      name: "param_res4_a_conv3_bn_avg_var"
  }
  initializer {
      dims: 256
      data_type: 1
      name: "param_res4_b1_conv1_bn_avg_mean"
  }
  initializer {
      dims: 256
      data_type: 1
      name: "param_res4_b1_conv1_bn_avg_var"
  }
  initializer {
      dims: 256
      data_type: 1
      name: "param_res4_b1_conv2_bn_avg_mean"
  }
  initializer {
      dims: 256
      data_type: 1
      name: "param_res4_b1_conv2_bn_avg_var"
  }
  initializer {
      dims: 1024
      data_type: 1
      name: "param_res4_b1_conv3_bn_avg_mean"
  }
  initializer {
      dims: 1024
      data_type: 1
      name: "param_res4_b1_conv3_bn_avg_var"
  }
  initializer {
      dims: 256
      data_type: 1
      name: "param_res4_b2_conv1_bn_avg_mean"
  }
  initializer {
      dims: 256
      data_type: 1
      name: "param_res4_b2_conv1_bn_avg_var"
  }
  initializer {
      dims: 256
      data_type: 1
      name: "param_res4_b2_conv2_bn_avg_mean"
  }
  initializer {
      dims: 256
      data_type: 1
      name: "param_res4_b2_conv2_bn_avg_var"
  }
  initializer {
      dims: 1024
      data_type: 1
      name: "param_res4_b2_conv3_bn_avg_mean"
  }
  initializer {
      dims: 1024
      data_type: 1
      name: "param_res4_b2_conv3_bn_avg_var"
  }
  initializer {
      dims: 256
      data_type: 1
      name: "param_res4_b3_conv1_bn_avg_mean"
  }
  initializer {
      dims: 256
      data_type: 1
      name: "param_res4_b3_conv1_bn_avg_var"
  }
  initializer {
      dims: 256
      data_type: 1
      name: "param_res4_b3_conv2_bn_avg_mean"
  }
  initializer {
      dims: 256
      data_type: 1
      name: "param_res4_b3_conv2_bn_avg_var"
  }
  initializer {
      dims: 1024
      data_type: 1
      name: "param_res4_b3_conv3_bn_avg_mean"
  }
  initializer {
      dims: 1024
      data_type: 1
      name: "param_res4_b3_conv3_bn_avg_var"
  }
  initializer {
      dims: 256
      data_type: 1
      name: "param_res4_b4_conv1_bn_avg_mean"
  }
  initializer {
      dims: 256
      data_type: 1
      name: "param_res4_b4_conv1_bn_avg_var"
  }
  initializer {
      dims: 256
      data_type: 1
      name: "param_res4_b4_conv2_bn_avg_mean"
  }
  initializer {
      dims: 256
      data_type: 1
      name: "param_res4_b4_conv2_bn_avg_var"
  }
  initializer {
      dims: 1024
      data_type: 1
      name: "param_res4_b4_conv3_bn_avg_mean"
  }
  initializer {
      dims: 1024
      data_type: 1
      name: "param_res4_b4_conv3_bn_avg_var"
  }
  initializer {
      dims: 256
      data_type: 1
      name: "param_res4_b5_conv1_bn_avg_mean"
  }
  initializer {
      dims: 256
      data_type: 1
      name: "param_res4_b5_conv1_bn_avg_var"
  }
  initializer {
      dims: 256
      data_type: 1
      name: "param_res4_b5_conv2_bn_avg_mean"
  }
  initializer {
      dims: 256
      data_type: 1
      name: "param_res4_b5_conv2_bn_avg_var"
  }
  initializer {
      dims: 1024
      data_type: 1
      name: "param_res4_b5_conv3_bn_avg_mean"
  }
  initializer {
      dims: 1024
      data_type: 1
      name: "param_res4_b5_conv3_bn_avg_var"
  }
  initializer {
      dims: 512
      data_type: 1
      name: "param_res5_a_conv1_bn_avg_mean"
  }
  initializer {
      dims: 512
      data_type: 1
      name: "param_res5_a_conv1_bn_avg_var"
  }
  initializer {
      dims: 2048
      data_type: 1
      name: "param_res5_a_residual_conv_bn_avg_mean"
  }
  initializer {
      dims: 2048
      data_type: 1
      name: "param_res5_a_residual_conv_bn_avg_var"
  }
  initializer {
      dims: 512
      data_type: 1
      name: "param_res5_a_conv2_bn_avg_mean"
  }
  initializer {
      dims: 512
      data_type: 1
      name: "param_res5_a_conv2_bn_avg_var"
  }
  initializer {
      dims: 2048
      data_type: 1
      name: "param_res5_a_conv3_bn_avg_mean"
  }
  initializer {
      dims: 2048
      data_type: 1
      name: "param_res5_a_conv3_bn_avg_var"
  }
  initializer {
      dims: 512
      data_type: 1
      name: "param_res5_b1_conv1_bn_avg_mean"
  }
  initializer {
      dims: 512
      data_type: 1
      name: "param_res5_b1_conv1_bn_avg_var"
  }
  initializer {
      dims: 512
      data_type: 1
      name: "param_res5_b1_conv2_bn_avg_mean"
  }
  initializer {
      dims: 512
      data_type: 1
      name: "param_res5_b1_conv2_bn_avg_var"
  }
  initializer {
      dims: 2048
      data_type: 1
      name: "param_res5_b1_conv3_bn_avg_mean"
  }
  initializer {
      dims: 2048
      data_type: 1
      name: "param_res5_b1_conv3_bn_avg_var"
  }
  initializer {
      dims: 512
      data_type: 1
      name: "param_res5_b2_conv1_bn_avg_mean"
  }
  initializer {
      dims: 512
      data_type: 1
      name: "param_res5_b2_conv1_bn_avg_var"
  }
  initializer {
      dims: 512
      data_type: 1
      name: "param_res5_b2_conv2_bn_avg_mean"
  }
  initializer {
      dims: 512
      data_type: 1
      name: "param_res5_b2_conv2_bn_avg_var"
  }
  initializer {
      dims: 2048
      data_type: 1
      name: "param_res5_b2_conv3_bn_avg_mean"
  }
  initializer {
      dims: 2048
      data_type: 1
      name: "param_res5_b2_conv3_bn_avg_var"
  }
  input {
    name: "param_conv1_bn_beta"
    type {
      tensor_type {
        elem_type: 1
        shape {
          dim {
            dim_value: 64
          }
        }
      }
    }
  }
  input {
    name: "param_conv1_bn_gamma"
    type {
      tensor_type {
        elem_type: 1
        shape {
          dim {
            dim_value: 64
          }
        }
      }
    }
  }
  input {
    name: "param_conv1_conv_W"
    type {
      tensor_type {
        elem_type: 1
        shape {
          dim {
            dim_value: 64
          }
          dim {
            dim_value: 3
          }
          dim {
            dim_value: 7
          }
          dim {
            dim_value: 7
          }
        }
      }
    }
  }
  input {
    name: "param_fc6_W"
    type {
      tensor_type {
        elem_type: 1
        shape {
          dim {
            dim_value: 1000
          }
          dim {
            dim_value: 2048
          }
        }
      }
    }
  }
  input {
    name: "param_fc6_b"
    type {
      tensor_type {
        elem_type: 1
        shape {
          dim {
            dim_value: 1000
          }
        }
      }
    }
  }
  input {
    name: "param_res2_a_conv1_bn_beta"
    type {
      tensor_type {
        elem_type: 1
        shape {
          dim {
            dim_value: 64
          }
        }
      }
    }
  }
  input {
    name: "param_res2_a_conv1_bn_gamma"
    type {
      tensor_type {
        elem_type: 1
        shape {
          dim {
            dim_value: 64
          }
        }
      }
    }
  }
  input {
    name: "param_res2_a_conv1_conv_W"
    type {
      tensor_type {
        elem_type: 1
        shape {
          dim {
            dim_value: 64
          }
          dim {
            dim_value: 64
          }
          dim {
            dim_value: 1
          }
          dim {
            dim_value: 1
          }
        }
      }
    }
  }
  input {
    name: "param_res2_a_conv2_bn_beta"
    type {
      tensor_type {
        elem_type: 1
        shape {
          dim {
            dim_value: 64
          }
        }
      }
    }
  }
  input {
    name: "param_res2_a_conv2_bn_gamma"
    type {
      tensor_type {
        elem_type: 1
        shape {
          dim {
            dim_value: 64
          }
        }
      }
    }
  }
  input {
    name: "param_res2_a_conv2_conv_W"
    type {
      tensor_type {
        elem_type: 1
        shape {
          dim {
            dim_value: 64
          }
          dim {
            dim_value: 64
          }
          dim {
            dim_value: 3
          }
          dim {
            dim_value: 3
          }
        }
      }
    }
  }
  input {
    name: "param_res2_a_conv3_bn_beta"
    type {
      tensor_type {
        elem_type: 1
        shape {
          dim {
            dim_value: 256
          }
        }
      }
    }
  }
  input {
    name: "param_res2_a_conv3_bn_gamma"
    type {
      tensor_type {
        elem_type: 1
        shape {
          dim {
            dim_value: 256
          }
        }
      }
    }
  }
  input {
    name: "param_res2_a_conv3_conv_W"
    type {
      tensor_type {
        elem_type: 1
        shape {
          dim {
            dim_value: 256
          }
          dim {
            dim_value: 64
          }
          dim {
            dim_value: 1
          }
          dim {
            dim_value: 1
          }
        }
      }
    }
  }
  input {
    name: "param_res2_a_residual_conv_bn_beta"
    type {
      tensor_type {
        elem_type: 1
        shape {
          dim {
            dim_value: 256
          }
        }
      }
    }
  }
  input {
    name: "param_res2_a_residual_conv_bn_gamma"
    type {
      tensor_type {
        elem_type: 1
        shape {
          dim {
            dim_value: 256
          }
        }
      }
    }
  }
  input {
    name: "param_res2_a_residual_conv_conv_W"
    type {
      tensor_type {
        elem_type: 1
        shape {
          dim {
            dim_value: 256
          }
          dim {
            dim_value: 64
          }
          dim {
            dim_value: 1
          }
          dim {
            dim_value: 1
          }
        }
      }
    }
  }
  input {
    name: "param_res2_b1_conv1_bn_beta"
    type {
      tensor_type {
        elem_type: 1
        shape {
          dim {
            dim_value: 64
          }
        }
      }
    }
  }
  input {
    name: "param_res2_b1_conv1_bn_gamma"
    type {
      tensor_type {
        elem_type: 1
        shape {
          dim {
            dim_value: 64
          }
        }
      }
    }
  }
  input {
    name: "param_res2_b1_conv1_conv_W"
    type {
      tensor_type {
        elem_type: 1
        shape {
          dim {
            dim_value: 64
          }
          dim {
            dim_value: 256
          }
          dim {
            dim_value: 1
          }
          dim {
            dim_value: 1
          }
        }
      }
    }
  }
  input {
    name: "param_res2_b1_conv2_bn_beta"
    type {
      tensor_type {
        elem_type: 1
        shape {
          dim {
            dim_value: 64
          }
        }
      }
    }
  }
  input {
    name: "param_res2_b1_conv2_bn_gamma"
    type {
      tensor_type {
        elem_type: 1
        shape {
          dim {
            dim_value: 64
          }
        }
      }
    }
  }
  input {
    name: "param_res2_b1_conv2_conv_W"
    type {
      tensor_type {
        elem_type: 1
        shape {
          dim {
            dim_value: 64
          }
          dim {
            dim_value: 64
          }
          dim {
            dim_value: 3
          }
          dim {
            dim_value: 3
          }
        }
      }
    }
  }
  input {
    name: "param_res2_b1_conv3_bn_beta"
    type {
      tensor_type {
        elem_type: 1
        shape {
          dim {
            dim_value: 256
          }
        }
      }
    }
  }
  input {
    name: "param_res2_b1_conv3_bn_gamma"
    type {
      tensor_type {
        elem_type: 1
        shape {
          dim {
            dim_value: 256
          }
        }
      }
    }
  }
  input {
    name: "param_res2_b1_conv3_conv_W"
    type {
      tensor_type {
        elem_type: 1
        shape {
          dim {
            dim_value: 256
          }
          dim {
            dim_value: 64
          }
          dim {
            dim_value: 1
          }
          dim {
            dim_value: 1
          }
        }
      }
    }
  }
  input {
    name: "param_res2_b2_conv1_bn_beta"
    type {
      tensor_type {
        elem_type: 1
        shape {
          dim {
            dim_value: 64
          }
        }
      }
    }
  }
  input {
    name: "param_res2_b2_conv1_bn_gamma"
    type {
      tensor_type {
        elem_type: 1
        shape {
          dim {
            dim_value: 64
          }
        }
      }
    }
  }
  input {
    name: "param_res2_b2_conv1_conv_W"
    type {
      tensor_type {
        elem_type: 1
        shape {
          dim {
            dim_value: 64
          }
          dim {
            dim_value: 256
          }
          dim {
            dim_value: 1
          }
          dim {
            dim_value: 1
          }
        }
      }
    }
  }
  input {
    name: "param_res2_b2_conv2_bn_beta"
    type {
      tensor_type {
        elem_type: 1
        shape {
          dim {
            dim_value: 64
          }
        }
      }
    }
  }
  input {
    name: "param_res2_b2_conv2_bn_gamma"
    type {
      tensor_type {
        elem_type: 1
        shape {
          dim {
            dim_value: 64
          }
        }
      }
    }
  }
  input {
    name: "param_res2_b2_conv2_conv_W"
    type {
      tensor_type {
        elem_type: 1
        shape {
          dim {
            dim_value: 64
          }
          dim {
            dim_value: 64
          }
          dim {
            dim_value: 3
          }
          dim {
            dim_value: 3
          }
        }
      }
    }
  }
  input {
    name: "param_res2_b2_conv3_bn_beta"
    type {
      tensor_type {
        elem_type: 1
        shape {
          dim {
            dim_value: 256
          }
        }
      }
    }
  }
  input {
    name: "param_res2_b2_conv3_bn_gamma"
    type {
      tensor_type {
        elem_type: 1
        shape {
          dim {
            dim_value: 256
          }
        }
      }
    }
  }
  input {
    name: "param_res2_b2_conv3_conv_W"
    type {
      tensor_type {
        elem_type: 1
        shape {
          dim {
            dim_value: 256
          }
          dim {
            dim_value: 64
          }
          dim {
            dim_value: 1
          }
          dim {
            dim_value: 1
          }
        }
      }
    }
  }
  input {
    name: "param_res3_a_conv1_bn_beta"
    type {
      tensor_type {
        elem_type: 1
        shape {
          dim {
            dim_value: 128
          }
        }
      }
    }
  }
  input {
    name: "param_res3_a_conv1_bn_gamma"
    type {
      tensor_type {
        elem_type: 1
        shape {
          dim {
            dim_value: 128
          }
        }
      }
    }
  }
  input {
    name: "param_res3_a_conv1_conv_W"
    type {
      tensor_type {
        elem_type: 1
        shape {
          dim {
            dim_value: 128
          }
          dim {
            dim_value: 256
          }
          dim {
            dim_value: 1
          }
          dim {
            dim_value: 1
          }
        }
      }
    }
  }
  input {
    name: "param_res3_a_conv2_bn_beta"
    type {
      tensor_type {
        elem_type: 1
        shape {
          dim {
            dim_value: 128
          }
        }
      }
    }
  }
  input {
    name: "param_res3_a_conv2_bn_gamma"
    type {
      tensor_type {
        elem_type: 1
        shape {
          dim {
            dim_value: 128
          }
        }
      }
    }
  }
  input {
    name: "param_res3_a_conv2_conv_W"
    type {
      tensor_type {
        elem_type: 1
        shape {
          dim {
            dim_value: 128
          }
          dim {
            dim_value: 128
          }
          dim {
            dim_value: 3
          }
          dim {
            dim_value: 3
          }
        }
      }
    }
  }
  input {
    name: "param_res3_a_conv3_bn_beta"
    type {
      tensor_type {
        elem_type: 1
        shape {
          dim {
            dim_value: 512
          }
        }
      }
    }
  }
  input {
    name: "param_res3_a_conv3_bn_gamma"
    type {
      tensor_type {
        elem_type: 1
        shape {
          dim {
            dim_value: 512
          }
        }
      }
    }
  }
  input {
    name: "param_res3_a_conv3_conv_W"
    type {
      tensor_type {
        elem_type: 1
        shape {
          dim {
            dim_value: 512
          }
          dim {
            dim_value: 128
          }
          dim {
            dim_value: 1
          }
          dim {
            dim_value: 1
          }
        }
      }
    }
  }
  input {
    name: "param_res3_a_residual_conv_bn_beta"
    type {
      tensor_type {
        elem_type: 1
        shape {
          dim {
            dim_value: 512
          }
        }
      }
    }
  }
  input {
    name: "param_res3_a_residual_conv_bn_gamma"
    type {
      tensor_type {
        elem_type: 1
        shape {
          dim {
            dim_value: 512
          }
        }
      }
    }
  }
  input {
    name: "param_res3_a_residual_conv_conv_W"
    type {
      tensor_type {
        elem_type: 1
        shape {
          dim {
            dim_value: 512
          }
          dim {
            dim_value: 256
          }
          dim {
            dim_value: 1
          }
          dim {
            dim_value: 1
          }
        }
      }
    }
  }
  input {
    name: "param_res3_b1_conv1_bn_beta"
    type {
      tensor_type {
        elem_type: 1
        shape {
          dim {
            dim_value: 128
          }
        }
      }
    }
  }
  input {
    name: "param_res3_b1_conv1_bn_gamma"
    type {
      tensor_type {
        elem_type: 1
        shape {
          dim {
            dim_value: 128
          }
        }
      }
    }
  }
  input {
    name: "param_res3_b1_conv1_conv_W"
    type {
      tensor_type {
        elem_type: 1
        shape {
          dim {
            dim_value: 128
          }
          dim {
            dim_value: 512
          }
          dim {
            dim_value: 1
          }
          dim {
            dim_value: 1
          }
        }
      }
    }
  }
  input {
    name: "param_res3_b1_conv2_bn_beta"
    type {
      tensor_type {
        elem_type: 1
        shape {
          dim {
            dim_value: 128
          }
        }
      }
    }
  }
  input {
    name: "param_res3_b1_conv2_bn_gamma"
    type {
      tensor_type {
        elem_type: 1
        shape {
          dim {
            dim_value: 128
          }
        }
      }
    }
  }
  input {
    name: "param_res3_b1_conv2_conv_W"
    type {
      tensor_type {
        elem_type: 1
        shape {
          dim {
            dim_value: 128
          }
          dim {
            dim_value: 128
          }
          dim {
            dim_value: 3
          }
          dim {
            dim_value: 3
          }
        }
      }
    }
  }
  input {
    name: "param_res3_b1_conv3_bn_beta"
    type {
      tensor_type {
        elem_type: 1
        shape {
          dim {
            dim_value: 512
          }
        }
      }
    }
  }
  input {
    name: "param_res3_b1_conv3_bn_gamma"
    type {
      tensor_type {
        elem_type: 1
        shape {
          dim {
            dim_value: 512
          }
        }
      }
    }
  }
  input {
    name: "param_res3_b1_conv3_conv_W"
    type {
      tensor_type {
        elem_type: 1
        shape {
          dim {
            dim_value: 512
          }
          dim {
            dim_value: 128
          }
          dim {
            dim_value: 1
          }
          dim {
            dim_value: 1
          }
        }
      }
    }
  }
  input {
    name: "param_res3_b2_conv1_bn_beta"
    type {
      tensor_type {
        elem_type: 1
        shape {
          dim {
            dim_value: 128
          }
        }
      }
    }
  }
  input {
    name: "param_res3_b2_conv1_bn_gamma"
    type {
      tensor_type {
        elem_type: 1
        shape {
          dim {
            dim_value: 128
          }
        }
      }
    }
  }
  input {
    name: "param_res3_b2_conv1_conv_W"
    type {
      tensor_type {
        elem_type: 1
        shape {
          dim {
            dim_value: 128
          }
          dim {
            dim_value: 512
          }
          dim {
            dim_value: 1
          }
          dim {
            dim_value: 1
          }
        }
      }
    }
  }
  input {
    name: "param_res3_b2_conv2_bn_beta"
    type {
      tensor_type {
        elem_type: 1
        shape {
          dim {
            dim_value: 128
          }
        }
      }
    }
  }
  input {
    name: "param_res3_b2_conv2_bn_gamma"
    type {
      tensor_type {
        elem_type: 1
        shape {
          dim {
            dim_value: 128
          }
        }
      }
    }
  }
  input {
    name: "param_res3_b2_conv2_conv_W"
    type {
      tensor_type {
        elem_type: 1
        shape {
          dim {
            dim_value: 128
          }
          dim {
            dim_value: 128
          }
          dim {
            dim_value: 3
          }
          dim {
            dim_value: 3
          }
        }
      }
    }
  }
  input {
    name: "param_res3_b2_conv3_bn_beta"
    type {
      tensor_type {
        elem_type: 1
        shape {
          dim {
            dim_value: 512
          }
        }
      }
    }
  }
  input {
    name: "param_res3_b2_conv3_bn_gamma"
    type {
      tensor_type {
        elem_type: 1
        shape {
          dim {
            dim_value: 512
          }
        }
      }
    }
  }
  input {
    name: "param_res3_b2_conv3_conv_W"
    type {
      tensor_type {
        elem_type: 1
        shape {
          dim {
            dim_value: 512
          }
          dim {
            dim_value: 128
          }
          dim {
            dim_value: 1
          }
          dim {
            dim_value: 1
          }
        }
      }
    }
  }
  input {
    name: "param_res3_b3_conv1_bn_beta"
    type {
      tensor_type {
        elem_type: 1
        shape {
          dim {
            dim_value: 128
          }
        }
      }
    }
  }
  input {
    name: "param_res3_b3_conv1_bn_gamma"
    type {
      tensor_type {
        elem_type: 1
        shape {
          dim {
            dim_value: 128
          }
        }
      }
    }
  }
  input {
    name: "param_res3_b3_conv1_conv_W"
    type {
      tensor_type {
        elem_type: 1
        shape {
          dim {
            dim_value: 128
          }
          dim {
            dim_value: 512
          }
          dim {
            dim_value: 1
          }
          dim {
            dim_value: 1
          }
        }
      }
    }
  }
  input {
    name: "param_res3_b3_conv2_bn_beta"
    type {
      tensor_type {
        elem_type: 1
        shape {
          dim {
            dim_value: 128
          }
        }
      }
    }
  }
  input {
    name: "param_res3_b3_conv2_bn_gamma"
    type {
      tensor_type {
        elem_type: 1
        shape {
          dim {
            dim_value: 128
          }
        }
      }
    }
  }
  input {
    name: "param_res3_b3_conv2_conv_W"
    type {
      tensor_type {
        elem_type: 1
        shape {
          dim {
            dim_value: 128
          }
          dim {
            dim_value: 128
          }
          dim {
            dim_value: 3
          }
          dim {
            dim_value: 3
          }
        }
      }
    }
  }
  input {
    name: "param_res3_b3_conv3_bn_beta"
    type {
      tensor_type {
        elem_type: 1
        shape {
          dim {
            dim_value: 512
          }
        }
      }
    }
  }
  input {
    name: "param_res3_b3_conv3_bn_gamma"
    type {
      tensor_type {
        elem_type: 1
        shape {
          dim {
            dim_value: 512
          }
        }
      }
    }
  }
  input {
    name: "param_res3_b3_conv3_conv_W"
    type {
      tensor_type {
        elem_type: 1
        shape {
          dim {
            dim_value: 512
          }
          dim {
            dim_value: 128
          }
          dim {
            dim_value: 1
          }
          dim {
            dim_value: 1
          }
        }
      }
    }
  }
  input {
    name: "param_res4_a_conv1_bn_beta"
    type {
      tensor_type {
        elem_type: 1
        shape {
          dim {
            dim_value: 256
          }
        }
      }
    }
  }
  input {
    name: "param_res4_a_conv1_bn_gamma"
    type {
      tensor_type {
        elem_type: 1
        shape {
          dim {
            dim_value: 256
          }
        }
      }
    }
  }
  input {
    name: "param_res4_a_conv1_conv_W"
    type {
      tensor_type {
        elem_type: 1
        shape {
          dim {
            dim_value: 256
          }
          dim {
            dim_value: 512
          }
          dim {
            dim_value: 1
          }
          dim {
            dim_value: 1
          }
        }
      }
    }
  }
  input {
    name: "param_res4_a_conv2_bn_beta"
    type {
      tensor_type {
        elem_type: 1
        shape {
          dim {
            dim_value: 256
          }
        }
      }
    }
  }
  input {
    name: "param_res4_a_conv2_bn_gamma"
    type {
      tensor_type {
        elem_type: 1
        shape {
          dim {
            dim_value: 256
          }
        }
      }
    }
  }
  input {
    name: "param_res4_a_conv2_conv_W"
    type {
      tensor_type {
        elem_type: 1
        shape {
          dim {
            dim_value: 256
          }
          dim {
            dim_value: 256
          }
          dim {
            dim_value: 3
          }
          dim {
            dim_value: 3
          }
        }
      }
    }
  }
  input {
    name: "param_res4_a_conv3_bn_beta"
    type {
      tensor_type {
        elem_type: 1
        shape {
          dim {
            dim_value: 1024
          }
        }
      }
    }
  }
  input {
    name: "param_res4_a_conv3_bn_gamma"
    type {
      tensor_type {
        elem_type: 1
        shape {
          dim {
            dim_value: 1024
          }
        }
      }
    }
  }
  input {
    name: "param_res4_a_conv3_conv_W"
    type {
      tensor_type {
        elem_type: 1
        shape {
          dim {
            dim_value: 1024
          }
          dim {
            dim_value: 256
          }
          dim {
            dim_value: 1
          }
          dim {
            dim_value: 1
          }
        }
      }
    }
  }
  input {
    name: "param_res4_a_residual_conv_bn_beta"
    type {
      tensor_type {
        elem_type: 1
        shape {
          dim {
            dim_value: 1024
          }
        }
      }
    }
  }
  input {
    name: "param_res4_a_residual_conv_bn_gamma"
    type {
      tensor_type {
        elem_type: 1
        shape {
          dim {
            dim_value: 1024
          }
        }
      }
    }
  }
  input {
    name: "param_res4_a_residual_conv_conv_W"
    type {
      tensor_type {
        elem_type: 1
        shape {
          dim {
            dim_value: 1024
          }
          dim {
            dim_value: 512
          }
          dim {
            dim_value: 1
          }
          dim {
            dim_value: 1
          }
        }
      }
    }
  }
  input {
    name: "param_res4_b1_conv1_bn_beta"
    type {
      tensor_type {
        elem_type: 1
        shape {
          dim {
            dim_value: 256
          }
        }
      }
    }
  }
  input {
    name: "param_res4_b1_conv1_bn_gamma"
    type {
      tensor_type {
        elem_type: 1
        shape {
          dim {
            dim_value: 256
          }
        }
      }
    }
  }
  input {
    name: "param_res4_b1_conv1_conv_W"
    type {
      tensor_type {
        elem_type: 1
        shape {
          dim {
            dim_value: 256
          }
          dim {
            dim_value: 1024
          }
          dim {
            dim_value: 1
          }
          dim {
            dim_value: 1
          }
        }
      }
    }
  }
  input {
    name: "param_res4_b1_conv2_bn_beta"
    type {
      tensor_type {
        elem_type: 1
        shape {
          dim {
            dim_value: 256
          }
        }
      }
    }
  }
  input {
    name: "param_res4_b1_conv2_bn_gamma"
    type {
      tensor_type {
        elem_type: 1
        shape {
          dim {
            dim_value: 256
          }
        }
      }
    }
  }
  input {
    name: "param_res4_b1_conv2_conv_W"
    type {
      tensor_type {
        elem_type: 1
        shape {
          dim {
            dim_value: 256
          }
          dim {
            dim_value: 256
          }
          dim {
            dim_value: 3
          }
          dim {
            dim_value: 3
          }
        }
      }
    }
  }
  input {
    name: "param_res4_b1_conv3_bn_beta"
    type {
      tensor_type {
        elem_type: 1
        shape {
          dim {
            dim_value: 1024
          }
        }
      }
    }
  }
  input {
    name: "param_res4_b1_conv3_bn_gamma"
    type {
      tensor_type {
        elem_type: 1
        shape {
          dim {
            dim_value: 1024
          }
        }
      }
    }
  }
  input {
    name: "param_res4_b1_conv3_conv_W"
    type {
      tensor_type {
        elem_type: 1
        shape {
          dim {
            dim_value: 1024
          }
          dim {
            dim_value: 256
          }
          dim {
            dim_value: 1
          }
          dim {
            dim_value: 1
          }
        }
      }
    }
  }
  input {
    name: "param_res4_b2_conv1_bn_beta"
    type {
      tensor_type {
        elem_type: 1
        shape {
          dim {
            dim_value: 256
          }
        }
      }
    }
  }
  input {
    name: "param_res4_b2_conv1_bn_gamma"
    type {
      tensor_type {
        elem_type: 1
        shape {
          dim {
            dim_value: 256
          }
        }
      }
    }
  }
  input {
    name: "param_res4_b2_conv1_conv_W"
    type {
      tensor_type {
        elem_type: 1
        shape {
          dim {
            dim_value: 256
          }
          dim {
            dim_value: 1024
          }
          dim {
            dim_value: 1
          }
          dim {
            dim_value: 1
          }
        }
      }
    }
  }
  input {
    name: "param_res4_b2_conv2_bn_beta"
    type {
      tensor_type {
        elem_type: 1
        shape {
          dim {
            dim_value: 256
          }
        }
      }
    }
  }
  input {
    name: "param_res4_b2_conv2_bn_gamma"
    type {
      tensor_type {
        elem_type: 1
        shape {
          dim {
            dim_value: 256
          }
        }
      }
    }
  }
  input {
    name: "param_res4_b2_conv2_conv_W"
    type {
      tensor_type {
        elem_type: 1
        shape {
          dim {
            dim_value: 256
          }
          dim {
            dim_value: 256
          }
          dim {
            dim_value: 3
          }
          dim {
            dim_value: 3
          }
        }
      }
    }
  }
  input {
    name: "param_res4_b2_conv3_bn_beta"
    type {
      tensor_type {
        elem_type: 1
        shape {
          dim {
            dim_value: 1024
          }
        }
      }
    }
  }
  input {
    name: "param_res4_b2_conv3_bn_gamma"
    type {
      tensor_type {
        elem_type: 1
        shape {
          dim {
            dim_value: 1024
          }
        }
      }
    }
  }
  input {
    name: "param_res4_b2_conv3_conv_W"
    type {
      tensor_type {
        elem_type: 1
        shape {
          dim {
            dim_value: 1024
          }
          dim {
            dim_value: 256
          }
          dim {
            dim_value: 1
          }
          dim {
            dim_value: 1
          }
        }
      }
    }
  }
  input {
    name: "param_res4_b3_conv1_bn_beta"
    type {
      tensor_type {
        elem_type: 1
        shape {
          dim {
            dim_value: 256
          }
        }
      }
    }
  }
  input {
    name: "param_res4_b3_conv1_bn_gamma"
    type {
      tensor_type {
        elem_type: 1
        shape {
          dim {
            dim_value: 256
          }
        }
      }
    }
  }
  input {
    name: "param_res4_b3_conv1_conv_W"
    type {
      tensor_type {
        elem_type: 1
        shape {
          dim {
            dim_value: 256
          }
          dim {
            dim_value: 1024
          }
          dim {
            dim_value: 1
          }
          dim {
            dim_value: 1
          }
        }
      }
    }
  }
  input {
    name: "param_res4_b3_conv2_bn_beta"
    type {
      tensor_type {
        elem_type: 1
        shape {
          dim {
            dim_value: 256
          }
        }
      }
    }
  }
  input {
    name: "param_res4_b3_conv2_bn_gamma"
    type {
      tensor_type {
        elem_type: 1
        shape {
          dim {
            dim_value: 256
          }
        }
      }
    }
  }
  input {
    name: "param_res4_b3_conv2_conv_W"
    type {
      tensor_type {
        elem_type: 1
        shape {
          dim {
            dim_value: 256
          }
          dim {
            dim_value: 256
          }
          dim {
            dim_value: 3
          }
          dim {
            dim_value: 3
          }
        }
      }
    }
  }
  input {
    name: "param_res4_b3_conv3_bn_beta"
    type {
      tensor_type {
        elem_type: 1
        shape {
          dim {
            dim_value: 1024
          }
        }
      }
    }
  }
  input {
    name: "param_res4_b3_conv3_bn_gamma"
    type {
      tensor_type {
        elem_type: 1
        shape {
          dim {
            dim_value: 1024
          }
        }
      }
    }
  }
  input {
    name: "param_res4_b3_conv3_conv_W"
    type {
      tensor_type {
        elem_type: 1
        shape {
          dim {
            dim_value: 1024
          }
          dim {
            dim_value: 256
          }
          dim {
            dim_value: 1
          }
          dim {
            dim_value: 1
          }
        }
      }
    }
  }
  input {
    name: "param_res4_b4_conv1_bn_beta"
    type {
      tensor_type {
        elem_type: 1
        shape {
          dim {
            dim_value: 256
          }
        }
      }
    }
  }
  input {
    name: "param_res4_b4_conv1_bn_gamma"
    type {
      tensor_type {
        elem_type: 1
        shape {
          dim {
            dim_value: 256
          }
        }
      }
    }
  }
  input {
    name: "param_res4_b4_conv1_conv_W"
    type {
      tensor_type {
        elem_type: 1
        shape {
          dim {
            dim_value: 256
          }
          dim {
            dim_value: 1024
          }
          dim {
            dim_value: 1
          }
          dim {
            dim_value: 1
          }
        }
      }
    }
  }
  input {
    name: "param_res4_b4_conv2_bn_beta"
    type {
      tensor_type {
        elem_type: 1
        shape {
          dim {
            dim_value: 256
          }
        }
      }
    }
  }
  input {
    name: "param_res4_b4_conv2_bn_gamma"
    type {
      tensor_type {
        elem_type: 1
        shape {
          dim {
            dim_value: 256
          }
        }
      }
    }
  }
  input {
    name: "param_res4_b4_conv2_conv_W"
    type {
      tensor_type {
        elem_type: 1
        shape {
          dim {
            dim_value: 256
          }
          dim {
            dim_value: 256
          }
          dim {
            dim_value: 3
          }
          dim {
            dim_value: 3
          }
        }
      }
    }
  }
  input {
    name: "param_res4_b4_conv3_bn_beta"
    type {
      tensor_type {
        elem_type: 1
        shape {
          dim {
            dim_value: 1024
          }
        }
      }
    }
  }
  input {
    name: "param_res4_b4_conv3_bn_gamma"
    type {
      tensor_type {
        elem_type: 1
        shape {
          dim {
            dim_value: 1024
          }
        }
      }
    }
  }
  input {
    name: "param_res4_b4_conv3_conv_W"
    type {
      tensor_type {
        elem_type: 1
        shape {
          dim {
            dim_value: 1024
          }
          dim {
            dim_value: 256
          }
          dim {
            dim_value: 1
          }
          dim {
            dim_value: 1
          }
        }
      }
    }
  }
  input {
    name: "param_res4_b5_conv1_bn_beta"
    type {
      tensor_type {
        elem_type: 1
        shape {
          dim {
            dim_value: 256
          }
        }
      }
    }
  }
  input {
    name: "param_res4_b5_conv1_bn_gamma"
    type {
      tensor_type {
        elem_type: 1
        shape {
          dim {
            dim_value: 256
          }
        }
      }
    }
  }
  input {
    name: "param_res4_b5_conv1_conv_W"
    type {
      tensor_type {
        elem_type: 1
        shape {
          dim {
            dim_value: 256
          }
          dim {
            dim_value: 1024
          }
          dim {
            dim_value: 1
          }
          dim {
            dim_value: 1
          }
        }
      }
    }
  }
  input {
    name: "param_res4_b5_conv2_bn_beta"
    type {
      tensor_type {
        elem_type: 1
        shape {
          dim {
            dim_value: 256
          }
        }
      }
    }
  }
  input {
    name: "param_res4_b5_conv2_bn_gamma"
    type {
      tensor_type {
        elem_type: 1
        shape {
          dim {
            dim_value: 256
          }
        }
      }
    }
  }
  input {
    name: "param_res4_b5_conv2_conv_W"
    type {
      tensor_type {
        elem_type: 1
        shape {
          dim {
            dim_value: 256
          }
          dim {
            dim_value: 256
          }
          dim {
            dim_value: 3
          }
          dim {
            dim_value: 3
          }
        }
      }
    }
  }
  input {
    name: "param_res4_b5_conv3_bn_beta"
    type {
      tensor_type {
        elem_type: 1
        shape {
          dim {
            dim_value: 1024
          }
        }
      }
    }
  }
  input {
    name: "param_res4_b5_conv3_bn_gamma"
    type {
      tensor_type {
        elem_type: 1
        shape {
          dim {
            dim_value: 1024
          }
        }
      }
    }
  }
  input {
    name: "param_res4_b5_conv3_conv_W"
    type {
      tensor_type {
        elem_type: 1
        shape {
          dim {
            dim_value: 1024
          }
          dim {
            dim_value: 256
          }
          dim {
            dim_value: 1
          }
          dim {
            dim_value: 1
          }
        }
      }
    }
  }
  input {
    name: "param_res5_a_conv1_bn_beta"
    type {
      tensor_type {
        elem_type: 1
        shape {
          dim {
            dim_value: 512
          }
        }
      }
    }
  }
  input {
    name: "param_res5_a_conv1_bn_gamma"
    type {
      tensor_type {
        elem_type: 1
        shape {
          dim {
            dim_value: 512
          }
        }
      }
    }
  }
  input {
    name: "param_res5_a_conv1_conv_W"
    type {
      tensor_type {
        elem_type: 1
        shape {
          dim {
            dim_value: 512
          }
          dim {
            dim_value: 1024
          }
          dim {
            dim_value: 1
          }
          dim {
            dim_value: 1
          }
        }
      }
    }
  }
  input {
    name: "param_res5_a_conv2_bn_beta"
    type {
      tensor_type {
        elem_type: 1
        shape {
          dim {
            dim_value: 512
          }
        }
      }
    }
  }
  input {
    name: "param_res5_a_conv2_bn_gamma"
    type {
      tensor_type {
        elem_type: 1
        shape {
          dim {
            dim_value: 512
          }
        }
      }
    }
  }
  input {
    name: "param_res5_a_conv2_conv_W"
    type {
      tensor_type {
        elem_type: 1
        shape {
          dim {
            dim_value: 512
          }
          dim {
            dim_value: 512
          }
          dim {
            dim_value: 3
          }
          dim {
            dim_value: 3
          }
        }
      }
    }
  }
  input {
    name: "param_res5_a_conv3_bn_beta"
    type {
      tensor_type {
        elem_type: 1
        shape {
          dim {
            dim_value: 2048
          }
        }
      }
    }
  }
  input {
    name: "param_res5_a_conv3_bn_gamma"
    type {
      tensor_type {
        elem_type: 1
        shape {
          dim {
            dim_value: 2048
          }
        }
      }
    }
  }
  input {
    name: "param_res5_a_conv3_conv_W"
    type {
      tensor_type {
        elem_type: 1
        shape {
          dim {
            dim_value: 2048
          }
          dim {
            dim_value: 512
          }
          dim {
            dim_value: 1
          }
          dim {
            dim_value: 1
          }
        }
      }
    }
  }
  input {
    name: "param_res5_a_residual_conv_bn_beta"
    type {
      tensor_type {
        elem_type: 1
        shape {
          dim {
            dim_value: 2048
          }
        }
      }
    }
  }
  input {
    name: "param_res5_a_residual_conv_bn_gamma"
    type {
      tensor_type {
        elem_type: 1
        shape {
          dim {
            dim_value: 2048
          }
        }
      }
    }
  }
  input {
    name: "param_res5_a_residual_conv_conv_W"
    type {
      tensor_type {
        elem_type: 1
        shape {
          dim {
            dim_value: 2048
          }
          dim {
            dim_value: 1024
          }
          dim {
            dim_value: 1
          }
          dim {
            dim_value: 1
          }
        }
      }
    }
  }
  input {
    name: "param_res5_b1_conv1_bn_beta"
    type {
      tensor_type {
        elem_type: 1
        shape {
          dim {
            dim_value: 512
          }
        }
      }
    }
  }
  input {
    name: "param_res5_b1_conv1_bn_gamma"
    type {
      tensor_type {
        elem_type: 1
        shape {
          dim {
            dim_value: 512
          }
        }
      }
    }
  }
  input {
    name: "param_res5_b1_conv1_conv_W"
    type {
      tensor_type {
        elem_type: 1
        shape {
          dim {
            dim_value: 512
          }
          dim {
            dim_value: 2048
          }
          dim {
            dim_value: 1
          }
          dim {
            dim_value: 1
          }
        }
      }
    }
  }
  input {
    name: "param_res5_b1_conv2_bn_beta"
    type {
      tensor_type {
        elem_type: 1
        shape {
          dim {
            dim_value: 512
          }
        }
      }
    }
  }
  input {
    name: "param_res5_b1_conv2_bn_gamma"
    type {
      tensor_type {
        elem_type: 1
        shape {
          dim {
            dim_value: 512
          }
        }
      }
    }
  }
  input {
    name: "param_res5_b1_conv2_conv_W"
    type {
      tensor_type {
        elem_type: 1
        shape {
          dim {
            dim_value: 512
          }
          dim {
            dim_value: 512
          }
          dim {
            dim_value: 3
          }
          dim {
            dim_value: 3
          }
        }
      }
    }
  }
  input {
    name: "param_res5_b1_conv3_bn_beta"
    type {
      tensor_type {
        elem_type: 1
        shape {
          dim {
            dim_value: 2048
          }
        }
      }
    }
  }
  input {
    name: "param_res5_b1_conv3_bn_gamma"
    type {
      tensor_type {
        elem_type: 1
        shape {
          dim {
            dim_value: 2048
          }
        }
      }
    }
  }
  input {
    name: "param_res5_b1_conv3_conv_W"
    type {
      tensor_type {
        elem_type: 1
        shape {
          dim {
            dim_value: 2048
          }
          dim {
            dim_value: 512
          }
          dim {
            dim_value: 1
          }
          dim {
            dim_value: 1
          }
        }
      }
    }
  }
  input {
    name: "param_res5_b2_conv1_bn_beta"
    type {
      tensor_type {
        elem_type: 1
        shape {
          dim {
            dim_value: 512
          }
        }
      }
    }
  }
  input {
    name: "param_res5_b2_conv1_bn_gamma"
    type {
      tensor_type {
        elem_type: 1
        shape {
          dim {
            dim_value: 512
          }
        }
      }
    }
  }
  input {
    name: "param_res5_b2_conv1_conv_W"
    type {
      tensor_type {
        elem_type: 1
        shape {
          dim {
            dim_value: 512
          }
          dim {
            dim_value: 2048
          }
          dim {
            dim_value: 1
          }
          dim {
            dim_value: 1
          }
        }
      }
    }
  }
  input {
    name: "param_res5_b2_conv2_bn_beta"
    type {
      tensor_type {
        elem_type: 1
        shape {
          dim {
            dim_value: 512
          }
        }
      }
    }
  }
  input {
    name: "param_res5_b2_conv2_bn_gamma"
    type {
      tensor_type {
        elem_type: 1
        shape {
          dim {
            dim_value: 512
          }
        }
      }
    }
  }
  input {
    name: "param_res5_b2_conv2_conv_W"
    type {
      tensor_type {
        elem_type: 1
        shape {
          dim {
            dim_value: 512
          }
          dim {
            dim_value: 512
          }
          dim {
            dim_value: 3
          }
          dim {
            dim_value: 3
          }
        }
      }
    }
  }
  input {
    name: "param_res5_b2_conv3_bn_beta"
    type {
      tensor_type {
        elem_type: 1
        shape {
          dim {
            dim_value: 2048
          }
        }
      }
    }
  }
  input {
    name: "param_res5_b2_conv3_bn_gamma"
    type {
      tensor_type {
        elem_type: 1
        shape {
          dim {
            dim_value: 2048
          }
        }
      }
    }
  }
  input {
    name: "param_res5_b2_conv3_conv_W"
    type {
      tensor_type {
        elem_type: 1
        shape {
          dim {
            dim_value: 2048
          }
          dim {
            dim_value: 512
          }
          dim {
            dim_value: 1
          }
          dim {
            dim_value: 1
          }
        }
      }
    }
  }
  input {
    name: "Input_0"
    type {
      tensor_type {
        elem_type: 1
        shape {
          dim {
            dim_value: 1
          }
          dim {
            dim_value: 3
          }
          dim {
            dim_value: 224
          }
          dim {
            dim_value: 224
          }
        }
      }
    }
  }
  input {
    name: "v460"
    type {
      tensor_type {
        elem_type: 1
        shape {
          dim {
            dim_value: 128
          }
        }
      }
    }
  }
  input {
    name: "v416"
    type {
      tensor_type {
        elem_type: 1
        shape {
          dim {
            dim_value: 256
          }
        }
      }
    }
  }
  input {
    name: "v441"
    type {
      tensor_type {
        elem_type: 1
        shape {
          dim {
            dim_value: 128
          }
        }
      }
    }
  }
  input {
    name: "v709"
    type {
      tensor_type {
        elem_type: 1
        shape {
          dim {
            dim_value: 512
          }
        }
      }
    }
  }
  input {
    name: "v501"
    type {
      tensor_type {
        elem_type: 1
        shape {
          dim {
            dim_value: 512
          }
        }
      }
    }
  }
  input {
    name: "v617"
    type {
      tensor_type {
        elem_type: 1
        shape {
          dim {
            dim_value: 1024
          }
        }
      }
    }
  }
  input {
    name: "v553"
    type {
      tensor_type {
        elem_type: 1
        shape {
          dim {
            dim_value: 256
          }
        }
      }
    }
  }
  input {
    name: "v371"
    type {
      tensor_type {
        elem_type: 1
        shape {
          dim {
            dim_value: 64
          }
        }
      }
    }
  }
  input {
    name: "v680"
    type {
      tensor_type {
        elem_type: 1
        shape {
          dim {
            dim_value: 256
          }
        }
      }
    }
  }
  input {
    name: "v340"
    type {
      tensor_type {
        elem_type: 1
        shape {
          dim {
            dim_value: 64
          }
        }
      }
    }
  }
  input {
    name: "v561"
    type {
      tensor_type {
        elem_type: 1
        shape {
          dim {
            dim_value: 1024
          }
        }
      }
    }
  }
  input {
    name: "v400"
    type {
      tensor_type {
        elem_type: 1
        shape {
          dim {
            dim_value: 64
          }
        }
      }
    }
  }
  input {
    name: "v742"
    type {
      tensor_type {
        elem_type: 1
        shape {
          dim {
            dim_value: 512
          }
        }
      }
    }
  }
  input {
    name: "v609"
    type {
      tensor_type {
        elem_type: 1
        shape {
          dim {
            dim_value: 256
          }
        }
      }
    }
  }
  input {
    name: "v433"
    type {
      tensor_type {
        elem_type: 1
        shape {
          dim {
            dim_value: 512
          }
        }
      }
    }
  }
  input {
    name: "v327"
    type {
      tensor_type {
        elem_type: 1
        shape {
          dim {
            dim_value: 64
          }
        }
      }
    }
  }
  input {
    name: "v607"
    type {
      tensor_type {
        elem_type: 1
        shape {
          dim {
            dim_value: 256
          }
        }
      }
    }
  }
  input {
    name: "v439"
    type {
      tensor_type {
        elem_type: 1
        shape {
          dim {
            dim_value: 128
          }
        }
      }
    }
  }
  input {
    name: "v495"
    type {
      tensor_type {
        elem_type: 1
        shape {
          dim {
            dim_value: 128
          }
        }
      }
    }
  }
  input {
    name: "v756"
    type {
      tensor_type {
        elem_type: 1
        shape {
          dim {
            dim_value: 2048
          }
        }
      }
    }
  }
  input {
    name: "v688"
    type {
      tensor_type {
        elem_type: 1
        shape {
          dim {
            dim_value: 256
          }
        }
      }
    }
  }
  input {
    name: "v740"
    type {
      tensor_type {
        elem_type: 1
        shape {
          dim {
            dim_value: 512
          }
        }
      }
    }
  }
  input {
    name: "v748"
    type {
      tensor_type {
        elem_type: 1
        shape {
          dim {
            dim_value: 512
          }
        }
      }
    }
  }
  input {
    name: "v767"
    type {
      tensor_type {
        elem_type: 1
        shape {
          dim {
            dim_value: 512
          }
        }
      }
    }
  }
  input {
    name: "v713"
    type {
      tensor_type {
        elem_type: 1
        shape {
          dim {
            dim_value: 2048
          }
        }
      }
    }
  }
  input {
    name: "v512"
    type {
      tensor_type {
        elem_type: 1
        shape {
          dim {
            dim_value: 128
          }
        }
      }
    }
  }
  input {
    name: "v528"
    type {
      tensor_type {
        elem_type: 1
        shape {
          dim {
            dim_value: 512
          }
        }
      }
    }
  }
  input {
    name: "v555"
    type {
      tensor_type {
        elem_type: 1
        shape {
          dim {
            dim_value: 256
          }
        }
      }
    }
  }
  input {
    name: "v642"
    type {
      tensor_type {
        elem_type: 1
        shape {
          dim {
            dim_value: 1024
          }
        }
      }
    }
  }
  input {
    name: "v520"
    type {
      tensor_type {
        elem_type: 1
        shape {
          dim {
            dim_value: 128
          }
        }
      }
    }
  }
  input {
    name: "v458"
    type {
      tensor_type {
        elem_type: 1
        shape {
          dim {
            dim_value: 128
          }
        }
      }
    }
  }
  input {
    name: "v769"
    type {
      tensor_type {
        elem_type: 1
        shape {
          dim {
            dim_value: 512
          }
        }
      }
    }
  }
  input {
    name: "v427"
    type {
      tensor_type {
        elem_type: 1
        shape {
          dim {
            dim_value: 128
          }
        }
      }
    }
  }
  input {
    name: "v669"
    type {
      tensor_type {
        elem_type: 1
        shape {
          dim {
            dim_value: 1024
          }
        }
      }
    }
  }
  input {
    name: "v588"
    type {
      tensor_type {
        elem_type: 1
        shape {
          dim {
            dim_value: 1024
          }
        }
      }
    }
  }
  input {
    name: "v449"
    type {
      tensor_type {
        elem_type: 1
        shape {
          dim {
            dim_value: 512
          }
        }
      }
    }
  }
  input {
    name: "v362"
    type {
      tensor_type {
        elem_type: 1
        shape {
          dim {
            dim_value: 256
          }
        }
      }
    }
  }
  input {
    name: "v696"
    type {
      tensor_type {
        elem_type: 1
        shape {
          dim {
            dim_value: 1024
          }
        }
      }
    }
  }
  input {
    name: "v653"
    type {
      tensor_type {
        elem_type: 1
        shape {
          dim {
            dim_value: 256
          }
        }
      }
    }
  }
  input {
    name: "v671"
    type {
      tensor_type {
        elem_type: 1
        shape {
          dim {
            dim_value: 1024
          }
        }
      }
    }
  }
  input {
    name: "v615"
    type {
      tensor_type {
        elem_type: 1
        shape {
          dim {
            dim_value: 1024
          }
        }
      }
    }
  }
  input {
    name: "v468"
    type {
      tensor_type {
        elem_type: 1
        shape {
          dim {
            dim_value: 128
          }
        }
      }
    }
  }
  input {
    name: "v398"
    type {
      tensor_type {
        elem_type: 1
        shape {
          dim {
            dim_value: 64
          }
        }
      }
    }
  }
  input {
    name: "v715"
    type {
      tensor_type {
        elem_type: 1
        shape {
          dim {
            dim_value: 2048
          }
        }
      }
    }
  }
  input {
    name: "v408"
    type {
      tensor_type {
        elem_type: 1
        shape {
          dim {
            dim_value: 64
          }
        }
      }
    }
  }
  input {
    name: "v493"
    type {
      tensor_type {
        elem_type: 1
        shape {
          dim {
            dim_value: 128
          }
        }
      }
    }
  }
  input {
    name: "v352"
    type {
      tensor_type {
        elem_type: 1
        shape {
          dim {
            dim_value: 64
          }
        }
      }
    }
  }
  input {
    name: "v373"
    type {
      tensor_type {
        elem_type: 1
        shape {
          dim {
            dim_value: 64
          }
        }
      }
    }
  }
  input {
    name: "v729"
    type {
      tensor_type {
        elem_type: 1
        shape {
          dim {
            dim_value: 2048
          }
        }
      }
    }
  }
  input {
    name: "v582"
    type {
      tensor_type {
        elem_type: 1
        shape {
          dim {
            dim_value: 256
          }
        }
      }
    }
  }
  input {
    name: "v601"
    type {
      tensor_type {
        elem_type: 1
        shape {
          dim {
            dim_value: 256
          }
        }
      }
    }
  }
  input {
    name: "v758"
    type {
      tensor_type {
        elem_type: 1
        shape {
          dim {
            dim_value: 2048
          }
        }
      }
    }
  }
  input {
    name: "v541"
    type {
      tensor_type {
        elem_type: 1
        shape {
          dim {
            dim_value: 256
          }
        }
      }
    }
  }
  input {
    name: "v775"
    type {
      tensor_type {
        elem_type: 1
        shape {
          dim {
            dim_value: 512
          }
        }
      }
    }
  }
  input {
    name: "v425"
    type {
      tensor_type {
        elem_type: 1
        shape {
          dim {
            dim_value: 128
          }
        }
      }
    }
  }
  input {
    name: "v447"
    type {
      tensor_type {
        elem_type: 1
        shape {
          dim {
            dim_value: 512
          }
        }
      }
    }
  }
  input {
    name: "v476"
    type {
      tensor_type {
        elem_type: 1
        shape {
          dim {
            dim_value: 512
          }
        }
      }
    }
  }
  input {
    name: "v783"
    type {
      tensor_type {
        elem_type: 1
        shape {
          dim {
            dim_value: 2048
          }
        }
      }
    }
  }
  input {
    name: "v344"
    type {
      tensor_type {
        elem_type: 1
        shape {
          dim {
            dim_value: 256
          }
        }
      }
    }
  }
  input {
    name: "v572"
    type {
      tensor_type {
        elem_type: 1
        shape {
          dim {
            dim_value: 256
          }
        }
      }
    }
  }
  input {
    name: "v360"
    type {
      tensor_type {
        elem_type: 1
        shape {
          dim {
            dim_value: 256
          }
        }
      }
    }
  }
  input {
    name: "v721"
    type {
      tensor_type {
        elem_type: 1
        shape {
          dim {
            dim_value: 512
          }
        }
      }
    }
  }
  input {
    name: "v750"
    type {
      tensor_type {
        elem_type: 1
        shape {
          dim {
            dim_value: 512
          }
        }
      }
    }
  }
  input {
    name: "v626"
    type {
      tensor_type {
        elem_type: 1
        shape {
          dim {
            dim_value: 256
          }
        }
      }
    }
  }
  input {
    name: "v574"
    type {
      tensor_type {
        elem_type: 1
        shape {
          dim {
            dim_value: 256
          }
        }
      }
    }
  }
  input {
    name: "v530"
    type {
      tensor_type {
        elem_type: 1
        shape {
          dim {
            dim_value: 512
          }
        }
      }
    }
  }
  input {
    name: "v354"
    type {
      tensor_type {
        elem_type: 1
        shape {
          dim {
            dim_value: 64
          }
        }
      }
    }
  }
  input {
    name: "v329"
    type {
      tensor_type {
        elem_type: 1
        shape {
          dim {
            dim_value: 64
          }
        }
      }
    }
  }
  input {
    name: "v599"
    type {
      tensor_type {
        elem_type: 1
        shape {
          dim {
            dim_value: 256
          }
        }
      }
    }
  }
  input {
    name: "v485"
    type {
      tensor_type {
        elem_type: 1
        shape {
          dim {
            dim_value: 128
          }
        }
      }
    }
  }
  input {
    name: "v514"
    type {
      tensor_type {
        elem_type: 1
        shape {
          dim {
            dim_value: 128
          }
        }
      }
    }
  }
  input {
    name: "v628"
    type {
      tensor_type {
        elem_type: 1
        shape {
          dim {
            dim_value: 256
          }
        }
      }
    }
  }
  input {
    name: "v682"
    type {
      tensor_type {
        elem_type: 1
        shape {
          dim {
            dim_value: 256
          }
        }
      }
    }
  }
  input {
    name: "v389"
    type {
      tensor_type {
        elem_type: 1
        shape {
          dim {
            dim_value: 256
          }
        }
      }
    }
  }
  input {
    name: "v777"
    type {
      tensor_type {
        elem_type: 1
        shape {
          dim {
            dim_value: 512
          }
        }
      }
    }
  }
  input {
    name: "v466"
    type {
      tensor_type {
        elem_type: 1
        shape {
          dim {
            dim_value: 128
          }
        }
      }
    }
  }
  input {
    name: "v539"
    type {
      tensor_type {
        elem_type: 1
        shape {
          dim {
            dim_value: 256
          }
        }
      }
    }
  }
  input {
    name: "v414"
    type {
      tensor_type {
        elem_type: 1
        shape {
          dim {
            dim_value: 256
          }
        }
      }
    }
  }
  input {
    name: "v636"
    type {
      tensor_type {
        elem_type: 1
        shape {
          dim {
            dim_value: 256
          }
        }
      }
    }
  }
  input {
    name: "v503"
    type {
      tensor_type {
        elem_type: 1
        shape {
          dim {
            dim_value: 512
          }
        }
      }
    }
  }
  input {
    name: "v590"
    type {
      tensor_type {
        elem_type: 1
        shape {
          dim {
            dim_value: 1024
          }
        }
      }
    }
  }
  input {
    name: "v379"
    type {
      tensor_type {
        elem_type: 1
        shape {
          dim {
            dim_value: 64
          }
        }
      }
    }
  }
  input {
    name: "v634"
    type {
      tensor_type {
        elem_type: 1
        shape {
          dim {
            dim_value: 256
          }
        }
      }
    }
  }
  input {
    name: "v563"
    type {
      tensor_type {
        elem_type: 1
        shape {
          dim {
            dim_value: 1024
          }
        }
      }
    }
  }
  input {
    name: "v346"
    type {
      tensor_type {
        elem_type: 1
        shape {
          dim {
            dim_value: 256
          }
        }
      }
    }
  }
  input {
    name: "v338"
    type {
      tensor_type {
        elem_type: 1
        shape {
          dim {
            dim_value: 64
          }
        }
      }
    }
  }
  input {
    name: "v487"
    type {
      tensor_type {
        elem_type: 1
        shape {
          dim {
            dim_value: 128
          }
        }
      }
    }
  }
  input {
    name: "v661"
    type {
      tensor_type {
        elem_type: 1
        shape {
          dim {
            dim_value: 256
          }
        }
      }
    }
  }
  input {
    name: "v690"
    type {
      tensor_type {
        elem_type: 1
        shape {
          dim {
            dim_value: 256
          }
        }
      }
    }
  }
  input {
    name: "v785"
    type {
      tensor_type {
        elem_type: 1
        shape {
          dim {
            dim_value: 2048
          }
        }
      }
    }
  }
  input {
    name: "v723"
    type {
      tensor_type {
        elem_type: 1
        shape {
          dim {
            dim_value: 512
          }
        }
      }
    }
  }
  input {
    name: "v522"
    type {
      tensor_type {
        elem_type: 1
        shape {
          dim {
            dim_value: 128
          }
        }
      }
    }
  }
  input {
    name: "v547"
    type {
      tensor_type {
        elem_type: 1
        shape {
          dim {
            dim_value: 1024
          }
        }
      }
    }
  }
  input {
    name: "v663"
    type {
      tensor_type {
        elem_type: 1
        shape {
          dim {
            dim_value: 256
          }
        }
      }
    }
  }
  input {
    name: "v387"
    type {
      tensor_type {
        elem_type: 1
        shape {
          dim {
            dim_value: 256
          }
        }
      }
    }
  }
  input {
    name: "v474"
    type {
      tensor_type {
        elem_type: 1
        shape {
          dim {
            dim_value: 512
          }
        }
      }
    }
  }
  input {
    name: "v644"
    type {
      tensor_type {
        elem_type: 1
        shape {
          dim {
            dim_value: 1024
          }
        }
      }
    }
  }
  input {
    name: "v381"
    type {
      tensor_type {
        elem_type: 1
        shape {
          dim {
            dim_value: 64
          }
        }
      }
    }
  }
  input {
    name: "v731"
    type {
      tensor_type {
        elem_type: 1
        shape {
          dim {
            dim_value: 2048
          }
        }
      }
    }
  }
  input {
    name: "v406"
    type {
      tensor_type {
        elem_type: 1
        shape {
          dim {
            dim_value: 64
          }
        }
      }
    }
  }
  input {
    name: "v655"
    type {
      tensor_type {
        elem_type: 1
        shape {
          dim {
            dim_value: 256
          }
        }
      }
    }
  }
  input {
    name: "v545"
    type {
      tensor_type {
        elem_type: 1
        shape {
          dim {
            dim_value: 1024
          }
        }
      }
    }
  }
  input {
    name: "v698"
    type {
      tensor_type {
        elem_type: 1
        shape {
          dim {
            dim_value: 1024
          }
        }
      }
    }
  }
  input {
    name: "v707"
    type {
      tensor_type {
        elem_type: 1
        shape {
          dim {
            dim_value: 512
          }
        }
      }
    }
  }
  input {
    name: "v580"
    type {
      tensor_type {
        elem_type: 1
        shape {
          dim {
            dim_value: 256
          }
        }
      }
    }
  }
  input {
    name: "v431"
    type {
      tensor_type {
        elem_type: 1
        shape {
          dim {
            dim_value: 512
          }
        }
      }
    }
  }
  input {
    name: "param_conv1_bn_avg_mean"
    type {
      tensor_type {
        elem_type: 1
        shape {
          dim {
            dim_value: 64
          }
        }
      }
    }
  }
  input {
    name: "param_conv1_bn_avg_var"
    type {
      tensor_type {
        elem_type: 1
        shape {
          dim {
            dim_value: 64
          }
        }
      }
    }
  }
  input {
    name: "param_res2_a_conv1_bn_avg_mean"
    type {
      tensor_type {
        elem_type: 1
        shape {
          dim {
            dim_value: 64
          }
        }
      }
    }
  }
  input {
    name: "param_res2_a_conv1_bn_avg_var"
    type {
      tensor_type {
        elem_type: 1
        shape {
          dim {
            dim_value: 64
          }
        }
      }
    }
  }
  input {
    name: "param_res2_a_residual_conv_bn_avg_mean"
    type {
      tensor_type {
        elem_type: 1
        shape {
          dim {
            dim_value: 256
          }
        }
      }
    }
  }
  input {
    name: "param_res2_a_residual_conv_bn_avg_var"
    type {
      tensor_type {
        elem_type: 1
        shape {
          dim {
            dim_value: 256
          }
        }
      }
    }
  }
  input {
    name: "param_res2_a_conv2_bn_avg_mean"
    type {
      tensor_type {
        elem_type: 1
        shape {
          dim {
            dim_value: 64
          }
        }
      }
    }
  }
  input {
    name: "param_res2_a_conv2_bn_avg_var"
    type {
      tensor_type {
        elem_type: 1
        shape {
          dim {
            dim_value: 64
          }
        }
      }
    }
  }
  input {
    name: "param_res2_a_conv3_bn_avg_mean"
    type {
      tensor_type {
        elem_type: 1
        shape {
          dim {
            dim_value: 256
          }
        }
      }
    }
  }
  input {
    name: "param_res2_a_conv3_bn_avg_var"
    type {
      tensor_type {
        elem_type: 1
        shape {
          dim {
            dim_value: 256
          }
        }
      }
    }
  }
  input {
    name: "param_res2_b1_conv1_bn_avg_mean"
    type {
      tensor_type {
        elem_type: 1
        shape {
          dim {
            dim_value: 64
          }
        }
      }
    }
  }
  input {
    name: "param_res2_b1_conv1_bn_avg_var"
    type {
      tensor_type {
        elem_type: 1
        shape {
          dim {
            dim_value: 64
          }
        }
      }
    }
  }
  input {
    name: "param_res2_b1_conv2_bn_avg_mean"
    type {
      tensor_type {
        elem_type: 1
        shape {
          dim {
            dim_value: 64
          }
        }
      }
    }
  }
  input {
    name: "param_res2_b1_conv2_bn_avg_var"
    type {
      tensor_type {
        elem_type: 1
        shape {
          dim {
            dim_value: 64
          }
        }
      }
    }
  }
  input {
    name: "param_res2_b1_conv3_bn_avg_mean"
    type {
      tensor_type {
        elem_type: 1
        shape {
          dim {
            dim_value: 256
          }
        }
      }
    }
  }
  input {
    name: "param_res2_b1_conv3_bn_avg_var"
    type {
      tensor_type {
        elem_type: 1
        shape {
          dim {
            dim_value: 256
          }
        }
      }
    }
  }
  input {
    name: "param_res2_b2_conv1_bn_avg_mean"
    type {
      tensor_type {
        elem_type: 1
        shape {
          dim {
            dim_value: 64
          }
        }
      }
    }
  }
  input {
    name: "param_res2_b2_conv1_bn_avg_var"
    type {
      tensor_type {
        elem_type: 1
        shape {
          dim {
            dim_value: 64
          }
        }
      }
    }
  }
  input {
    name: "param_res2_b2_conv2_bn_avg_mean"
    type {
      tensor_type {
        elem_type: 1
        shape {
          dim {
            dim_value: 64
          }
        }
      }
    }
  }
  input {
    name: "param_res2_b2_conv2_bn_avg_var"
    type {
      tensor_type {
        elem_type: 1
        shape {
          dim {
            dim_value: 64
          }
        }
      }
    }
  }
  input {
    name: "param_res2_b2_conv3_bn_avg_mean"
    type {
      tensor_type {
        elem_type: 1
        shape {
          dim {
            dim_value: 256
          }
        }
      }
    }
  }
  input {
    name: "param_res2_b2_conv3_bn_avg_var"
    type {
      tensor_type {
        elem_type: 1
        shape {
          dim {
            dim_value: 256
          }
        }
      }
    }
  }
  input {
    name: "param_res3_a_conv1_bn_avg_mean"
    type {
      tensor_type {
        elem_type: 1
        shape {
          dim {
            dim_value: 128
          }
        }
      }
    }
  }
  input {
    name: "param_res3_a_conv1_bn_avg_var"
    type {
      tensor_type {
        elem_type: 1
        shape {
          dim {
            dim_value: 128
          }
        }
      }
    }
  }
  input {
    name: "param_res3_a_residual_conv_bn_avg_mean"
    type {
      tensor_type {
        elem_type: 1
        shape {
          dim {
            dim_value: 512
          }
        }
      }
    }
  }
  input {
    name: "param_res3_a_residual_conv_bn_avg_var"
    type {
      tensor_type {
        elem_type: 1
        shape {
          dim {
            dim_value: 512
          }
        }
      }
    }
  }
  input {
    name: "param_res3_a_conv2_bn_avg_mean"
    type {
      tensor_type {
        elem_type: 1
        shape {
          dim {
            dim_value: 128
          }
        }
      }
    }
  }
  input {
    name: "param_res3_a_conv2_bn_avg_var"
    type {
      tensor_type {
        elem_type: 1
        shape {
          dim {
            dim_value: 128
          }
        }
      }
    }
  }
  input {
    name: "param_res3_a_conv3_bn_avg_mean"
    type {
      tensor_type {
        elem_type: 1
        shape {
          dim {
            dim_value: 512
          }
        }
      }
    }
  }
  input {
    name: "param_res3_a_conv3_bn_avg_var"
    type {
      tensor_type {
        elem_type: 1
        shape {
          dim {
            dim_value: 512
          }
        }
      }
    }
  }
  input {
    name: "param_res3_b1_conv1_bn_avg_mean"
    type {
      tensor_type {
        elem_type: 1
        shape {
          dim {
            dim_value: 128
          }
        }
      }
    }
  }
  input {
    name: "param_res3_b1_conv1_bn_avg_var"
    type {
      tensor_type {
        elem_type: 1
        shape {
          dim {
            dim_value: 128
          }
        }
      }
    }
  }
  input {
    name: "param_res3_b1_conv2_bn_avg_mean"
    type {
      tensor_type {
        elem_type: 1
        shape {
          dim {
            dim_value: 128
          }
        }
      }
    }
  }
  input {
    name: "param_res3_b1_conv2_bn_avg_var"
    type {
      tensor_type {
        elem_type: 1
        shape {
          dim {
            dim_value: 128
          }
        }
      }
    }
  }
  input {
    name: "param_res3_b1_conv3_bn_avg_mean"
    type {
      tensor_type {
        elem_type: 1
        shape {
          dim {
            dim_value: 512
          }
        }
      }
    }
  }
  input {
    name: "param_res3_b1_conv3_bn_avg_var"
    type {
      tensor_type {
        elem_type: 1
        shape {
          dim {
            dim_value: 512
          }
        }
      }
    }
  }
  input {
    name: "param_res3_b2_conv1_bn_avg_mean"
    type {
      tensor_type {
        elem_type: 1
        shape {
          dim {
            dim_value: 128
          }
        }
      }
    }
  }
  input {
    name: "param_res3_b2_conv1_bn_avg_var"
    type {
      tensor_type {
        elem_type: 1
        shape {
          dim {
            dim_value: 128
          }
        }
      }
    }
  }
  input {
    name: "param_res3_b2_conv2_bn_avg_mean"
    type {
      tensor_type {
        elem_type: 1
        shape {
          dim {
            dim_value: 128
          }
        }
      }
    }
  }
  input {
    name: "param_res3_b2_conv2_bn_avg_var"
    type {
      tensor_type {
        elem_type: 1
        shape {
          dim {
            dim_value: 128
          }
        }
      }
    }
  }
  input {
    name: "param_res3_b2_conv3_bn_avg_mean"
    type {
      tensor_type {
        elem_type: 1
        shape {
          dim {
            dim_value: 512
          }
        }
      }
    }
  }
  input {
    name: "param_res3_b2_conv3_bn_avg_var"
    type {
      tensor_type {
        elem_type: 1
        shape {
          dim {
            dim_value: 512
          }
        }
      }
    }
  }
  input {
    name: "param_res3_b3_conv1_bn_avg_mean"
    type {
      tensor_type {
        elem_type: 1
        shape {
          dim {
            dim_value: 128
          }
        }
      }
    }
  }
  input {
    name: "param_res3_b3_conv1_bn_avg_var"
    type {
      tensor_type {
        elem_type: 1
        shape {
          dim {
            dim_value: 128
          }
        }
      }
    }
  }
  input {
    name: "param_res3_b3_conv2_bn_avg_mean"
    type {
      tensor_type {
        elem_type: 1
        shape {
          dim {
            dim_value: 128
          }
        }
      }
    }
  }
  input {
    name: "param_res3_b3_conv2_bn_avg_var"
    type {
      tensor_type {
        elem_type: 1
        shape {
          dim {
            dim_value: 128
          }
        }
      }
    }
  }
  input {
    name: "param_res3_b3_conv3_bn_avg_mean"
    type {
      tensor_type {
        elem_type: 1
        shape {
          dim {
            dim_value: 512
          }
        }
      }
    }
  }
  input {
    name: "param_res3_b3_conv3_bn_avg_var"
    type {
      tensor_type {
        elem_type: 1
        shape {
          dim {
            dim_value: 512
          }
        }
      }
    }
  }
  input {
    name: "param_res4_a_conv1_bn_avg_mean"
    type {
      tensor_type {
        elem_type: 1
        shape {
          dim {
            dim_value: 256
          }
        }
      }
    }
  }
  input {
    name: "param_res4_a_conv1_bn_avg_var"
    type {
      tensor_type {
        elem_type: 1
        shape {
          dim {
            dim_value: 256
          }
        }
      }
    }
  }
  input {
    name: "param_res4_a_residual_conv_bn_avg_mean"
    type {
      tensor_type {
        elem_type: 1
        shape {
          dim {
            dim_value: 1024
          }
        }
      }
    }
  }
  input {
    name: "param_res4_a_residual_conv_bn_avg_var"
    type {
      tensor_type {
        elem_type: 1
        shape {
          dim {
            dim_value: 1024
          }
        }
      }
    }
  }
  input {
    name: "param_res4_a_conv2_bn_avg_mean"
    type {
      tensor_type {
        elem_type: 1
        shape {
          dim {
            dim_value: 256
          }
        }
      }
    }
  }
  input {
    name: "param_res4_a_conv2_bn_avg_var"
    type {
      tensor_type {
        elem_type: 1
        shape {
          dim {
            dim_value: 256
          }
        }
      }
    }
  }
  input {
    name: "param_res4_a_conv3_bn_avg_mean"
    type {
      tensor_type {
        elem_type: 1
        shape {
          dim {
            dim_value: 1024
          }
        }
      }
    }
  }
  input {
    name: "param_res4_a_conv3_bn_avg_var"
    type {
      tensor_type {
        elem_type: 1
        shape {
          dim {
            dim_value: 1024
          }
        }
      }
    }
  }
  input {
    name: "param_res4_b1_conv1_bn_avg_mean"
    type {
      tensor_type {
        elem_type: 1
        shape {
          dim {
            dim_value: 256
          }
        }
      }
    }
  }
  input {
    name: "param_res4_b1_conv1_bn_avg_var"
    type {
      tensor_type {
        elem_type: 1
        shape {
          dim {
            dim_value: 256
          }
        }
      }
    }
  }
  input {
    name: "param_res4_b1_conv2_bn_avg_mean"
    type {
      tensor_type {
        elem_type: 1
        shape {
          dim {
            dim_value: 256
          }
        }
      }
    }
  }
  input {
    name: "param_res4_b1_conv2_bn_avg_var"
    type {
      tensor_type {
        elem_type: 1
        shape {
          dim {
            dim_value: 256
          }
        }
      }
    }
  }
  input {
    name: "param_res4_b1_conv3_bn_avg_mean"
    type {
      tensor_type {
        elem_type: 1
        shape {
          dim {
            dim_value: 1024
          }
        }
      }
    }
  }
  input {
    name: "param_res4_b1_conv3_bn_avg_var"
    type {
      tensor_type {
        elem_type: 1
        shape {
          dim {
            dim_value: 1024
          }
        }
      }
    }
  }
  input {
    name: "param_res4_b2_conv1_bn_avg_mean"
    type {
      tensor_type {
        elem_type: 1
        shape {
          dim {
            dim_value: 256
          }
        }
      }
    }
  }
  input {
    name: "param_res4_b2_conv1_bn_avg_var"
    type {
      tensor_type {
        elem_type: 1
        shape {
          dim {
            dim_value: 256
          }
        }
      }
    }
  }
  input {
    name: "param_res4_b2_conv2_bn_avg_mean"
    type {
      tensor_type {
        elem_type: 1
        shape {
          dim {
            dim_value: 256
          }
        }
      }
    }
  }
  input {
    name: "param_res4_b2_conv2_bn_avg_var"
    type {
      tensor_type {
        elem_type: 1
        shape {
          dim {
            dim_value: 256
          }
        }
      }
    }
  }
  input {
    name: "param_res4_b2_conv3_bn_avg_mean"
    type {
      tensor_type {
        elem_type: 1
        shape {
          dim {
            dim_value: 1024
          }
        }
      }
    }
  }
  input {
    name: "param_res4_b2_conv3_bn_avg_var"
    type {
      tensor_type {
        elem_type: 1
        shape {
          dim {
            dim_value: 1024
          }
        }
      }
    }
  }
  input {
    name: "param_res4_b3_conv1_bn_avg_mean"
    type {
      tensor_type {
        elem_type: 1
        shape {
          dim {
            dim_value: 256
          }
        }
      }
    }
  }
  input {
    name: "param_res4_b3_conv1_bn_avg_var"
    type {
      tensor_type {
        elem_type: 1
        shape {
          dim {
            dim_value: 256
          }
        }
      }
    }
  }
  input {
    name: "param_res4_b3_conv2_bn_avg_mean"
    type {
      tensor_type {
        elem_type: 1
        shape {
          dim {
            dim_value: 256
          }
        }
      }
    }
  }
  input {
    name: "param_res4_b3_conv2_bn_avg_var"
    type {
      tensor_type {
        elem_type: 1
        shape {
          dim {
            dim_value: 256
          }
        }
      }
    }
  }
  input {
    name: "param_res4_b3_conv3_bn_avg_mean"
    type {
      tensor_type {
        elem_type: 1
        shape {
          dim {
            dim_value: 1024
          }
        }
      }
    }
  }
  input {
    name: "param_res4_b3_conv3_bn_avg_var"
    type {
      tensor_type {
        elem_type: 1
        shape {
          dim {
            dim_value: 1024
          }
        }
      }
    }
  }
  input {
    name: "param_res4_b4_conv1_bn_avg_mean"
    type {
      tensor_type {
        elem_type: 1
        shape {
          dim {
            dim_value: 256
          }
        }
      }
    }
  }
  input {
    name: "param_res4_b4_conv1_bn_avg_var"
    type {
      tensor_type {
        elem_type: 1
        shape {
          dim {
            dim_value: 256
          }
        }
      }
    }
  }
  input {
    name: "param_res4_b4_conv2_bn_avg_mean"
    type {
      tensor_type {
        elem_type: 1
        shape {
          dim {
            dim_value: 256
          }
        }
      }
    }
  }
  input {
    name: "param_res4_b4_conv2_bn_avg_var"
    type {
      tensor_type {
        elem_type: 1
        shape {
          dim {
            dim_value: 256
          }
        }
      }
    }
  }
  input {
    name: "param_res4_b4_conv3_bn_avg_mean"
    type {
      tensor_type {
        elem_type: 1
        shape {
          dim {
            dim_value: 1024
          }
        }
      }
    }
  }
  input {
    name: "param_res4_b4_conv3_bn_avg_var"
    type {
      tensor_type {
        elem_type: 1
        shape {
          dim {
            dim_value: 1024
          }
        }
      }
    }
  }
  input {
    name: "param_res4_b5_conv1_bn_avg_mean"
    type {
      tensor_type {
        elem_type: 1
        shape {
          dim {
            dim_value: 256
          }
        }
      }
    }
  }
  input {
    name: "param_res4_b5_conv1_bn_avg_var"
    type {
      tensor_type {
        elem_type: 1
        shape {
          dim {
            dim_value: 256
          }
        }
      }
    }
  }
  input {
    name: "param_res4_b5_conv2_bn_avg_mean"
    type {
      tensor_type {
        elem_type: 1
        shape {
          dim {
            dim_value: 256
          }
        }
      }
    }
  }
  input {
    name: "param_res4_b5_conv2_bn_avg_var"
    type {
      tensor_type {
        elem_type: 1
        shape {
          dim {
            dim_value: 256
          }
        }
      }
    }
  }
  input {
    name: "param_res4_b5_conv3_bn_avg_mean"
    type {
      tensor_type {
        elem_type: 1
        shape {
          dim {
            dim_value: 1024
          }
        }
      }
    }
  }
  input {
    name: "param_res4_b5_conv3_bn_avg_var"
    type {
      tensor_type {
        elem_type: 1
        shape {
          dim {
            dim_value: 1024
          }
        }
      }
    }
  }
  input {
    name: "param_res5_a_conv1_bn_avg_mean"
    type {
      tensor_type {
        elem_type: 1
        shape {
          dim {
            dim_value: 512
          }
        }
      }
    }
  }
  input {
    name: "param_res5_a_conv1_bn_avg_var"
    type {
      tensor_type {
        elem_type: 1
        shape {
          dim {
            dim_value: 512
          }
        }
      }
    }
  }
  input {
    name: "param_res5_a_residual_conv_bn_avg_mean"
    type {
      tensor_type {
        elem_type: 1
        shape {
          dim {
            dim_value: 2048
          }
        }
      }
    }
  }
  input {
    name: "param_res5_a_residual_conv_bn_avg_var"
    type {
      tensor_type {
        elem_type: 1
        shape {
          dim {
            dim_value: 2048
          }
        }
      }
    }
  }
  input {
    name: "param_res5_a_conv2_bn_avg_mean"
    type {
      tensor_type {
        elem_type: 1
        shape {
          dim {
            dim_value: 512
          }
        }
      }
    }
  }
  input {
    name: "param_res5_a_conv2_bn_avg_var"
    type {
      tensor_type {
        elem_type: 1
        shape {
          dim {
            dim_value: 512
          }
        }
      }
    }
  }
  input {
    name: "param_res5_a_conv3_bn_avg_mean"
    type {
      tensor_type {
        elem_type: 1
        shape {
          dim {
            dim_value: 2048
          }
        }
      }
    }
  }
  input {
    name: "param_res5_a_conv3_bn_avg_var"
    type {
      tensor_type {
        elem_type: 1
        shape {
          dim {
            dim_value: 2048
          }
        }
      }
    }
  }
  input {
    name: "param_res5_b1_conv1_bn_avg_mean"
    type {
      tensor_type {
        elem_type: 1
        shape {
          dim {
            dim_value: 512
          }
        }
      }
    }
  }
  input {
    name: "param_res5_b1_conv1_bn_avg_var"
    type {
      tensor_type {
        elem_type: 1
        shape {
          dim {
            dim_value: 512
          }
        }
      }
    }
  }
  input {
    name: "param_res5_b1_conv2_bn_avg_mean"
    type {
      tensor_type {
        elem_type: 1
        shape {
          dim {
            dim_value: 512
          }
        }
      }
    }
  }
  input {
    name: "param_res5_b1_conv2_bn_avg_var"
    type {
      tensor_type {
        elem_type: 1
        shape {
          dim {
            dim_value: 512
          }
        }
      }
    }
  }
  input {
    name: "param_res5_b1_conv3_bn_avg_mean"
    type {
      tensor_type {
        elem_type: 1
        shape {
          dim {
            dim_value: 2048
          }
        }
      }
    }
  }
  input {
    name: "param_res5_b1_conv3_bn_avg_var"
    type {
      tensor_type {
        elem_type: 1
        shape {
          dim {
            dim_value: 2048
          }
        }
      }
    }
  }
  input {
    name: "param_res5_b2_conv1_bn_avg_mean"
    type {
      tensor_type {
        elem_type: 1
        shape {
          dim {
            dim_value: 512
          }
        }
      }
    }
  }
  input {
    name: "param_res5_b2_conv1_bn_avg_var"
    type {
      tensor_type {
        elem_type: 1
        shape {
          dim {
            dim_value: 512
          }
        }
      }
    }
  }
  input {
    name: "param_res5_b2_conv2_bn_avg_mean"
    type {
      tensor_type {
        elem_type: 1
        shape {
          dim {
            dim_value: 512
          }
        }
      }
    }
  }
  input {
    name: "param_res5_b2_conv2_bn_avg_var"
    type {
      tensor_type {
        elem_type: 1
        shape {
          dim {
            dim_value: 512
          }
        }
      }
    }
  }
  input {
    name: "param_res5_b2_conv3_bn_avg_mean"
    type {
      tensor_type {
        elem_type: 1
        shape {
          dim {
            dim_value: 2048
          }
        }
      }
    }
  }
  input {
    name: "param_res5_b2_conv3_bn_avg_var"
    type {
      tensor_type {
        elem_type: 1
        shape {
          dim {
            dim_value: 2048
          }
        }
      }
    }
  }
  output {
    name: "Softmax_0"
    type {
      tensor_type {
        elem_type: 1
        shape {
          dim {
            dim_value: 1
          }
          dim {
            dim_value: 1000
          }
        }
      }
    }
  }
}
opset_import {
  version: 10
}
