ir_version: 5
producer_name: "Chainer"
producer_version: "6.2.0"
model_version: 0
graph {
  name: "Graph"
  node {
    input: "Input_0"
    input: "param_feature_extractor_entryflow_conv1_conv_W"
    output: "Convolution2DFunction_0"
    name: "Convolution2DFunction_0"
    op_type: "Conv"
    attribute {
      name: "dilations"
      ints: 1
      ints: 1
      type: INTS
    }
    attribute {
      name: "group"
      i: 1
      type: INT
    }
    attribute {
      name: "kernel_shape"
      ints: 3
      ints: 3
      type: INTS
    }
    attribute {
      name: "pads"
      ints: 1
      ints: 1
      ints: 1
      ints: 1
      type: INTS
    }
    attribute {
      name: "strides"
      ints: 2
      ints: 2
      type: INTS
    }
  }
  node {
    input: "Convolution2DFunction_0"
    input: "param_feature_extractor_entryflow_conv1_bn_gamma"
    input: "param_feature_extractor_entryflow_conv1_bn_beta"
    input: "param_feature_extractor_entryflow_conv1_bn_avg_mean"
    input: "param_feature_extractor_entryflow_conv1_bn_avg_var"
    output: "FixedBatchNormalization_0"
    name: "FixedBatchNormalization_0"
    op_type: "BatchNormalization"
    attribute {
      name: "epsilon"
      f: 0.0010000000474974513
      type: FLOAT
    }
    attribute {
      name: "momentum"
      f: 0.0
      type: FLOAT
    }
  }
  node {
    input: "FixedBatchNormalization_0"
    output: "ReLU_0"
    name: "ReLU_0"
    op_type: "Relu"
  }
  node {
    input: "ReLU_0"
    input: "param_feature_extractor_entryflow_conv2_conv_W"
    output: "Convolution2DFunction_1"
    name: "Convolution2DFunction_1"
    op_type: "Conv"
    attribute {
      name: "dilations"
      ints: 1
      ints: 1
      type: INTS
    }
    attribute {
      name: "group"
      i: 1
      type: INT
    }
    attribute {
      name: "kernel_shape"
      ints: 3
      ints: 3
      type: INTS
    }
    attribute {
      name: "pads"
      ints: 1
      ints: 1
      ints: 1
      ints: 1
      type: INTS
    }
    attribute {
      name: "strides"
      ints: 1
      ints: 1
      type: INTS
    }
  }
  node {
    input: "Convolution2DFunction_1"
    input: "param_feature_extractor_entryflow_conv2_bn_gamma"
    input: "param_feature_extractor_entryflow_conv2_bn_beta"
    input: "param_feature_extractor_entryflow_conv2_bn_avg_mean"
    input: "param_feature_extractor_entryflow_conv2_bn_avg_var"
    output: "FixedBatchNormalization_1"
    name: "FixedBatchNormalization_1"
    op_type: "BatchNormalization"
    attribute {
      name: "epsilon"
      f: 0.0010000000474974513
      type: FLOAT
    }
    attribute {
      name: "momentum"
      f: 0.0
      type: FLOAT
    }
  }
  node {
    input: "FixedBatchNormalization_1"
    output: "ReLU_1"
    name: "ReLU_1"
    op_type: "Relu"
  }
  node {
    input: "ReLU_1"
    output: "ReLU_2"
    name: "ReLU_2"
    op_type: "Relu"
  }
  node {
    input: "ReLU_1"
    input: "param_feature_extractor_entryflow_block1_conv_conv_W"
    output: "Convolution2DFunction_2"
    name: "Convolution2DFunction_2"
    op_type: "Conv"
    attribute {
      name: "dilations"
      ints: 1
      ints: 1
      type: INTS
    }
    attribute {
      name: "group"
      i: 1
      type: INT
    }
    attribute {
      name: "kernel_shape"
      ints: 1
      ints: 1
      type: INTS
    }
    attribute {
      name: "pads"
      ints: 0
      ints: 0
      ints: 0
      ints: 0
      type: INTS
    }
    attribute {
      name: "strides"
      ints: 2
      ints: 2
      type: INTS
    }
  }
  node {
    input: "ReLU_2"
    input: "param_feature_extractor_entryflow_block1_separable1_depthwise_W"
    output: "Convolution2DFunction_3"
    name: "Convolution2DFunction_3"
    op_type: "Conv"
    attribute {
      name: "dilations"
      ints: 1
      ints: 1
      type: INTS
    }
    attribute {
      name: "group"
      i: 64
      type: INT
    }
    attribute {
      name: "kernel_shape"
      ints: 3
      ints: 3
      type: INTS
    }
    attribute {
      name: "pads"
      ints: 1
      ints: 1
      ints: 1
      ints: 1
      type: INTS
    }
    attribute {
      name: "strides"
      ints: 1
      ints: 1
      type: INTS
    }
  }
  node {
    input: "Convolution2DFunction_2"
    input: "param_feature_extractor_entryflow_block1_conv_bn_gamma"
    input: "param_feature_extractor_entryflow_block1_conv_bn_beta"
    input: "param_feature_extractor_entryflow_block1_conv_bn_avg_mean"
    input: "param_feature_extractor_entryflow_block1_conv_bn_avg_var"
    output: "FixedBatchNormalization_2"
    name: "FixedBatchNormalization_2"
    op_type: "BatchNormalization"
    attribute {
      name: "epsilon"
      f: 0.0010000000474974513
      type: FLOAT
    }
    attribute {
      name: "momentum"
      f: 0.0
      type: FLOAT
    }
  }
  node {
    input: "Convolution2DFunction_3"
    input: "param_feature_extractor_entryflow_block1_separable1_dw_bn_gamma"
    input: "param_feature_extractor_entryflow_block1_separable1_dw_bn_beta"
    input: "param_feature_extractor_entryflow_block1_separable1_dw_bn_avg_mean"
    input: "param_feature_extractor_entryflow_block1_separable1_dw_bn_avg_var"
    output: "FixedBatchNormalization_3"
    name: "FixedBatchNormalization_3"
    op_type: "BatchNormalization"
    attribute {
      name: "epsilon"
      f: 0.0010000000474974513
      type: FLOAT
    }
    attribute {
      name: "momentum"
      f: 0.0
      type: FLOAT
    }
  }
  node {
    input: "FixedBatchNormalization_2"
    output: "Identity_0"
    name: "Identity_0"
    op_type: "Identity"
  }
  node {
    input: "FixedBatchNormalization_3"
    output: "Identity_1"
    name: "Identity_1"
    op_type: "Identity"
  }
  node {
    input: "Identity_1"
    input: "param_feature_extractor_entryflow_block1_separable1_pointwise_W"
    output: "Convolution2DFunction_4"
    name: "Convolution2DFunction_4"
    op_type: "Conv"
    attribute {
      name: "dilations"
      ints: 1
      ints: 1
      type: INTS
    }
    attribute {
      name: "group"
      i: 1
      type: INT
    }
    attribute {
      name: "kernel_shape"
      ints: 1
      ints: 1
      type: INTS
    }
    attribute {
      name: "pads"
      ints: 0
      ints: 0
      ints: 0
      ints: 0
      type: INTS
    }
    attribute {
      name: "strides"
      ints: 1
      ints: 1
      type: INTS
    }
  }
  node {
    input: "Convolution2DFunction_4"
    input: "param_feature_extractor_entryflow_block1_separable1_pw_bn_gamma"
    input: "param_feature_extractor_entryflow_block1_separable1_pw_bn_beta"
    input: "param_feature_extractor_entryflow_block1_separable1_pw_bn_avg_mean"
    input: "param_feature_extractor_entryflow_block1_separable1_pw_bn_avg_var"
    output: "FixedBatchNormalization_4"
    name: "FixedBatchNormalization_4"
    op_type: "BatchNormalization"
    attribute {
      name: "epsilon"
      f: 0.0010000000474974513
      type: FLOAT
    }
    attribute {
      name: "momentum"
      f: 0.0
      type: FLOAT
    }
  }
  node {
    input: "FixedBatchNormalization_4"
    output: "ReLU_3"
    name: "ReLU_3"
    op_type: "Relu"
  }
  node {
    input: "ReLU_3"
    input: "param_feature_extractor_entryflow_block1_separable2_depthwise_W"
    output: "Convolution2DFunction_5"
    name: "Convolution2DFunction_5"
    op_type: "Conv"
    attribute {
      name: "dilations"
      ints: 1
      ints: 1
      type: INTS
    }
    attribute {
      name: "group"
      i: 128
      type: INT
    }
    attribute {
      name: "kernel_shape"
      ints: 3
      ints: 3
      type: INTS
    }
    attribute {
      name: "pads"
      ints: 1
      ints: 1
      ints: 1
      ints: 1
      type: INTS
    }
    attribute {
      name: "strides"
      ints: 1
      ints: 1
      type: INTS
    }
  }
  node {
    input: "Convolution2DFunction_5"
    input: "param_feature_extractor_entryflow_block1_separable2_dw_bn_gamma"
    input: "param_feature_extractor_entryflow_block1_separable2_dw_bn_beta"
    input: "param_feature_extractor_entryflow_block1_separable2_dw_bn_avg_mean"
    input: "param_feature_extractor_entryflow_block1_separable2_dw_bn_avg_var"
    output: "FixedBatchNormalization_5"
    name: "FixedBatchNormalization_5"
    op_type: "BatchNormalization"
    attribute {
      name: "epsilon"
      f: 0.0010000000474974513
      type: FLOAT
    }
    attribute {
      name: "momentum"
      f: 0.0
      type: FLOAT
    }
  }
  node {
    input: "FixedBatchNormalization_5"
    output: "Identity_2"
    name: "Identity_2"
    op_type: "Identity"
  }
  node {
    input: "Identity_2"
    input: "param_feature_extractor_entryflow_block1_separable2_pointwise_W"
    output: "Convolution2DFunction_6"
    name: "Convolution2DFunction_6"
    op_type: "Conv"
    attribute {
      name: "dilations"
      ints: 1
      ints: 1
      type: INTS
    }
    attribute {
      name: "group"
      i: 1
      type: INT
    }
    attribute {
      name: "kernel_shape"
      ints: 1
      ints: 1
      type: INTS
    }
    attribute {
      name: "pads"
      ints: 0
      ints: 0
      ints: 0
      ints: 0
      type: INTS
    }
    attribute {
      name: "strides"
      ints: 1
      ints: 1
      type: INTS
    }
  }
  node {
    input: "Convolution2DFunction_6"
    input: "param_feature_extractor_entryflow_block1_separable2_pw_bn_gamma"
    input: "param_feature_extractor_entryflow_block1_separable2_pw_bn_beta"
    input: "param_feature_extractor_entryflow_block1_separable2_pw_bn_avg_mean"
    input: "param_feature_extractor_entryflow_block1_separable2_pw_bn_avg_var"
    output: "FixedBatchNormalization_6"
    name: "FixedBatchNormalization_6"
    op_type: "BatchNormalization"
    attribute {
      name: "epsilon"
      f: 0.0010000000474974513
      type: FLOAT
    }
    attribute {
      name: "momentum"
      f: 0.0
      type: FLOAT
    }
  }
  node {
    input: "FixedBatchNormalization_6"
    output: "Identity_3"
    name: "Identity_3"
    op_type: "Identity"
  }
  node {
    input: "Identity_3"
    output: "ReLU_4"
    name: "ReLU_4"
    op_type: "Relu"
  }
  node {
    input: "ReLU_4"
    input: "param_feature_extractor_entryflow_block1_separable3_depthwise_W"
    output: "Convolution2DFunction_7"
    name: "Convolution2DFunction_7"
    op_type: "Conv"
    attribute {
      name: "dilations"
      ints: 1
      ints: 1
      type: INTS
    }
    attribute {
      name: "group"
      i: 128
      type: INT
    }
    attribute {
      name: "kernel_shape"
      ints: 3
      ints: 3
      type: INTS
    }
    attribute {
      name: "pads"
      ints: 1
      ints: 1
      ints: 1
      ints: 1
      type: INTS
    }
    attribute {
      name: "strides"
      ints: 2
      ints: 2
      type: INTS
    }
  }
  node {
    input: "Convolution2DFunction_7"
    input: "param_feature_extractor_entryflow_block1_separable3_dw_bn_gamma"
    input: "param_feature_extractor_entryflow_block1_separable3_dw_bn_beta"
    input: "param_feature_extractor_entryflow_block1_separable3_dw_bn_avg_mean"
    input: "param_feature_extractor_entryflow_block1_separable3_dw_bn_avg_var"
    output: "FixedBatchNormalization_7"
    name: "FixedBatchNormalization_7"
    op_type: "BatchNormalization"
    attribute {
      name: "epsilon"
      f: 0.0010000000474974513
      type: FLOAT
    }
    attribute {
      name: "momentum"
      f: 0.0
      type: FLOAT
    }
  }
  node {
    input: "FixedBatchNormalization_7"
    output: "Identity_4"
    name: "Identity_4"
    op_type: "Identity"
  }
  node {
    input: "Identity_4"
    input: "param_feature_extractor_entryflow_block1_separable3_pointwise_W"
    output: "Convolution2DFunction_8"
    name: "Convolution2DFunction_8"
    op_type: "Conv"
    attribute {
      name: "dilations"
      ints: 1
      ints: 1
      type: INTS
    }
    attribute {
      name: "group"
      i: 1
      type: INT
    }
    attribute {
      name: "kernel_shape"
      ints: 1
      ints: 1
      type: INTS
    }
    attribute {
      name: "pads"
      ints: 0
      ints: 0
      ints: 0
      ints: 0
      type: INTS
    }
    attribute {
      name: "strides"
      ints: 1
      ints: 1
      type: INTS
    }
  }
  node {
    input: "Convolution2DFunction_8"
    input: "param_feature_extractor_entryflow_block1_separable3_pw_bn_gamma"
    input: "param_feature_extractor_entryflow_block1_separable3_pw_bn_beta"
    input: "param_feature_extractor_entryflow_block1_separable3_pw_bn_avg_mean"
    input: "param_feature_extractor_entryflow_block1_separable3_pw_bn_avg_var"
    output: "FixedBatchNormalization_8"
    name: "FixedBatchNormalization_8"
    op_type: "BatchNormalization"
    attribute {
      name: "epsilon"
      f: 0.0010000000474974513
      type: FLOAT
    }
    attribute {
      name: "momentum"
      f: 0.0
      type: FLOAT
    }
  }
  node {
    input: "FixedBatchNormalization_8"
    output: "Identity_5"
    name: "Identity_5"
    op_type: "Identity"
  }
  node {
    input: "Identity_5"
    input: "Identity_0"
    output: "Add_0"
    name: "Add_0"
    op_type: "Add"
  }
  node {
    input: "Add_0"
    output: "ReLU_5"
    name: "ReLU_5"
    op_type: "Relu"
  }
  node {
    input: "Add_0"
    input: "param_feature_extractor_entryflow_block2_conv_conv_W"
    output: "Convolution2DFunction_9"
    name: "Convolution2DFunction_9"
    op_type: "Conv"
    attribute {
      name: "dilations"
      ints: 1
      ints: 1
      type: INTS
    }
    attribute {
      name: "group"
      i: 1
      type: INT
    }
    attribute {
      name: "kernel_shape"
      ints: 1
      ints: 1
      type: INTS
    }
    attribute {
      name: "pads"
      ints: 0
      ints: 0
      ints: 0
      ints: 0
      type: INTS
    }
    attribute {
      name: "strides"
      ints: 2
      ints: 2
      type: INTS
    }
  }
  node {
    input: "ReLU_5"
    input: "param_feature_extractor_entryflow_block2_separable1_depthwise_W"
    output: "Convolution2DFunction_10"
    name: "Convolution2DFunction_10"
    op_type: "Conv"
    attribute {
      name: "dilations"
      ints: 1
      ints: 1
      type: INTS
    }
    attribute {
      name: "group"
      i: 128
      type: INT
    }
    attribute {
      name: "kernel_shape"
      ints: 3
      ints: 3
      type: INTS
    }
    attribute {
      name: "pads"
      ints: 1
      ints: 1
      ints: 1
      ints: 1
      type: INTS
    }
    attribute {
      name: "strides"
      ints: 1
      ints: 1
      type: INTS
    }
  }
  node {
    input: "Convolution2DFunction_9"
    input: "param_feature_extractor_entryflow_block2_conv_bn_gamma"
    input: "param_feature_extractor_entryflow_block2_conv_bn_beta"
    input: "param_feature_extractor_entryflow_block2_conv_bn_avg_mean"
    input: "param_feature_extractor_entryflow_block2_conv_bn_avg_var"
    output: "FixedBatchNormalization_9"
    name: "FixedBatchNormalization_9"
    op_type: "BatchNormalization"
    attribute {
      name: "epsilon"
      f: 0.0010000000474974513
      type: FLOAT
    }
    attribute {
      name: "momentum"
      f: 0.0
      type: FLOAT
    }
  }
  node {
    input: "Convolution2DFunction_10"
    input: "param_feature_extractor_entryflow_block2_separable1_dw_bn_gamma"
    input: "param_feature_extractor_entryflow_block2_separable1_dw_bn_beta"
    input: "param_feature_extractor_entryflow_block2_separable1_dw_bn_avg_mean"
    input: "param_feature_extractor_entryflow_block2_separable1_dw_bn_avg_var"
    output: "FixedBatchNormalization_10"
    name: "FixedBatchNormalization_10"
    op_type: "BatchNormalization"
    attribute {
      name: "epsilon"
      f: 0.0010000000474974513
      type: FLOAT
    }
    attribute {
      name: "momentum"
      f: 0.0
      type: FLOAT
    }
  }
  node {
    input: "FixedBatchNormalization_9"
    output: "Identity_6"
    name: "Identity_6"
    op_type: "Identity"
  }
  node {
    input: "FixedBatchNormalization_10"
    output: "Identity_7"
    name: "Identity_7"
    op_type: "Identity"
  }
  node {
    input: "Identity_7"
    input: "param_feature_extractor_entryflow_block2_separable1_pointwise_W"
    output: "Convolution2DFunction_11"
    name: "Convolution2DFunction_11"
    op_type: "Conv"
    attribute {
      name: "dilations"
      ints: 1
      ints: 1
      type: INTS
    }
    attribute {
      name: "group"
      i: 1
      type: INT
    }
    attribute {
      name: "kernel_shape"
      ints: 1
      ints: 1
      type: INTS
    }
    attribute {
      name: "pads"
      ints: 0
      ints: 0
      ints: 0
      ints: 0
      type: INTS
    }
    attribute {
      name: "strides"
      ints: 1
      ints: 1
      type: INTS
    }
  }
  node {
    input: "Convolution2DFunction_11"
    input: "param_feature_extractor_entryflow_block2_separable1_pw_bn_gamma"
    input: "param_feature_extractor_entryflow_block2_separable1_pw_bn_beta"
    input: "param_feature_extractor_entryflow_block2_separable1_pw_bn_avg_mean"
    input: "param_feature_extractor_entryflow_block2_separable1_pw_bn_avg_var"
    output: "FixedBatchNormalization_11"
    name: "FixedBatchNormalization_11"
    op_type: "BatchNormalization"
    attribute {
      name: "epsilon"
      f: 0.0010000000474974513
      type: FLOAT
    }
    attribute {
      name: "momentum"
      f: 0.0
      type: FLOAT
    }
  }
  node {
    input: "FixedBatchNormalization_11"
    output: "ReLU_6"
    name: "ReLU_6"
    op_type: "Relu"
  }
  node {
    input: "ReLU_6"
    input: "param_feature_extractor_entryflow_block2_separable2_depthwise_W"
    output: "Convolution2DFunction_12"
    name: "Convolution2DFunction_12"
    op_type: "Conv"
    attribute {
      name: "dilations"
      ints: 1
      ints: 1
      type: INTS
    }
    attribute {
      name: "group"
      i: 256
      type: INT
    }
    attribute {
      name: "kernel_shape"
      ints: 3
      ints: 3
      type: INTS
    }
    attribute {
      name: "pads"
      ints: 1
      ints: 1
      ints: 1
      ints: 1
      type: INTS
    }
    attribute {
      name: "strides"
      ints: 1
      ints: 1
      type: INTS
    }
  }
  node {
    input: "Convolution2DFunction_12"
    input: "param_feature_extractor_entryflow_block2_separable2_dw_bn_gamma"
    input: "param_feature_extractor_entryflow_block2_separable2_dw_bn_beta"
    input: "param_feature_extractor_entryflow_block2_separable2_dw_bn_avg_mean"
    input: "param_feature_extractor_entryflow_block2_separable2_dw_bn_avg_var"
    output: "FixedBatchNormalization_12"
    name: "FixedBatchNormalization_12"
    op_type: "BatchNormalization"
    attribute {
      name: "epsilon"
      f: 0.0010000000474974513
      type: FLOAT
    }
    attribute {
      name: "momentum"
      f: 0.0
      type: FLOAT
    }
  }
  node {
    input: "FixedBatchNormalization_12"
    output: "Identity_8"
    name: "Identity_8"
    op_type: "Identity"
  }
  node {
    input: "Identity_8"
    input: "param_feature_extractor_entryflow_block2_separable2_pointwise_W"
    output: "Convolution2DFunction_13"
    name: "Convolution2DFunction_13"
    op_type: "Conv"
    attribute {
      name: "dilations"
      ints: 1
      ints: 1
      type: INTS
    }
    attribute {
      name: "group"
      i: 1
      type: INT
    }
    attribute {
      name: "kernel_shape"
      ints: 1
      ints: 1
      type: INTS
    }
    attribute {
      name: "pads"
      ints: 0
      ints: 0
      ints: 0
      ints: 0
      type: INTS
    }
    attribute {
      name: "strides"
      ints: 1
      ints: 1
      type: INTS
    }
  }
  node {
    input: "Convolution2DFunction_13"
    input: "param_feature_extractor_entryflow_block2_separable2_pw_bn_gamma"
    input: "param_feature_extractor_entryflow_block2_separable2_pw_bn_beta"
    input: "param_feature_extractor_entryflow_block2_separable2_pw_bn_avg_mean"
    input: "param_feature_extractor_entryflow_block2_separable2_pw_bn_avg_var"
    output: "FixedBatchNormalization_13"
    name: "FixedBatchNormalization_13"
    op_type: "BatchNormalization"
    attribute {
      name: "epsilon"
      f: 0.0010000000474974513
      type: FLOAT
    }
    attribute {
      name: "momentum"
      f: 0.0
      type: FLOAT
    }
  }
  node {
    input: "FixedBatchNormalization_13"
    output: "Identity_9"
    name: "Identity_9"
    op_type: "Identity"
  }
  node {
    input: "Identity_9"
    output: "ReLU_7"
    name: "ReLU_7"
    op_type: "Relu"
  }
  node {
    input: "Identity_9"
    input: "param_decoder_feature_proj_conv_W"
    output: "Convolution2DFunction_14"
    name: "Convolution2DFunction_14"
    op_type: "Conv"
    attribute {
      name: "dilations"
      ints: 1
      ints: 1
      type: INTS
    }
    attribute {
      name: "group"
      i: 1
      type: INT
    }
    attribute {
      name: "kernel_shape"
      ints: 1
      ints: 1
      type: INTS
    }
    attribute {
      name: "pads"
      ints: 0
      ints: 0
      ints: 0
      ints: 0
      type: INTS
    }
    attribute {
      name: "strides"
      ints: 1
      ints: 1
      type: INTS
    }
  }
  node {
    input: "ReLU_7"
    input: "param_feature_extractor_entryflow_block2_separable3_depthwise_W"
    output: "Convolution2DFunction_15"
    name: "Convolution2DFunction_15"
    op_type: "Conv"
    attribute {
      name: "dilations"
      ints: 1
      ints: 1
      type: INTS
    }
    attribute {
      name: "group"
      i: 256
      type: INT
    }
    attribute {
      name: "kernel_shape"
      ints: 3
      ints: 3
      type: INTS
    }
    attribute {
      name: "pads"
      ints: 1
      ints: 1
      ints: 1
      ints: 1
      type: INTS
    }
    attribute {
      name: "strides"
      ints: 2
      ints: 2
      type: INTS
    }
  }
  node {
    input: "Convolution2DFunction_14"
    input: "param_decoder_feature_proj_bn_gamma"
    input: "param_decoder_feature_proj_bn_beta"
    input: "param_decoder_feature_proj_bn_avg_mean"
    input: "param_decoder_feature_proj_bn_avg_var"
    output: "FixedBatchNormalization_14"
    name: "FixedBatchNormalization_14"
    op_type: "BatchNormalization"
    attribute {
      name: "epsilon"
      f: 1.9999999494757503e-05
      type: FLOAT
    }
    attribute {
      name: "momentum"
      f: 0.0
      type: FLOAT
    }
  }
  node {
    input: "Convolution2DFunction_15"
    input: "param_feature_extractor_entryflow_block2_separable3_dw_bn_gamma"
    input: "param_feature_extractor_entryflow_block2_separable3_dw_bn_beta"
    input: "param_feature_extractor_entryflow_block2_separable3_dw_bn_avg_mean"
    input: "param_feature_extractor_entryflow_block2_separable3_dw_bn_avg_var"
    output: "FixedBatchNormalization_15"
    name: "FixedBatchNormalization_15"
    op_type: "BatchNormalization"
    attribute {
      name: "epsilon"
      f: 0.0010000000474974513
      type: FLOAT
    }
    attribute {
      name: "momentum"
      f: 0.0
      type: FLOAT
    }
  }
  node {
    input: "FixedBatchNormalization_14"
    output: "ReLU_8"
    name: "ReLU_8"
    op_type: "Relu"
  }
  node {
    input: "FixedBatchNormalization_15"
    output: "Identity_10"
    name: "Identity_10"
    op_type: "Identity"
  }
  node {
    input: "Identity_10"
    input: "param_feature_extractor_entryflow_block2_separable3_pointwise_W"
    output: "Convolution2DFunction_16"
    name: "Convolution2DFunction_16"
    op_type: "Conv"
    attribute {
      name: "dilations"
      ints: 1
      ints: 1
      type: INTS
    }
    attribute {
      name: "group"
      i: 1
      type: INT
    }
    attribute {
      name: "kernel_shape"
      ints: 1
      ints: 1
      type: INTS
    }
    attribute {
      name: "pads"
      ints: 0
      ints: 0
      ints: 0
      ints: 0
      type: INTS
    }
    attribute {
      name: "strides"
      ints: 1
      ints: 1
      type: INTS
    }
  }
  node {
    input: "Convolution2DFunction_16"
    input: "param_feature_extractor_entryflow_block2_separable3_pw_bn_gamma"
    input: "param_feature_extractor_entryflow_block2_separable3_pw_bn_beta"
    input: "param_feature_extractor_entryflow_block2_separable3_pw_bn_avg_mean"
    input: "param_feature_extractor_entryflow_block2_separable3_pw_bn_avg_var"
    output: "FixedBatchNormalization_16"
    name: "FixedBatchNormalization_16"
    op_type: "BatchNormalization"
    attribute {
      name: "epsilon"
      f: 0.0010000000474974513
      type: FLOAT
    }
    attribute {
      name: "momentum"
      f: 0.0
      type: FLOAT
    }
  }
  node {
    input: "FixedBatchNormalization_16"
    output: "Identity_11"
    name: "Identity_11"
    op_type: "Identity"
  }
  node {
    input: "Identity_11"
    input: "Identity_6"
    output: "Add_1"
    name: "Add_1"
    op_type: "Add"
  }
  node {
    input: "Add_1"
    output: "ReLU_9"
    name: "ReLU_9"
    op_type: "Relu"
  }
  node {
    input: "Add_1"
    input: "param_feature_extractor_entryflow_block3_conv_conv_W"
    output: "Convolution2DFunction_17"
    name: "Convolution2DFunction_17"
    op_type: "Conv"
    attribute {
      name: "dilations"
      ints: 1
      ints: 1
      type: INTS
    }
    attribute {
      name: "group"
      i: 1
      type: INT
    }
    attribute {
      name: "kernel_shape"
      ints: 1
      ints: 1
      type: INTS
    }
    attribute {
      name: "pads"
      ints: 0
      ints: 0
      ints: 0
      ints: 0
      type: INTS
    }
    attribute {
      name: "strides"
      ints: 1
      ints: 1
      type: INTS
    }
  }
  node {
    input: "ReLU_9"
    input: "param_feature_extractor_entryflow_block3_separable1_depthwise_W"
    output: "Convolution2DFunction_18"
    name: "Convolution2DFunction_18"
    op_type: "Conv"
    attribute {
      name: "dilations"
      ints: 1
      ints: 1
      type: INTS
    }
    attribute {
      name: "group"
      i: 256
      type: INT
    }
    attribute {
      name: "kernel_shape"
      ints: 3
      ints: 3
      type: INTS
    }
    attribute {
      name: "pads"
      ints: 1
      ints: 1
      ints: 1
      ints: 1
      type: INTS
    }
    attribute {
      name: "strides"
      ints: 1
      ints: 1
      type: INTS
    }
  }
  node {
    input: "Convolution2DFunction_17"
    input: "param_feature_extractor_entryflow_block3_conv_bn_gamma"
    input: "param_feature_extractor_entryflow_block3_conv_bn_beta"
    input: "param_feature_extractor_entryflow_block3_conv_bn_avg_mean"
    input: "param_feature_extractor_entryflow_block3_conv_bn_avg_var"
    output: "FixedBatchNormalization_17"
    name: "FixedBatchNormalization_17"
    op_type: "BatchNormalization"
    attribute {
      name: "epsilon"
      f: 0.0010000000474974513
      type: FLOAT
    }
    attribute {
      name: "momentum"
      f: 0.0
      type: FLOAT
    }
  }
  node {
    input: "Convolution2DFunction_18"
    input: "param_feature_extractor_entryflow_block3_separable1_dw_bn_gamma"
    input: "param_feature_extractor_entryflow_block3_separable1_dw_bn_beta"
    input: "param_feature_extractor_entryflow_block3_separable1_dw_bn_avg_mean"
    input: "param_feature_extractor_entryflow_block3_separable1_dw_bn_avg_var"
    output: "FixedBatchNormalization_18"
    name: "FixedBatchNormalization_18"
    op_type: "BatchNormalization"
    attribute {
      name: "epsilon"
      f: 0.0010000000474974513
      type: FLOAT
    }
    attribute {
      name: "momentum"
      f: 0.0
      type: FLOAT
    }
  }
  node {
    input: "FixedBatchNormalization_17"
    output: "Identity_12"
    name: "Identity_12"
    op_type: "Identity"
  }
  node {
    input: "FixedBatchNormalization_18"
    output: "Identity_13"
    name: "Identity_13"
    op_type: "Identity"
  }
  node {
    input: "Identity_13"
    input: "param_feature_extractor_entryflow_block3_separable1_pointwise_W"
    output: "Convolution2DFunction_19"
    name: "Convolution2DFunction_19"
    op_type: "Conv"
    attribute {
      name: "dilations"
      ints: 1
      ints: 1
      type: INTS
    }
    attribute {
      name: "group"
      i: 1
      type: INT
    }
    attribute {
      name: "kernel_shape"
      ints: 1
      ints: 1
      type: INTS
    }
    attribute {
      name: "pads"
      ints: 0
      ints: 0
      ints: 0
      ints: 0
      type: INTS
    }
    attribute {
      name: "strides"
      ints: 1
      ints: 1
      type: INTS
    }
  }
  node {
    input: "Convolution2DFunction_19"
    input: "param_feature_extractor_entryflow_block3_separable1_pw_bn_gamma"
    input: "param_feature_extractor_entryflow_block3_separable1_pw_bn_beta"
    input: "param_feature_extractor_entryflow_block3_separable1_pw_bn_avg_mean"
    input: "param_feature_extractor_entryflow_block3_separable1_pw_bn_avg_var"
    output: "FixedBatchNormalization_19"
    name: "FixedBatchNormalization_19"
    op_type: "BatchNormalization"
    attribute {
      name: "epsilon"
      f: 0.0010000000474974513
      type: FLOAT
    }
    attribute {
      name: "momentum"
      f: 0.0
      type: FLOAT
    }
  }
  node {
    input: "FixedBatchNormalization_19"
    output: "ReLU_10"
    name: "ReLU_10"
    op_type: "Relu"
  }
  node {
    input: "ReLU_10"
    input: "param_feature_extractor_entryflow_block3_separable2_depthwise_W"
    output: "Convolution2DFunction_20"
    name: "Convolution2DFunction_20"
    op_type: "Conv"
    attribute {
      name: "dilations"
      ints: 1
      ints: 1
      type: INTS
    }
    attribute {
      name: "group"
      i: 728
      type: INT
    }
    attribute {
      name: "kernel_shape"
      ints: 3
      ints: 3
      type: INTS
    }
    attribute {
      name: "pads"
      ints: 1
      ints: 1
      ints: 1
      ints: 1
      type: INTS
    }
    attribute {
      name: "strides"
      ints: 1
      ints: 1
      type: INTS
    }
  }
  node {
    input: "Convolution2DFunction_20"
    input: "param_feature_extractor_entryflow_block3_separable2_dw_bn_gamma"
    input: "param_feature_extractor_entryflow_block3_separable2_dw_bn_beta"
    input: "param_feature_extractor_entryflow_block3_separable2_dw_bn_avg_mean"
    input: "param_feature_extractor_entryflow_block3_separable2_dw_bn_avg_var"
    output: "FixedBatchNormalization_20"
    name: "FixedBatchNormalization_20"
    op_type: "BatchNormalization"
    attribute {
      name: "epsilon"
      f: 0.0010000000474974513
      type: FLOAT
    }
    attribute {
      name: "momentum"
      f: 0.0
      type: FLOAT
    }
  }
  node {
    input: "FixedBatchNormalization_20"
    output: "Identity_14"
    name: "Identity_14"
    op_type: "Identity"
  }
  node {
    input: "Identity_14"
    input: "param_feature_extractor_entryflow_block3_separable2_pointwise_W"
    output: "Convolution2DFunction_21"
    name: "Convolution2DFunction_21"
    op_type: "Conv"
    attribute {
      name: "dilations"
      ints: 1
      ints: 1
      type: INTS
    }
    attribute {
      name: "group"
      i: 1
      type: INT
    }
    attribute {
      name: "kernel_shape"
      ints: 1
      ints: 1
      type: INTS
    }
    attribute {
      name: "pads"
      ints: 0
      ints: 0
      ints: 0
      ints: 0
      type: INTS
    }
    attribute {
      name: "strides"
      ints: 1
      ints: 1
      type: INTS
    }
  }
  node {
    input: "Convolution2DFunction_21"
    input: "param_feature_extractor_entryflow_block3_separable2_pw_bn_gamma"
    input: "param_feature_extractor_entryflow_block3_separable2_pw_bn_beta"
    input: "param_feature_extractor_entryflow_block3_separable2_pw_bn_avg_mean"
    input: "param_feature_extractor_entryflow_block3_separable2_pw_bn_avg_var"
    output: "FixedBatchNormalization_21"
    name: "FixedBatchNormalization_21"
    op_type: "BatchNormalization"
    attribute {
      name: "epsilon"
      f: 0.0010000000474974513
      type: FLOAT
    }
    attribute {
      name: "momentum"
      f: 0.0
      type: FLOAT
    }
  }
  node {
    input: "FixedBatchNormalization_21"
    output: "Identity_15"
    name: "Identity_15"
    op_type: "Identity"
  }
  node {
    input: "Identity_15"
    output: "ReLU_11"
    name: "ReLU_11"
    op_type: "Relu"
  }
  node {
    input: "ReLU_11"
    input: "param_feature_extractor_entryflow_block3_separable3_depthwise_W"
    output: "Convolution2DFunction_22"
    name: "Convolution2DFunction_22"
    op_type: "Conv"
    attribute {
      name: "dilations"
      ints: 1
      ints: 1
      type: INTS
    }
    attribute {
      name: "group"
      i: 728
      type: INT
    }
    attribute {
      name: "kernel_shape"
      ints: 3
      ints: 3
      type: INTS
    }
    attribute {
      name: "pads"
      ints: 1
      ints: 1
      ints: 1
      ints: 1
      type: INTS
    }
    attribute {
      name: "strides"
      ints: 1
      ints: 1
      type: INTS
    }
  }
  node {
    input: "Convolution2DFunction_22"
    input: "param_feature_extractor_entryflow_block3_separable3_dw_bn_gamma"
    input: "param_feature_extractor_entryflow_block3_separable3_dw_bn_beta"
    input: "param_feature_extractor_entryflow_block3_separable3_dw_bn_avg_mean"
    input: "param_feature_extractor_entryflow_block3_separable3_dw_bn_avg_var"
    output: "FixedBatchNormalization_22"
    name: "FixedBatchNormalization_22"
    op_type: "BatchNormalization"
    attribute {
      name: "epsilon"
      f: 0.0010000000474974513
      type: FLOAT
    }
    attribute {
      name: "momentum"
      f: 0.0
      type: FLOAT
    }
  }
  node {
    input: "FixedBatchNormalization_22"
    output: "Identity_16"
    name: "Identity_16"
    op_type: "Identity"
  }
  node {
    input: "Identity_16"
    input: "param_feature_extractor_entryflow_block3_separable3_pointwise_W"
    output: "Convolution2DFunction_23"
    name: "Convolution2DFunction_23"
    op_type: "Conv"
    attribute {
      name: "dilations"
      ints: 1
      ints: 1
      type: INTS
    }
    attribute {
      name: "group"
      i: 1
      type: INT
    }
    attribute {
      name: "kernel_shape"
      ints: 1
      ints: 1
      type: INTS
    }
    attribute {
      name: "pads"
      ints: 0
      ints: 0
      ints: 0
      ints: 0
      type: INTS
    }
    attribute {
      name: "strides"
      ints: 1
      ints: 1
      type: INTS
    }
  }
  node {
    input: "Convolution2DFunction_23"
    input: "param_feature_extractor_entryflow_block3_separable3_pw_bn_gamma"
    input: "param_feature_extractor_entryflow_block3_separable3_pw_bn_beta"
    input: "param_feature_extractor_entryflow_block3_separable3_pw_bn_avg_mean"
    input: "param_feature_extractor_entryflow_block3_separable3_pw_bn_avg_var"
    output: "FixedBatchNormalization_23"
    name: "FixedBatchNormalization_23"
    op_type: "BatchNormalization"
    attribute {
      name: "epsilon"
      f: 0.0010000000474974513
      type: FLOAT
    }
    attribute {
      name: "momentum"
      f: 0.0
      type: FLOAT
    }
  }
  node {
    input: "FixedBatchNormalization_23"
    output: "Identity_17"
    name: "Identity_17"
    op_type: "Identity"
  }
  node {
    input: "Identity_17"
    input: "Identity_12"
    output: "Add_2"
    name: "Add_2"
    op_type: "Add"
  }
  node {
    input: "Add_2"
    output: "ReLU_12"
    name: "ReLU_12"
    op_type: "Relu"
  }
  node {
    input: "ReLU_12"
    input: "param_feature_extractor_middleflow_block1_separable1_depthwise_W"
    output: "Convolution2DFunction_24"
    name: "Convolution2DFunction_24"
    op_type: "Conv"
    attribute {
      name: "dilations"
      ints: 2
      ints: 2
      type: INTS
    }
    attribute {
      name: "group"
      i: 728
      type: INT
    }
    attribute {
      name: "kernel_shape"
      ints: 3
      ints: 3
      type: INTS
    }
    attribute {
      name: "pads"
      ints: 2
      ints: 2
      ints: 2
      ints: 2
      type: INTS
    }
    attribute {
      name: "strides"
      ints: 1
      ints: 1
      type: INTS
    }
  }
  node {
    input: "Convolution2DFunction_24"
    input: "param_feature_extractor_middleflow_block1_separable1_dw_bn_gamma"
    input: "param_feature_extractor_middleflow_block1_separable1_dw_bn_beta"
    input: "param_feature_extractor_middleflow_block1_separable1_dw_bn_avg_mean"
    input: "param_feature_extractor_middleflow_block1_separable1_dw_bn_avg_var"
    output: "FixedBatchNormalization_24"
    name: "FixedBatchNormalization_24"
    op_type: "BatchNormalization"
    attribute {
      name: "epsilon"
      f: 0.0010000000474974513
      type: FLOAT
    }
    attribute {
      name: "momentum"
      f: 0.0
      type: FLOAT
    }
  }
  node {
    input: "FixedBatchNormalization_24"
    output: "Identity_18"
    name: "Identity_18"
    op_type: "Identity"
  }
  node {
    input: "Identity_18"
    input: "param_feature_extractor_middleflow_block1_separable1_pointwise_W"
    output: "Convolution2DFunction_25"
    name: "Convolution2DFunction_25"
    op_type: "Conv"
    attribute {
      name: "dilations"
      ints: 1
      ints: 1
      type: INTS
    }
    attribute {
      name: "group"
      i: 1
      type: INT
    }
    attribute {
      name: "kernel_shape"
      ints: 1
      ints: 1
      type: INTS
    }
    attribute {
      name: "pads"
      ints: 0
      ints: 0
      ints: 0
      ints: 0
      type: INTS
    }
    attribute {
      name: "strides"
      ints: 1
      ints: 1
      type: INTS
    }
  }
  node {
    input: "Convolution2DFunction_25"
    input: "param_feature_extractor_middleflow_block1_separable1_pw_bn_gamma"
    input: "param_feature_extractor_middleflow_block1_separable1_pw_bn_beta"
    input: "param_feature_extractor_middleflow_block1_separable1_pw_bn_avg_mean"
    input: "param_feature_extractor_middleflow_block1_separable1_pw_bn_avg_var"
    output: "FixedBatchNormalization_25"
    name: "FixedBatchNormalization_25"
    op_type: "BatchNormalization"
    attribute {
      name: "epsilon"
      f: 0.0010000000474974513
      type: FLOAT
    }
    attribute {
      name: "momentum"
      f: 0.0
      type: FLOAT
    }
  }
  node {
    input: "FixedBatchNormalization_25"
    output: "ReLU_13"
    name: "ReLU_13"
    op_type: "Relu"
  }
  node {
    input: "ReLU_13"
    input: "param_feature_extractor_middleflow_block1_separable2_depthwise_W"
    output: "Convolution2DFunction_26"
    name: "Convolution2DFunction_26"
    op_type: "Conv"
    attribute {
      name: "dilations"
      ints: 2
      ints: 2
      type: INTS
    }
    attribute {
      name: "group"
      i: 728
      type: INT
    }
    attribute {
      name: "kernel_shape"
      ints: 3
      ints: 3
      type: INTS
    }
    attribute {
      name: "pads"
      ints: 2
      ints: 2
      ints: 2
      ints: 2
      type: INTS
    }
    attribute {
      name: "strides"
      ints: 1
      ints: 1
      type: INTS
    }
  }
  node {
    input: "Convolution2DFunction_26"
    input: "param_feature_extractor_middleflow_block1_separable2_dw_bn_gamma"
    input: "param_feature_extractor_middleflow_block1_separable2_dw_bn_beta"
    input: "param_feature_extractor_middleflow_block1_separable2_dw_bn_avg_mean"
    input: "param_feature_extractor_middleflow_block1_separable2_dw_bn_avg_var"
    output: "FixedBatchNormalization_26"
    name: "FixedBatchNormalization_26"
    op_type: "BatchNormalization"
    attribute {
      name: "epsilon"
      f: 0.0010000000474974513
      type: FLOAT
    }
    attribute {
      name: "momentum"
      f: 0.0
      type: FLOAT
    }
  }
  node {
    input: "FixedBatchNormalization_26"
    output: "Identity_19"
    name: "Identity_19"
    op_type: "Identity"
  }
  node {
    input: "Identity_19"
    input: "param_feature_extractor_middleflow_block1_separable2_pointwise_W"
    output: "Convolution2DFunction_27"
    name: "Convolution2DFunction_27"
    op_type: "Conv"
    attribute {
      name: "dilations"
      ints: 1
      ints: 1
      type: INTS
    }
    attribute {
      name: "group"
      i: 1
      type: INT
    }
    attribute {
      name: "kernel_shape"
      ints: 1
      ints: 1
      type: INTS
    }
    attribute {
      name: "pads"
      ints: 0
      ints: 0
      ints: 0
      ints: 0
      type: INTS
    }
    attribute {
      name: "strides"
      ints: 1
      ints: 1
      type: INTS
    }
  }
  node {
    input: "Convolution2DFunction_27"
    input: "param_feature_extractor_middleflow_block1_separable2_pw_bn_gamma"
    input: "param_feature_extractor_middleflow_block1_separable2_pw_bn_beta"
    input: "param_feature_extractor_middleflow_block1_separable2_pw_bn_avg_mean"
    input: "param_feature_extractor_middleflow_block1_separable2_pw_bn_avg_var"
    output: "FixedBatchNormalization_27"
    name: "FixedBatchNormalization_27"
    op_type: "BatchNormalization"
    attribute {
      name: "epsilon"
      f: 0.0010000000474974513
      type: FLOAT
    }
    attribute {
      name: "momentum"
      f: 0.0
      type: FLOAT
    }
  }
  node {
    input: "FixedBatchNormalization_27"
    output: "Identity_20"
    name: "Identity_20"
    op_type: "Identity"
  }
  node {
    input: "Identity_20"
    output: "ReLU_14"
    name: "ReLU_14"
    op_type: "Relu"
  }
  node {
    input: "ReLU_14"
    input: "param_feature_extractor_middleflow_block1_separable3_depthwise_W"
    output: "Convolution2DFunction_28"
    name: "Convolution2DFunction_28"
    op_type: "Conv"
    attribute {
      name: "dilations"
      ints: 2
      ints: 2
      type: INTS
    }
    attribute {
      name: "group"
      i: 728
      type: INT
    }
    attribute {
      name: "kernel_shape"
      ints: 3
      ints: 3
      type: INTS
    }
    attribute {
      name: "pads"
      ints: 2
      ints: 2
      ints: 2
      ints: 2
      type: INTS
    }
    attribute {
      name: "strides"
      ints: 1
      ints: 1
      type: INTS
    }
  }
  node {
    input: "Convolution2DFunction_28"
    input: "param_feature_extractor_middleflow_block1_separable3_dw_bn_gamma"
    input: "param_feature_extractor_middleflow_block1_separable3_dw_bn_beta"
    input: "param_feature_extractor_middleflow_block1_separable3_dw_bn_avg_mean"
    input: "param_feature_extractor_middleflow_block1_separable3_dw_bn_avg_var"
    output: "FixedBatchNormalization_28"
    name: "FixedBatchNormalization_28"
    op_type: "BatchNormalization"
    attribute {
      name: "epsilon"
      f: 0.0010000000474974513
      type: FLOAT
    }
    attribute {
      name: "momentum"
      f: 0.0
      type: FLOAT
    }
  }
  node {
    input: "FixedBatchNormalization_28"
    output: "Identity_21"
    name: "Identity_21"
    op_type: "Identity"
  }
  node {
    input: "Identity_21"
    input: "param_feature_extractor_middleflow_block1_separable3_pointwise_W"
    output: "Convolution2DFunction_29"
    name: "Convolution2DFunction_29"
    op_type: "Conv"
    attribute {
      name: "dilations"
      ints: 1
      ints: 1
      type: INTS
    }
    attribute {
      name: "group"
      i: 1
      type: INT
    }
    attribute {
      name: "kernel_shape"
      ints: 1
      ints: 1
      type: INTS
    }
    attribute {
      name: "pads"
      ints: 0
      ints: 0
      ints: 0
      ints: 0
      type: INTS
    }
    attribute {
      name: "strides"
      ints: 1
      ints: 1
      type: INTS
    }
  }
  node {
    input: "Convolution2DFunction_29"
    input: "param_feature_extractor_middleflow_block1_separable3_pw_bn_gamma"
    input: "param_feature_extractor_middleflow_block1_separable3_pw_bn_beta"
    input: "param_feature_extractor_middleflow_block1_separable3_pw_bn_avg_mean"
    input: "param_feature_extractor_middleflow_block1_separable3_pw_bn_avg_var"
    output: "FixedBatchNormalization_29"
    name: "FixedBatchNormalization_29"
    op_type: "BatchNormalization"
    attribute {
      name: "epsilon"
      f: 0.0010000000474974513
      type: FLOAT
    }
    attribute {
      name: "momentum"
      f: 0.0
      type: FLOAT
    }
  }
  node {
    input: "FixedBatchNormalization_29"
    output: "Identity_22"
    name: "Identity_22"
    op_type: "Identity"
  }
  node {
    input: "Identity_22"
    input: "Add_2"
    output: "Add_3"
    name: "Add_3"
    op_type: "Add"
  }
  node {
    input: "Add_3"
    output: "ReLU_15"
    name: "ReLU_15"
    op_type: "Relu"
  }
  node {
    input: "ReLU_15"
    input: "param_feature_extractor_middleflow_block2_separable1_depthwise_W"
    output: "Convolution2DFunction_30"
    name: "Convolution2DFunction_30"
    op_type: "Conv"
    attribute {
      name: "dilations"
      ints: 2
      ints: 2
      type: INTS
    }
    attribute {
      name: "group"
      i: 728
      type: INT
    }
    attribute {
      name: "kernel_shape"
      ints: 3
      ints: 3
      type: INTS
    }
    attribute {
      name: "pads"
      ints: 2
      ints: 2
      ints: 2
      ints: 2
      type: INTS
    }
    attribute {
      name: "strides"
      ints: 1
      ints: 1
      type: INTS
    }
  }
  node {
    input: "Convolution2DFunction_30"
    input: "param_feature_extractor_middleflow_block2_separable1_dw_bn_gamma"
    input: "param_feature_extractor_middleflow_block2_separable1_dw_bn_beta"
    input: "param_feature_extractor_middleflow_block2_separable1_dw_bn_avg_mean"
    input: "param_feature_extractor_middleflow_block2_separable1_dw_bn_avg_var"
    output: "FixedBatchNormalization_30"
    name: "FixedBatchNormalization_30"
    op_type: "BatchNormalization"
    attribute {
      name: "epsilon"
      f: 0.0010000000474974513
      type: FLOAT
    }
    attribute {
      name: "momentum"
      f: 0.0
      type: FLOAT
    }
  }
  node {
    input: "FixedBatchNormalization_30"
    output: "Identity_23"
    name: "Identity_23"
    op_type: "Identity"
  }
  node {
    input: "Identity_23"
    input: "param_feature_extractor_middleflow_block2_separable1_pointwise_W"
    output: "Convolution2DFunction_31"
    name: "Convolution2DFunction_31"
    op_type: "Conv"
    attribute {
      name: "dilations"
      ints: 1
      ints: 1
      type: INTS
    }
    attribute {
      name: "group"
      i: 1
      type: INT
    }
    attribute {
      name: "kernel_shape"
      ints: 1
      ints: 1
      type: INTS
    }
    attribute {
      name: "pads"
      ints: 0
      ints: 0
      ints: 0
      ints: 0
      type: INTS
    }
    attribute {
      name: "strides"
      ints: 1
      ints: 1
      type: INTS
    }
  }
  node {
    input: "Convolution2DFunction_31"
    input: "param_feature_extractor_middleflow_block2_separable1_pw_bn_gamma"
    input: "param_feature_extractor_middleflow_block2_separable1_pw_bn_beta"
    input: "param_feature_extractor_middleflow_block2_separable1_pw_bn_avg_mean"
    input: "param_feature_extractor_middleflow_block2_separable1_pw_bn_avg_var"
    output: "FixedBatchNormalization_31"
    name: "FixedBatchNormalization_31"
    op_type: "BatchNormalization"
    attribute {
      name: "epsilon"
      f: 0.0010000000474974513
      type: FLOAT
    }
    attribute {
      name: "momentum"
      f: 0.0
      type: FLOAT
    }
  }
  node {
    input: "FixedBatchNormalization_31"
    output: "ReLU_16"
    name: "ReLU_16"
    op_type: "Relu"
  }
  node {
    input: "ReLU_16"
    input: "param_feature_extractor_middleflow_block2_separable2_depthwise_W"
    output: "Convolution2DFunction_32"
    name: "Convolution2DFunction_32"
    op_type: "Conv"
    attribute {
      name: "dilations"
      ints: 2
      ints: 2
      type: INTS
    }
    attribute {
      name: "group"
      i: 728
      type: INT
    }
    attribute {
      name: "kernel_shape"
      ints: 3
      ints: 3
      type: INTS
    }
    attribute {
      name: "pads"
      ints: 2
      ints: 2
      ints: 2
      ints: 2
      type: INTS
    }
    attribute {
      name: "strides"
      ints: 1
      ints: 1
      type: INTS
    }
  }
  node {
    input: "Convolution2DFunction_32"
    input: "param_feature_extractor_middleflow_block2_separable2_dw_bn_gamma"
    input: "param_feature_extractor_middleflow_block2_separable2_dw_bn_beta"
    input: "param_feature_extractor_middleflow_block2_separable2_dw_bn_avg_mean"
    input: "param_feature_extractor_middleflow_block2_separable2_dw_bn_avg_var"
    output: "FixedBatchNormalization_32"
    name: "FixedBatchNormalization_32"
    op_type: "BatchNormalization"
    attribute {
      name: "epsilon"
      f: 0.0010000000474974513
      type: FLOAT
    }
    attribute {
      name: "momentum"
      f: 0.0
      type: FLOAT
    }
  }
  node {
    input: "FixedBatchNormalization_32"
    output: "Identity_24"
    name: "Identity_24"
    op_type: "Identity"
  }
  node {
    input: "Identity_24"
    input: "param_feature_extractor_middleflow_block2_separable2_pointwise_W"
    output: "Convolution2DFunction_33"
    name: "Convolution2DFunction_33"
    op_type: "Conv"
    attribute {
      name: "dilations"
      ints: 1
      ints: 1
      type: INTS
    }
    attribute {
      name: "group"
      i: 1
      type: INT
    }
    attribute {
      name: "kernel_shape"
      ints: 1
      ints: 1
      type: INTS
    }
    attribute {
      name: "pads"
      ints: 0
      ints: 0
      ints: 0
      ints: 0
      type: INTS
    }
    attribute {
      name: "strides"
      ints: 1
      ints: 1
      type: INTS
    }
  }
  node {
    input: "Convolution2DFunction_33"
    input: "param_feature_extractor_middleflow_block2_separable2_pw_bn_gamma"
    input: "param_feature_extractor_middleflow_block2_separable2_pw_bn_beta"
    input: "param_feature_extractor_middleflow_block2_separable2_pw_bn_avg_mean"
    input: "param_feature_extractor_middleflow_block2_separable2_pw_bn_avg_var"
    output: "FixedBatchNormalization_33"
    name: "FixedBatchNormalization_33"
    op_type: "BatchNormalization"
    attribute {
      name: "epsilon"
      f: 0.0010000000474974513
      type: FLOAT
    }
    attribute {
      name: "momentum"
      f: 0.0
      type: FLOAT
    }
  }
  node {
    input: "FixedBatchNormalization_33"
    output: "Identity_25"
    name: "Identity_25"
    op_type: "Identity"
  }
  node {
    input: "Identity_25"
    output: "ReLU_17"
    name: "ReLU_17"
    op_type: "Relu"
  }
  node {
    input: "ReLU_17"
    input: "param_feature_extractor_middleflow_block2_separable3_depthwise_W"
    output: "Convolution2DFunction_34"
    name: "Convolution2DFunction_34"
    op_type: "Conv"
    attribute {
      name: "dilations"
      ints: 2
      ints: 2
      type: INTS
    }
    attribute {
      name: "group"
      i: 728
      type: INT
    }
    attribute {
      name: "kernel_shape"
      ints: 3
      ints: 3
      type: INTS
    }
    attribute {
      name: "pads"
      ints: 2
      ints: 2
      ints: 2
      ints: 2
      type: INTS
    }
    attribute {
      name: "strides"
      ints: 1
      ints: 1
      type: INTS
    }
  }
  node {
    input: "Convolution2DFunction_34"
    input: "param_feature_extractor_middleflow_block2_separable3_dw_bn_gamma"
    input: "param_feature_extractor_middleflow_block2_separable3_dw_bn_beta"
    input: "param_feature_extractor_middleflow_block2_separable3_dw_bn_avg_mean"
    input: "param_feature_extractor_middleflow_block2_separable3_dw_bn_avg_var"
    output: "FixedBatchNormalization_34"
    name: "FixedBatchNormalization_34"
    op_type: "BatchNormalization"
    attribute {
      name: "epsilon"
      f: 0.0010000000474974513
      type: FLOAT
    }
    attribute {
      name: "momentum"
      f: 0.0
      type: FLOAT
    }
  }
  node {
    input: "FixedBatchNormalization_34"
    output: "Identity_26"
    name: "Identity_26"
    op_type: "Identity"
  }
  node {
    input: "Identity_26"
    input: "param_feature_extractor_middleflow_block2_separable3_pointwise_W"
    output: "Convolution2DFunction_35"
    name: "Convolution2DFunction_35"
    op_type: "Conv"
    attribute {
      name: "dilations"
      ints: 1
      ints: 1
      type: INTS
    }
    attribute {
      name: "group"
      i: 1
      type: INT
    }
    attribute {
      name: "kernel_shape"
      ints: 1
      ints: 1
      type: INTS
    }
    attribute {
      name: "pads"
      ints: 0
      ints: 0
      ints: 0
      ints: 0
      type: INTS
    }
    attribute {
      name: "strides"
      ints: 1
      ints: 1
      type: INTS
    }
  }
  node {
    input: "Convolution2DFunction_35"
    input: "param_feature_extractor_middleflow_block2_separable3_pw_bn_gamma"
    input: "param_feature_extractor_middleflow_block2_separable3_pw_bn_beta"
    input: "param_feature_extractor_middleflow_block2_separable3_pw_bn_avg_mean"
    input: "param_feature_extractor_middleflow_block2_separable3_pw_bn_avg_var"
    output: "FixedBatchNormalization_35"
    name: "FixedBatchNormalization_35"
    op_type: "BatchNormalization"
    attribute {
      name: "epsilon"
      f: 0.0010000000474974513
      type: FLOAT
    }
    attribute {
      name: "momentum"
      f: 0.0
      type: FLOAT
    }
  }
  node {
    input: "FixedBatchNormalization_35"
    output: "Identity_27"
    name: "Identity_27"
    op_type: "Identity"
  }
  node {
    input: "Identity_27"
    input: "Add_3"
    output: "Add_4"
    name: "Add_4"
    op_type: "Add"
  }
  node {
    input: "Add_4"
    output: "ReLU_18"
    name: "ReLU_18"
    op_type: "Relu"
  }
  node {
    input: "ReLU_18"
    input: "param_feature_extractor_middleflow_block3_separable1_depthwise_W"
    output: "Convolution2DFunction_36"
    name: "Convolution2DFunction_36"
    op_type: "Conv"
    attribute {
      name: "dilations"
      ints: 2
      ints: 2
      type: INTS
    }
    attribute {
      name: "group"
      i: 728
      type: INT
    }
    attribute {
      name: "kernel_shape"
      ints: 3
      ints: 3
      type: INTS
    }
    attribute {
      name: "pads"
      ints: 2
      ints: 2
      ints: 2
      ints: 2
      type: INTS
    }
    attribute {
      name: "strides"
      ints: 1
      ints: 1
      type: INTS
    }
  }
  node {
    input: "Convolution2DFunction_36"
    input: "param_feature_extractor_middleflow_block3_separable1_dw_bn_gamma"
    input: "param_feature_extractor_middleflow_block3_separable1_dw_bn_beta"
    input: "param_feature_extractor_middleflow_block3_separable1_dw_bn_avg_mean"
    input: "param_feature_extractor_middleflow_block3_separable1_dw_bn_avg_var"
    output: "FixedBatchNormalization_36"
    name: "FixedBatchNormalization_36"
    op_type: "BatchNormalization"
    attribute {
      name: "epsilon"
      f: 0.0010000000474974513
      type: FLOAT
    }
    attribute {
      name: "momentum"
      f: 0.0
      type: FLOAT
    }
  }
  node {
    input: "FixedBatchNormalization_36"
    output: "Identity_28"
    name: "Identity_28"
    op_type: "Identity"
  }
  node {
    input: "Identity_28"
    input: "param_feature_extractor_middleflow_block3_separable1_pointwise_W"
    output: "Convolution2DFunction_37"
    name: "Convolution2DFunction_37"
    op_type: "Conv"
    attribute {
      name: "dilations"
      ints: 1
      ints: 1
      type: INTS
    }
    attribute {
      name: "group"
      i: 1
      type: INT
    }
    attribute {
      name: "kernel_shape"
      ints: 1
      ints: 1
      type: INTS
    }
    attribute {
      name: "pads"
      ints: 0
      ints: 0
      ints: 0
      ints: 0
      type: INTS
    }
    attribute {
      name: "strides"
      ints: 1
      ints: 1
      type: INTS
    }
  }
  node {
    input: "Convolution2DFunction_37"
    input: "param_feature_extractor_middleflow_block3_separable1_pw_bn_gamma"
    input: "param_feature_extractor_middleflow_block3_separable1_pw_bn_beta"
    input: "param_feature_extractor_middleflow_block3_separable1_pw_bn_avg_mean"
    input: "param_feature_extractor_middleflow_block3_separable1_pw_bn_avg_var"
    output: "FixedBatchNormalization_37"
    name: "FixedBatchNormalization_37"
    op_type: "BatchNormalization"
    attribute {
      name: "epsilon"
      f: 0.0010000000474974513
      type: FLOAT
    }
    attribute {
      name: "momentum"
      f: 0.0
      type: FLOAT
    }
  }
  node {
    input: "FixedBatchNormalization_37"
    output: "ReLU_19"
    name: "ReLU_19"
    op_type: "Relu"
  }
  node {
    input: "ReLU_19"
    input: "param_feature_extractor_middleflow_block3_separable2_depthwise_W"
    output: "Convolution2DFunction_38"
    name: "Convolution2DFunction_38"
    op_type: "Conv"
    attribute {
      name: "dilations"
      ints: 2
      ints: 2
      type: INTS
    }
    attribute {
      name: "group"
      i: 728
      type: INT
    }
    attribute {
      name: "kernel_shape"
      ints: 3
      ints: 3
      type: INTS
    }
    attribute {
      name: "pads"
      ints: 2
      ints: 2
      ints: 2
      ints: 2
      type: INTS
    }
    attribute {
      name: "strides"
      ints: 1
      ints: 1
      type: INTS
    }
  }
  node {
    input: "Convolution2DFunction_38"
    input: "param_feature_extractor_middleflow_block3_separable2_dw_bn_gamma"
    input: "param_feature_extractor_middleflow_block3_separable2_dw_bn_beta"
    input: "param_feature_extractor_middleflow_block3_separable2_dw_bn_avg_mean"
    input: "param_feature_extractor_middleflow_block3_separable2_dw_bn_avg_var"
    output: "FixedBatchNormalization_38"
    name: "FixedBatchNormalization_38"
    op_type: "BatchNormalization"
    attribute {
      name: "epsilon"
      f: 0.0010000000474974513
      type: FLOAT
    }
    attribute {
      name: "momentum"
      f: 0.0
      type: FLOAT
    }
  }
  node {
    input: "FixedBatchNormalization_38"
    output: "Identity_29"
    name: "Identity_29"
    op_type: "Identity"
  }
  node {
    input: "Identity_29"
    input: "param_feature_extractor_middleflow_block3_separable2_pointwise_W"
    output: "Convolution2DFunction_39"
    name: "Convolution2DFunction_39"
    op_type: "Conv"
    attribute {
      name: "dilations"
      ints: 1
      ints: 1
      type: INTS
    }
    attribute {
      name: "group"
      i: 1
      type: INT
    }
    attribute {
      name: "kernel_shape"
      ints: 1
      ints: 1
      type: INTS
    }
    attribute {
      name: "pads"
      ints: 0
      ints: 0
      ints: 0
      ints: 0
      type: INTS
    }
    attribute {
      name: "strides"
      ints: 1
      ints: 1
      type: INTS
    }
  }
  node {
    input: "Convolution2DFunction_39"
    input: "param_feature_extractor_middleflow_block3_separable2_pw_bn_gamma"
    input: "param_feature_extractor_middleflow_block3_separable2_pw_bn_beta"
    input: "param_feature_extractor_middleflow_block3_separable2_pw_bn_avg_mean"
    input: "param_feature_extractor_middleflow_block3_separable2_pw_bn_avg_var"
    output: "FixedBatchNormalization_39"
    name: "FixedBatchNormalization_39"
    op_type: "BatchNormalization"
    attribute {
      name: "epsilon"
      f: 0.0010000000474974513
      type: FLOAT
    }
    attribute {
      name: "momentum"
      f: 0.0
      type: FLOAT
    }
  }
  node {
    input: "FixedBatchNormalization_39"
    output: "Identity_30"
    name: "Identity_30"
    op_type: "Identity"
  }
  node {
    input: "Identity_30"
    output: "ReLU_20"
    name: "ReLU_20"
    op_type: "Relu"
  }
  node {
    input: "ReLU_20"
    input: "param_feature_extractor_middleflow_block3_separable3_depthwise_W"
    output: "Convolution2DFunction_40"
    name: "Convolution2DFunction_40"
    op_type: "Conv"
    attribute {
      name: "dilations"
      ints: 2
      ints: 2
      type: INTS
    }
    attribute {
      name: "group"
      i: 728
      type: INT
    }
    attribute {
      name: "kernel_shape"
      ints: 3
      ints: 3
      type: INTS
    }
    attribute {
      name: "pads"
      ints: 2
      ints: 2
      ints: 2
      ints: 2
      type: INTS
    }
    attribute {
      name: "strides"
      ints: 1
      ints: 1
      type: INTS
    }
  }
  node {
    input: "Convolution2DFunction_40"
    input: "param_feature_extractor_middleflow_block3_separable3_dw_bn_gamma"
    input: "param_feature_extractor_middleflow_block3_separable3_dw_bn_beta"
    input: "param_feature_extractor_middleflow_block3_separable3_dw_bn_avg_mean"
    input: "param_feature_extractor_middleflow_block3_separable3_dw_bn_avg_var"
    output: "FixedBatchNormalization_40"
    name: "FixedBatchNormalization_40"
    op_type: "BatchNormalization"
    attribute {
      name: "epsilon"
      f: 0.0010000000474974513
      type: FLOAT
    }
    attribute {
      name: "momentum"
      f: 0.0
      type: FLOAT
    }
  }
  node {
    input: "FixedBatchNormalization_40"
    output: "Identity_31"
    name: "Identity_31"
    op_type: "Identity"
  }
  node {
    input: "Identity_31"
    input: "param_feature_extractor_middleflow_block3_separable3_pointwise_W"
    output: "Convolution2DFunction_41"
    name: "Convolution2DFunction_41"
    op_type: "Conv"
    attribute {
      name: "dilations"
      ints: 1
      ints: 1
      type: INTS
    }
    attribute {
      name: "group"
      i: 1
      type: INT
    }
    attribute {
      name: "kernel_shape"
      ints: 1
      ints: 1
      type: INTS
    }
    attribute {
      name: "pads"
      ints: 0
      ints: 0
      ints: 0
      ints: 0
      type: INTS
    }
    attribute {
      name: "strides"
      ints: 1
      ints: 1
      type: INTS
    }
  }
  node {
    input: "Convolution2DFunction_41"
    input: "param_feature_extractor_middleflow_block3_separable3_pw_bn_gamma"
    input: "param_feature_extractor_middleflow_block3_separable3_pw_bn_beta"
    input: "param_feature_extractor_middleflow_block3_separable3_pw_bn_avg_mean"
    input: "param_feature_extractor_middleflow_block3_separable3_pw_bn_avg_var"
    output: "FixedBatchNormalization_41"
    name: "FixedBatchNormalization_41"
    op_type: "BatchNormalization"
    attribute {
      name: "epsilon"
      f: 0.0010000000474974513
      type: FLOAT
    }
    attribute {
      name: "momentum"
      f: 0.0
      type: FLOAT
    }
  }
  node {
    input: "FixedBatchNormalization_41"
    output: "Identity_32"
    name: "Identity_32"
    op_type: "Identity"
  }
  node {
    input: "Identity_32"
    input: "Add_4"
    output: "Add_5"
    name: "Add_5"
    op_type: "Add"
  }
  node {
    input: "Add_5"
    output: "ReLU_21"
    name: "ReLU_21"
    op_type: "Relu"
  }
  node {
    input: "ReLU_21"
    input: "param_feature_extractor_middleflow_block4_separable1_depthwise_W"
    output: "Convolution2DFunction_42"
    name: "Convolution2DFunction_42"
    op_type: "Conv"
    attribute {
      name: "dilations"
      ints: 2
      ints: 2
      type: INTS
    }
    attribute {
      name: "group"
      i: 728
      type: INT
    }
    attribute {
      name: "kernel_shape"
      ints: 3
      ints: 3
      type: INTS
    }
    attribute {
      name: "pads"
      ints: 2
      ints: 2
      ints: 2
      ints: 2
      type: INTS
    }
    attribute {
      name: "strides"
      ints: 1
      ints: 1
      type: INTS
    }
  }
  node {
    input: "Convolution2DFunction_42"
    input: "param_feature_extractor_middleflow_block4_separable1_dw_bn_gamma"
    input: "param_feature_extractor_middleflow_block4_separable1_dw_bn_beta"
    input: "param_feature_extractor_middleflow_block4_separable1_dw_bn_avg_mean"
    input: "param_feature_extractor_middleflow_block4_separable1_dw_bn_avg_var"
    output: "FixedBatchNormalization_42"
    name: "FixedBatchNormalization_42"
    op_type: "BatchNormalization"
    attribute {
      name: "epsilon"
      f: 0.0010000000474974513
      type: FLOAT
    }
    attribute {
      name: "momentum"
      f: 0.0
      type: FLOAT
    }
  }
  node {
    input: "FixedBatchNormalization_42"
    output: "Identity_33"
    name: "Identity_33"
    op_type: "Identity"
  }
  node {
    input: "Identity_33"
    input: "param_feature_extractor_middleflow_block4_separable1_pointwise_W"
    output: "Convolution2DFunction_43"
    name: "Convolution2DFunction_43"
    op_type: "Conv"
    attribute {
      name: "dilations"
      ints: 1
      ints: 1
      type: INTS
    }
    attribute {
      name: "group"
      i: 1
      type: INT
    }
    attribute {
      name: "kernel_shape"
      ints: 1
      ints: 1
      type: INTS
    }
    attribute {
      name: "pads"
      ints: 0
      ints: 0
      ints: 0
      ints: 0
      type: INTS
    }
    attribute {
      name: "strides"
      ints: 1
      ints: 1
      type: INTS
    }
  }
  node {
    input: "Convolution2DFunction_43"
    input: "param_feature_extractor_middleflow_block4_separable1_pw_bn_gamma"
    input: "param_feature_extractor_middleflow_block4_separable1_pw_bn_beta"
    input: "param_feature_extractor_middleflow_block4_separable1_pw_bn_avg_mean"
    input: "param_feature_extractor_middleflow_block4_separable1_pw_bn_avg_var"
    output: "FixedBatchNormalization_43"
    name: "FixedBatchNormalization_43"
    op_type: "BatchNormalization"
    attribute {
      name: "epsilon"
      f: 0.0010000000474974513
      type: FLOAT
    }
    attribute {
      name: "momentum"
      f: 0.0
      type: FLOAT
    }
  }
  node {
    input: "FixedBatchNormalization_43"
    output: "ReLU_22"
    name: "ReLU_22"
    op_type: "Relu"
  }
  node {
    input: "ReLU_22"
    input: "param_feature_extractor_middleflow_block4_separable2_depthwise_W"
    output: "Convolution2DFunction_44"
    name: "Convolution2DFunction_44"
    op_type: "Conv"
    attribute {
      name: "dilations"
      ints: 2
      ints: 2
      type: INTS
    }
    attribute {
      name: "group"
      i: 728
      type: INT
    }
    attribute {
      name: "kernel_shape"
      ints: 3
      ints: 3
      type: INTS
    }
    attribute {
      name: "pads"
      ints: 2
      ints: 2
      ints: 2
      ints: 2
      type: INTS
    }
    attribute {
      name: "strides"
      ints: 1
      ints: 1
      type: INTS
    }
  }
  node {
    input: "Convolution2DFunction_44"
    input: "param_feature_extractor_middleflow_block4_separable2_dw_bn_gamma"
    input: "param_feature_extractor_middleflow_block4_separable2_dw_bn_beta"
    input: "param_feature_extractor_middleflow_block4_separable2_dw_bn_avg_mean"
    input: "param_feature_extractor_middleflow_block4_separable2_dw_bn_avg_var"
    output: "FixedBatchNormalization_44"
    name: "FixedBatchNormalization_44"
    op_type: "BatchNormalization"
    attribute {
      name: "epsilon"
      f: 0.0010000000474974513
      type: FLOAT
    }
    attribute {
      name: "momentum"
      f: 0.0
      type: FLOAT
    }
  }
  node {
    input: "FixedBatchNormalization_44"
    output: "Identity_34"
    name: "Identity_34"
    op_type: "Identity"
  }
  node {
    input: "Identity_34"
    input: "param_feature_extractor_middleflow_block4_separable2_pointwise_W"
    output: "Convolution2DFunction_45"
    name: "Convolution2DFunction_45"
    op_type: "Conv"
    attribute {
      name: "dilations"
      ints: 1
      ints: 1
      type: INTS
    }
    attribute {
      name: "group"
      i: 1
      type: INT
    }
    attribute {
      name: "kernel_shape"
      ints: 1
      ints: 1
      type: INTS
    }
    attribute {
      name: "pads"
      ints: 0
      ints: 0
      ints: 0
      ints: 0
      type: INTS
    }
    attribute {
      name: "strides"
      ints: 1
      ints: 1
      type: INTS
    }
  }
  node {
    input: "Convolution2DFunction_45"
    input: "param_feature_extractor_middleflow_block4_separable2_pw_bn_gamma"
    input: "param_feature_extractor_middleflow_block4_separable2_pw_bn_beta"
    input: "param_feature_extractor_middleflow_block4_separable2_pw_bn_avg_mean"
    input: "param_feature_extractor_middleflow_block4_separable2_pw_bn_avg_var"
    output: "FixedBatchNormalization_45"
    name: "FixedBatchNormalization_45"
    op_type: "BatchNormalization"
    attribute {
      name: "epsilon"
      f: 0.0010000000474974513
      type: FLOAT
    }
    attribute {
      name: "momentum"
      f: 0.0
      type: FLOAT
    }
  }
  node {
    input: "FixedBatchNormalization_45"
    output: "Identity_35"
    name: "Identity_35"
    op_type: "Identity"
  }
  node {
    input: "Identity_35"
    output: "ReLU_23"
    name: "ReLU_23"
    op_type: "Relu"
  }
  node {
    input: "ReLU_23"
    input: "param_feature_extractor_middleflow_block4_separable3_depthwise_W"
    output: "Convolution2DFunction_46"
    name: "Convolution2DFunction_46"
    op_type: "Conv"
    attribute {
      name: "dilations"
      ints: 2
      ints: 2
      type: INTS
    }
    attribute {
      name: "group"
      i: 728
      type: INT
    }
    attribute {
      name: "kernel_shape"
      ints: 3
      ints: 3
      type: INTS
    }
    attribute {
      name: "pads"
      ints: 2
      ints: 2
      ints: 2
      ints: 2
      type: INTS
    }
    attribute {
      name: "strides"
      ints: 1
      ints: 1
      type: INTS
    }
  }
  node {
    input: "Convolution2DFunction_46"
    input: "param_feature_extractor_middleflow_block4_separable3_dw_bn_gamma"
    input: "param_feature_extractor_middleflow_block4_separable3_dw_bn_beta"
    input: "param_feature_extractor_middleflow_block4_separable3_dw_bn_avg_mean"
    input: "param_feature_extractor_middleflow_block4_separable3_dw_bn_avg_var"
    output: "FixedBatchNormalization_46"
    name: "FixedBatchNormalization_46"
    op_type: "BatchNormalization"
    attribute {
      name: "epsilon"
      f: 0.0010000000474974513
      type: FLOAT
    }
    attribute {
      name: "momentum"
      f: 0.0
      type: FLOAT
    }
  }
  node {
    input: "FixedBatchNormalization_46"
    output: "Identity_36"
    name: "Identity_36"
    op_type: "Identity"
  }
  node {
    input: "Identity_36"
    input: "param_feature_extractor_middleflow_block4_separable3_pointwise_W"
    output: "Convolution2DFunction_47"
    name: "Convolution2DFunction_47"
    op_type: "Conv"
    attribute {
      name: "dilations"
      ints: 1
      ints: 1
      type: INTS
    }
    attribute {
      name: "group"
      i: 1
      type: INT
    }
    attribute {
      name: "kernel_shape"
      ints: 1
      ints: 1
      type: INTS
    }
    attribute {
      name: "pads"
      ints: 0
      ints: 0
      ints: 0
      ints: 0
      type: INTS
    }
    attribute {
      name: "strides"
      ints: 1
      ints: 1
      type: INTS
    }
  }
  node {
    input: "Convolution2DFunction_47"
    input: "param_feature_extractor_middleflow_block4_separable3_pw_bn_gamma"
    input: "param_feature_extractor_middleflow_block4_separable3_pw_bn_beta"
    input: "param_feature_extractor_middleflow_block4_separable3_pw_bn_avg_mean"
    input: "param_feature_extractor_middleflow_block4_separable3_pw_bn_avg_var"
    output: "FixedBatchNormalization_47"
    name: "FixedBatchNormalization_47"
    op_type: "BatchNormalization"
    attribute {
      name: "epsilon"
      f: 0.0010000000474974513
      type: FLOAT
    }
    attribute {
      name: "momentum"
      f: 0.0
      type: FLOAT
    }
  }
  node {
    input: "FixedBatchNormalization_47"
    output: "Identity_37"
    name: "Identity_37"
    op_type: "Identity"
  }
  node {
    input: "Identity_37"
    input: "Add_5"
    output: "Add_6"
    name: "Add_6"
    op_type: "Add"
  }
  node {
    input: "Add_6"
    output: "ReLU_24"
    name: "ReLU_24"
    op_type: "Relu"
  }
  node {
    input: "ReLU_24"
    input: "param_feature_extractor_middleflow_block5_separable1_depthwise_W"
    output: "Convolution2DFunction_48"
    name: "Convolution2DFunction_48"
    op_type: "Conv"
    attribute {
      name: "dilations"
      ints: 2
      ints: 2
      type: INTS
    }
    attribute {
      name: "group"
      i: 728
      type: INT
    }
    attribute {
      name: "kernel_shape"
      ints: 3
      ints: 3
      type: INTS
    }
    attribute {
      name: "pads"
      ints: 2
      ints: 2
      ints: 2
      ints: 2
      type: INTS
    }
    attribute {
      name: "strides"
      ints: 1
      ints: 1
      type: INTS
    }
  }
  node {
    input: "Convolution2DFunction_48"
    input: "param_feature_extractor_middleflow_block5_separable1_dw_bn_gamma"
    input: "param_feature_extractor_middleflow_block5_separable1_dw_bn_beta"
    input: "param_feature_extractor_middleflow_block5_separable1_dw_bn_avg_mean"
    input: "param_feature_extractor_middleflow_block5_separable1_dw_bn_avg_var"
    output: "FixedBatchNormalization_48"
    name: "FixedBatchNormalization_48"
    op_type: "BatchNormalization"
    attribute {
      name: "epsilon"
      f: 0.0010000000474974513
      type: FLOAT
    }
    attribute {
      name: "momentum"
      f: 0.0
      type: FLOAT
    }
  }
  node {
    input: "FixedBatchNormalization_48"
    output: "Identity_38"
    name: "Identity_38"
    op_type: "Identity"
  }
  node {
    input: "Identity_38"
    input: "param_feature_extractor_middleflow_block5_separable1_pointwise_W"
    output: "Convolution2DFunction_49"
    name: "Convolution2DFunction_49"
    op_type: "Conv"
    attribute {
      name: "dilations"
      ints: 1
      ints: 1
      type: INTS
    }
    attribute {
      name: "group"
      i: 1
      type: INT
    }
    attribute {
      name: "kernel_shape"
      ints: 1
      ints: 1
      type: INTS
    }
    attribute {
      name: "pads"
      ints: 0
      ints: 0
      ints: 0
      ints: 0
      type: INTS
    }
    attribute {
      name: "strides"
      ints: 1
      ints: 1
      type: INTS
    }
  }
  node {
    input: "Convolution2DFunction_49"
    input: "param_feature_extractor_middleflow_block5_separable1_pw_bn_gamma"
    input: "param_feature_extractor_middleflow_block5_separable1_pw_bn_beta"
    input: "param_feature_extractor_middleflow_block5_separable1_pw_bn_avg_mean"
    input: "param_feature_extractor_middleflow_block5_separable1_pw_bn_avg_var"
    output: "FixedBatchNormalization_49"
    name: "FixedBatchNormalization_49"
    op_type: "BatchNormalization"
    attribute {
      name: "epsilon"
      f: 0.0010000000474974513
      type: FLOAT
    }
    attribute {
      name: "momentum"
      f: 0.0
      type: FLOAT
    }
  }
  node {
    input: "FixedBatchNormalization_49"
    output: "ReLU_25"
    name: "ReLU_25"
    op_type: "Relu"
  }
  node {
    input: "ReLU_25"
    input: "param_feature_extractor_middleflow_block5_separable2_depthwise_W"
    output: "Convolution2DFunction_50"
    name: "Convolution2DFunction_50"
    op_type: "Conv"
    attribute {
      name: "dilations"
      ints: 2
      ints: 2
      type: INTS
    }
    attribute {
      name: "group"
      i: 728
      type: INT
    }
    attribute {
      name: "kernel_shape"
      ints: 3
      ints: 3
      type: INTS
    }
    attribute {
      name: "pads"
      ints: 2
      ints: 2
      ints: 2
      ints: 2
      type: INTS
    }
    attribute {
      name: "strides"
      ints: 1
      ints: 1
      type: INTS
    }
  }
  node {
    input: "Convolution2DFunction_50"
    input: "param_feature_extractor_middleflow_block5_separable2_dw_bn_gamma"
    input: "param_feature_extractor_middleflow_block5_separable2_dw_bn_beta"
    input: "param_feature_extractor_middleflow_block5_separable2_dw_bn_avg_mean"
    input: "param_feature_extractor_middleflow_block5_separable2_dw_bn_avg_var"
    output: "FixedBatchNormalization_50"
    name: "FixedBatchNormalization_50"
    op_type: "BatchNormalization"
    attribute {
      name: "epsilon"
      f: 0.0010000000474974513
      type: FLOAT
    }
    attribute {
      name: "momentum"
      f: 0.0
      type: FLOAT
    }
  }
  node {
    input: "FixedBatchNormalization_50"
    output: "Identity_39"
    name: "Identity_39"
    op_type: "Identity"
  }
  node {
    input: "Identity_39"
    input: "param_feature_extractor_middleflow_block5_separable2_pointwise_W"
    output: "Convolution2DFunction_51"
    name: "Convolution2DFunction_51"
    op_type: "Conv"
    attribute {
      name: "dilations"
      ints: 1
      ints: 1
      type: INTS
    }
    attribute {
      name: "group"
      i: 1
      type: INT
    }
    attribute {
      name: "kernel_shape"
      ints: 1
      ints: 1
      type: INTS
    }
    attribute {
      name: "pads"
      ints: 0
      ints: 0
      ints: 0
      ints: 0
      type: INTS
    }
    attribute {
      name: "strides"
      ints: 1
      ints: 1
      type: INTS
    }
  }
  node {
    input: "Convolution2DFunction_51"
    input: "param_feature_extractor_middleflow_block5_separable2_pw_bn_gamma"
    input: "param_feature_extractor_middleflow_block5_separable2_pw_bn_beta"
    input: "param_feature_extractor_middleflow_block5_separable2_pw_bn_avg_mean"
    input: "param_feature_extractor_middleflow_block5_separable2_pw_bn_avg_var"
    output: "FixedBatchNormalization_51"
    name: "FixedBatchNormalization_51"
    op_type: "BatchNormalization"
    attribute {
      name: "epsilon"
      f: 0.0010000000474974513
      type: FLOAT
    }
    attribute {
      name: "momentum"
      f: 0.0
      type: FLOAT
    }
  }
  node {
    input: "FixedBatchNormalization_51"
    output: "Identity_40"
    name: "Identity_40"
    op_type: "Identity"
  }
  node {
    input: "Identity_40"
    output: "ReLU_26"
    name: "ReLU_26"
    op_type: "Relu"
  }
  node {
    input: "ReLU_26"
    input: "param_feature_extractor_middleflow_block5_separable3_depthwise_W"
    output: "Convolution2DFunction_52"
    name: "Convolution2DFunction_52"
    op_type: "Conv"
    attribute {
      name: "dilations"
      ints: 2
      ints: 2
      type: INTS
    }
    attribute {
      name: "group"
      i: 728
      type: INT
    }
    attribute {
      name: "kernel_shape"
      ints: 3
      ints: 3
      type: INTS
    }
    attribute {
      name: "pads"
      ints: 2
      ints: 2
      ints: 2
      ints: 2
      type: INTS
    }
    attribute {
      name: "strides"
      ints: 1
      ints: 1
      type: INTS
    }
  }
  node {
    input: "Convolution2DFunction_52"
    input: "param_feature_extractor_middleflow_block5_separable3_dw_bn_gamma"
    input: "param_feature_extractor_middleflow_block5_separable3_dw_bn_beta"
    input: "param_feature_extractor_middleflow_block5_separable3_dw_bn_avg_mean"
    input: "param_feature_extractor_middleflow_block5_separable3_dw_bn_avg_var"
    output: "FixedBatchNormalization_52"
    name: "FixedBatchNormalization_52"
    op_type: "BatchNormalization"
    attribute {
      name: "epsilon"
      f: 0.0010000000474974513
      type: FLOAT
    }
    attribute {
      name: "momentum"
      f: 0.0
      type: FLOAT
    }
  }
  node {
    input: "FixedBatchNormalization_52"
    output: "Identity_41"
    name: "Identity_41"
    op_type: "Identity"
  }
  node {
    input: "Identity_41"
    input: "param_feature_extractor_middleflow_block5_separable3_pointwise_W"
    output: "Convolution2DFunction_53"
    name: "Convolution2DFunction_53"
    op_type: "Conv"
    attribute {
      name: "dilations"
      ints: 1
      ints: 1
      type: INTS
    }
    attribute {
      name: "group"
      i: 1
      type: INT
    }
    attribute {
      name: "kernel_shape"
      ints: 1
      ints: 1
      type: INTS
    }
    attribute {
      name: "pads"
      ints: 0
      ints: 0
      ints: 0
      ints: 0
      type: INTS
    }
    attribute {
      name: "strides"
      ints: 1
      ints: 1
      type: INTS
    }
  }
  node {
    input: "Convolution2DFunction_53"
    input: "param_feature_extractor_middleflow_block5_separable3_pw_bn_gamma"
    input: "param_feature_extractor_middleflow_block5_separable3_pw_bn_beta"
    input: "param_feature_extractor_middleflow_block5_separable3_pw_bn_avg_mean"
    input: "param_feature_extractor_middleflow_block5_separable3_pw_bn_avg_var"
    output: "FixedBatchNormalization_53"
    name: "FixedBatchNormalization_53"
    op_type: "BatchNormalization"
    attribute {
      name: "epsilon"
      f: 0.0010000000474974513
      type: FLOAT
    }
    attribute {
      name: "momentum"
      f: 0.0
      type: FLOAT
    }
  }
  node {
    input: "FixedBatchNormalization_53"
    output: "Identity_42"
    name: "Identity_42"
    op_type: "Identity"
  }
  node {
    input: "Identity_42"
    input: "Add_6"
    output: "Add_7"
    name: "Add_7"
    op_type: "Add"
  }
  node {
    input: "Add_7"
    output: "ReLU_27"
    name: "ReLU_27"
    op_type: "Relu"
  }
  node {
    input: "ReLU_27"
    input: "param_feature_extractor_middleflow_block6_separable1_depthwise_W"
    output: "Convolution2DFunction_54"
    name: "Convolution2DFunction_54"
    op_type: "Conv"
    attribute {
      name: "dilations"
      ints: 2
      ints: 2
      type: INTS
    }
    attribute {
      name: "group"
      i: 728
      type: INT
    }
    attribute {
      name: "kernel_shape"
      ints: 3
      ints: 3
      type: INTS
    }
    attribute {
      name: "pads"
      ints: 2
      ints: 2
      ints: 2
      ints: 2
      type: INTS
    }
    attribute {
      name: "strides"
      ints: 1
      ints: 1
      type: INTS
    }
  }
  node {
    input: "Convolution2DFunction_54"
    input: "param_feature_extractor_middleflow_block6_separable1_dw_bn_gamma"
    input: "param_feature_extractor_middleflow_block6_separable1_dw_bn_beta"
    input: "param_feature_extractor_middleflow_block6_separable1_dw_bn_avg_mean"
    input: "param_feature_extractor_middleflow_block6_separable1_dw_bn_avg_var"
    output: "FixedBatchNormalization_54"
    name: "FixedBatchNormalization_54"
    op_type: "BatchNormalization"
    attribute {
      name: "epsilon"
      f: 0.0010000000474974513
      type: FLOAT
    }
    attribute {
      name: "momentum"
      f: 0.0
      type: FLOAT
    }
  }
  node {
    input: "FixedBatchNormalization_54"
    output: "Identity_43"
    name: "Identity_43"
    op_type: "Identity"
  }
  node {
    input: "Identity_43"
    input: "param_feature_extractor_middleflow_block6_separable1_pointwise_W"
    output: "Convolution2DFunction_55"
    name: "Convolution2DFunction_55"
    op_type: "Conv"
    attribute {
      name: "dilations"
      ints: 1
      ints: 1
      type: INTS
    }
    attribute {
      name: "group"
      i: 1
      type: INT
    }
    attribute {
      name: "kernel_shape"
      ints: 1
      ints: 1
      type: INTS
    }
    attribute {
      name: "pads"
      ints: 0
      ints: 0
      ints: 0
      ints: 0
      type: INTS
    }
    attribute {
      name: "strides"
      ints: 1
      ints: 1
      type: INTS
    }
  }
  node {
    input: "Convolution2DFunction_55"
    input: "param_feature_extractor_middleflow_block6_separable1_pw_bn_gamma"
    input: "param_feature_extractor_middleflow_block6_separable1_pw_bn_beta"
    input: "param_feature_extractor_middleflow_block6_separable1_pw_bn_avg_mean"
    input: "param_feature_extractor_middleflow_block6_separable1_pw_bn_avg_var"
    output: "FixedBatchNormalization_55"
    name: "FixedBatchNormalization_55"
    op_type: "BatchNormalization"
    attribute {
      name: "epsilon"
      f: 0.0010000000474974513
      type: FLOAT
    }
    attribute {
      name: "momentum"
      f: 0.0
      type: FLOAT
    }
  }
  node {
    input: "FixedBatchNormalization_55"
    output: "ReLU_28"
    name: "ReLU_28"
    op_type: "Relu"
  }
  node {
    input: "ReLU_28"
    input: "param_feature_extractor_middleflow_block6_separable2_depthwise_W"
    output: "Convolution2DFunction_56"
    name: "Convolution2DFunction_56"
    op_type: "Conv"
    attribute {
      name: "dilations"
      ints: 2
      ints: 2
      type: INTS
    }
    attribute {
      name: "group"
      i: 728
      type: INT
    }
    attribute {
      name: "kernel_shape"
      ints: 3
      ints: 3
      type: INTS
    }
    attribute {
      name: "pads"
      ints: 2
      ints: 2
      ints: 2
      ints: 2
      type: INTS
    }
    attribute {
      name: "strides"
      ints: 1
      ints: 1
      type: INTS
    }
  }
  node {
    input: "Convolution2DFunction_56"
    input: "param_feature_extractor_middleflow_block6_separable2_dw_bn_gamma"
    input: "param_feature_extractor_middleflow_block6_separable2_dw_bn_beta"
    input: "param_feature_extractor_middleflow_block6_separable2_dw_bn_avg_mean"
    input: "param_feature_extractor_middleflow_block6_separable2_dw_bn_avg_var"
    output: "FixedBatchNormalization_56"
    name: "FixedBatchNormalization_56"
    op_type: "BatchNormalization"
    attribute {
      name: "epsilon"
      f: 0.0010000000474974513
      type: FLOAT
    }
    attribute {
      name: "momentum"
      f: 0.0
      type: FLOAT
    }
  }
  node {
    input: "FixedBatchNormalization_56"
    output: "Identity_44"
    name: "Identity_44"
    op_type: "Identity"
  }
  node {
    input: "Identity_44"
    input: "param_feature_extractor_middleflow_block6_separable2_pointwise_W"
    output: "Convolution2DFunction_57"
    name: "Convolution2DFunction_57"
    op_type: "Conv"
    attribute {
      name: "dilations"
      ints: 1
      ints: 1
      type: INTS
    }
    attribute {
      name: "group"
      i: 1
      type: INT
    }
    attribute {
      name: "kernel_shape"
      ints: 1
      ints: 1
      type: INTS
    }
    attribute {
      name: "pads"
      ints: 0
      ints: 0
      ints: 0
      ints: 0
      type: INTS
    }
    attribute {
      name: "strides"
      ints: 1
      ints: 1
      type: INTS
    }
  }
  node {
    input: "Convolution2DFunction_57"
    input: "param_feature_extractor_middleflow_block6_separable2_pw_bn_gamma"
    input: "param_feature_extractor_middleflow_block6_separable2_pw_bn_beta"
    input: "param_feature_extractor_middleflow_block6_separable2_pw_bn_avg_mean"
    input: "param_feature_extractor_middleflow_block6_separable2_pw_bn_avg_var"
    output: "FixedBatchNormalization_57"
    name: "FixedBatchNormalization_57"
    op_type: "BatchNormalization"
    attribute {
      name: "epsilon"
      f: 0.0010000000474974513
      type: FLOAT
    }
    attribute {
      name: "momentum"
      f: 0.0
      type: FLOAT
    }
  }
  node {
    input: "FixedBatchNormalization_57"
    output: "Identity_45"
    name: "Identity_45"
    op_type: "Identity"
  }
  node {
    input: "Identity_45"
    output: "ReLU_29"
    name: "ReLU_29"
    op_type: "Relu"
  }
  node {
    input: "ReLU_29"
    input: "param_feature_extractor_middleflow_block6_separable3_depthwise_W"
    output: "Convolution2DFunction_58"
    name: "Convolution2DFunction_58"
    op_type: "Conv"
    attribute {
      name: "dilations"
      ints: 2
      ints: 2
      type: INTS
    }
    attribute {
      name: "group"
      i: 728
      type: INT
    }
    attribute {
      name: "kernel_shape"
      ints: 3
      ints: 3
      type: INTS
    }
    attribute {
      name: "pads"
      ints: 2
      ints: 2
      ints: 2
      ints: 2
      type: INTS
    }
    attribute {
      name: "strides"
      ints: 1
      ints: 1
      type: INTS
    }
  }
  node {
    input: "Convolution2DFunction_58"
    input: "param_feature_extractor_middleflow_block6_separable3_dw_bn_gamma"
    input: "param_feature_extractor_middleflow_block6_separable3_dw_bn_beta"
    input: "param_feature_extractor_middleflow_block6_separable3_dw_bn_avg_mean"
    input: "param_feature_extractor_middleflow_block6_separable3_dw_bn_avg_var"
    output: "FixedBatchNormalization_58"
    name: "FixedBatchNormalization_58"
    op_type: "BatchNormalization"
    attribute {
      name: "epsilon"
      f: 0.0010000000474974513
      type: FLOAT
    }
    attribute {
      name: "momentum"
      f: 0.0
      type: FLOAT
    }
  }
  node {
    input: "FixedBatchNormalization_58"
    output: "Identity_46"
    name: "Identity_46"
    op_type: "Identity"
  }
  node {
    input: "Identity_46"
    input: "param_feature_extractor_middleflow_block6_separable3_pointwise_W"
    output: "Convolution2DFunction_59"
    name: "Convolution2DFunction_59"
    op_type: "Conv"
    attribute {
      name: "dilations"
      ints: 1
      ints: 1
      type: INTS
    }
    attribute {
      name: "group"
      i: 1
      type: INT
    }
    attribute {
      name: "kernel_shape"
      ints: 1
      ints: 1
      type: INTS
    }
    attribute {
      name: "pads"
      ints: 0
      ints: 0
      ints: 0
      ints: 0
      type: INTS
    }
    attribute {
      name: "strides"
      ints: 1
      ints: 1
      type: INTS
    }
  }
  node {
    input: "Convolution2DFunction_59"
    input: "param_feature_extractor_middleflow_block6_separable3_pw_bn_gamma"
    input: "param_feature_extractor_middleflow_block6_separable3_pw_bn_beta"
    input: "param_feature_extractor_middleflow_block6_separable3_pw_bn_avg_mean"
    input: "param_feature_extractor_middleflow_block6_separable3_pw_bn_avg_var"
    output: "FixedBatchNormalization_59"
    name: "FixedBatchNormalization_59"
    op_type: "BatchNormalization"
    attribute {
      name: "epsilon"
      f: 0.0010000000474974513
      type: FLOAT
    }
    attribute {
      name: "momentum"
      f: 0.0
      type: FLOAT
    }
  }
  node {
    input: "FixedBatchNormalization_59"
    output: "Identity_47"
    name: "Identity_47"
    op_type: "Identity"
  }
  node {
    input: "Identity_47"
    input: "Add_7"
    output: "Add_8"
    name: "Add_8"
    op_type: "Add"
  }
  node {
    input: "Add_8"
    output: "ReLU_30"
    name: "ReLU_30"
    op_type: "Relu"
  }
  node {
    input: "ReLU_30"
    input: "param_feature_extractor_middleflow_block7_separable1_depthwise_W"
    output: "Convolution2DFunction_60"
    name: "Convolution2DFunction_60"
    op_type: "Conv"
    attribute {
      name: "dilations"
      ints: 2
      ints: 2
      type: INTS
    }
    attribute {
      name: "group"
      i: 728
      type: INT
    }
    attribute {
      name: "kernel_shape"
      ints: 3
      ints: 3
      type: INTS
    }
    attribute {
      name: "pads"
      ints: 2
      ints: 2
      ints: 2
      ints: 2
      type: INTS
    }
    attribute {
      name: "strides"
      ints: 1
      ints: 1
      type: INTS
    }
  }
  node {
    input: "Convolution2DFunction_60"
    input: "param_feature_extractor_middleflow_block7_separable1_dw_bn_gamma"
    input: "param_feature_extractor_middleflow_block7_separable1_dw_bn_beta"
    input: "param_feature_extractor_middleflow_block7_separable1_dw_bn_avg_mean"
    input: "param_feature_extractor_middleflow_block7_separable1_dw_bn_avg_var"
    output: "FixedBatchNormalization_60"
    name: "FixedBatchNormalization_60"
    op_type: "BatchNormalization"
    attribute {
      name: "epsilon"
      f: 0.0010000000474974513
      type: FLOAT
    }
    attribute {
      name: "momentum"
      f: 0.0
      type: FLOAT
    }
  }
  node {
    input: "FixedBatchNormalization_60"
    output: "Identity_48"
    name: "Identity_48"
    op_type: "Identity"
  }
  node {
    input: "Identity_48"
    input: "param_feature_extractor_middleflow_block7_separable1_pointwise_W"
    output: "Convolution2DFunction_61"
    name: "Convolution2DFunction_61"
    op_type: "Conv"
    attribute {
      name: "dilations"
      ints: 1
      ints: 1
      type: INTS
    }
    attribute {
      name: "group"
      i: 1
      type: INT
    }
    attribute {
      name: "kernel_shape"
      ints: 1
      ints: 1
      type: INTS
    }
    attribute {
      name: "pads"
      ints: 0
      ints: 0
      ints: 0
      ints: 0
      type: INTS
    }
    attribute {
      name: "strides"
      ints: 1
      ints: 1
      type: INTS
    }
  }
  node {
    input: "Convolution2DFunction_61"
    input: "param_feature_extractor_middleflow_block7_separable1_pw_bn_gamma"
    input: "param_feature_extractor_middleflow_block7_separable1_pw_bn_beta"
    input: "param_feature_extractor_middleflow_block7_separable1_pw_bn_avg_mean"
    input: "param_feature_extractor_middleflow_block7_separable1_pw_bn_avg_var"
    output: "FixedBatchNormalization_61"
    name: "FixedBatchNormalization_61"
    op_type: "BatchNormalization"
    attribute {
      name: "epsilon"
      f: 0.0010000000474974513
      type: FLOAT
    }
    attribute {
      name: "momentum"
      f: 0.0
      type: FLOAT
    }
  }
  node {
    input: "FixedBatchNormalization_61"
    output: "ReLU_31"
    name: "ReLU_31"
    op_type: "Relu"
  }
  node {
    input: "ReLU_31"
    input: "param_feature_extractor_middleflow_block7_separable2_depthwise_W"
    output: "Convolution2DFunction_62"
    name: "Convolution2DFunction_62"
    op_type: "Conv"
    attribute {
      name: "dilations"
      ints: 2
      ints: 2
      type: INTS
    }
    attribute {
      name: "group"
      i: 728
      type: INT
    }
    attribute {
      name: "kernel_shape"
      ints: 3
      ints: 3
      type: INTS
    }
    attribute {
      name: "pads"
      ints: 2
      ints: 2
      ints: 2
      ints: 2
      type: INTS
    }
    attribute {
      name: "strides"
      ints: 1
      ints: 1
      type: INTS
    }
  }
  node {
    input: "Convolution2DFunction_62"
    input: "param_feature_extractor_middleflow_block7_separable2_dw_bn_gamma"
    input: "param_feature_extractor_middleflow_block7_separable2_dw_bn_beta"
    input: "param_feature_extractor_middleflow_block7_separable2_dw_bn_avg_mean"
    input: "param_feature_extractor_middleflow_block7_separable2_dw_bn_avg_var"
    output: "FixedBatchNormalization_62"
    name: "FixedBatchNormalization_62"
    op_type: "BatchNormalization"
    attribute {
      name: "epsilon"
      f: 0.0010000000474974513
      type: FLOAT
    }
    attribute {
      name: "momentum"
      f: 0.0
      type: FLOAT
    }
  }
  node {
    input: "FixedBatchNormalization_62"
    output: "Identity_49"
    name: "Identity_49"
    op_type: "Identity"
  }
  node {
    input: "Identity_49"
    input: "param_feature_extractor_middleflow_block7_separable2_pointwise_W"
    output: "Convolution2DFunction_63"
    name: "Convolution2DFunction_63"
    op_type: "Conv"
    attribute {
      name: "dilations"
      ints: 1
      ints: 1
      type: INTS
    }
    attribute {
      name: "group"
      i: 1
      type: INT
    }
    attribute {
      name: "kernel_shape"
      ints: 1
      ints: 1
      type: INTS
    }
    attribute {
      name: "pads"
      ints: 0
      ints: 0
      ints: 0
      ints: 0
      type: INTS
    }
    attribute {
      name: "strides"
      ints: 1
      ints: 1
      type: INTS
    }
  }
  node {
    input: "Convolution2DFunction_63"
    input: "param_feature_extractor_middleflow_block7_separable2_pw_bn_gamma"
    input: "param_feature_extractor_middleflow_block7_separable2_pw_bn_beta"
    input: "param_feature_extractor_middleflow_block7_separable2_pw_bn_avg_mean"
    input: "param_feature_extractor_middleflow_block7_separable2_pw_bn_avg_var"
    output: "FixedBatchNormalization_63"
    name: "FixedBatchNormalization_63"
    op_type: "BatchNormalization"
    attribute {
      name: "epsilon"
      f: 0.0010000000474974513
      type: FLOAT
    }
    attribute {
      name: "momentum"
      f: 0.0
      type: FLOAT
    }
  }
  node {
    input: "FixedBatchNormalization_63"
    output: "Identity_50"
    name: "Identity_50"
    op_type: "Identity"
  }
  node {
    input: "Identity_50"
    output: "ReLU_32"
    name: "ReLU_32"
    op_type: "Relu"
  }
  node {
    input: "ReLU_32"
    input: "param_feature_extractor_middleflow_block7_separable3_depthwise_W"
    output: "Convolution2DFunction_64"
    name: "Convolution2DFunction_64"
    op_type: "Conv"
    attribute {
      name: "dilations"
      ints: 2
      ints: 2
      type: INTS
    }
    attribute {
      name: "group"
      i: 728
      type: INT
    }
    attribute {
      name: "kernel_shape"
      ints: 3
      ints: 3
      type: INTS
    }
    attribute {
      name: "pads"
      ints: 2
      ints: 2
      ints: 2
      ints: 2
      type: INTS
    }
    attribute {
      name: "strides"
      ints: 1
      ints: 1
      type: INTS
    }
  }
  node {
    input: "Convolution2DFunction_64"
    input: "param_feature_extractor_middleflow_block7_separable3_dw_bn_gamma"
    input: "param_feature_extractor_middleflow_block7_separable3_dw_bn_beta"
    input: "param_feature_extractor_middleflow_block7_separable3_dw_bn_avg_mean"
    input: "param_feature_extractor_middleflow_block7_separable3_dw_bn_avg_var"
    output: "FixedBatchNormalization_64"
    name: "FixedBatchNormalization_64"
    op_type: "BatchNormalization"
    attribute {
      name: "epsilon"
      f: 0.0010000000474974513
      type: FLOAT
    }
    attribute {
      name: "momentum"
      f: 0.0
      type: FLOAT
    }
  }
  node {
    input: "FixedBatchNormalization_64"
    output: "Identity_51"
    name: "Identity_51"
    op_type: "Identity"
  }
  node {
    input: "Identity_51"
    input: "param_feature_extractor_middleflow_block7_separable3_pointwise_W"
    output: "Convolution2DFunction_65"
    name: "Convolution2DFunction_65"
    op_type: "Conv"
    attribute {
      name: "dilations"
      ints: 1
      ints: 1
      type: INTS
    }
    attribute {
      name: "group"
      i: 1
      type: INT
    }
    attribute {
      name: "kernel_shape"
      ints: 1
      ints: 1
      type: INTS
    }
    attribute {
      name: "pads"
      ints: 0
      ints: 0
      ints: 0
      ints: 0
      type: INTS
    }
    attribute {
      name: "strides"
      ints: 1
      ints: 1
      type: INTS
    }
  }
  node {
    input: "Convolution2DFunction_65"
    input: "param_feature_extractor_middleflow_block7_separable3_pw_bn_gamma"
    input: "param_feature_extractor_middleflow_block7_separable3_pw_bn_beta"
    input: "param_feature_extractor_middleflow_block7_separable3_pw_bn_avg_mean"
    input: "param_feature_extractor_middleflow_block7_separable3_pw_bn_avg_var"
    output: "FixedBatchNormalization_65"
    name: "FixedBatchNormalization_65"
    op_type: "BatchNormalization"
    attribute {
      name: "epsilon"
      f: 0.0010000000474974513
      type: FLOAT
    }
    attribute {
      name: "momentum"
      f: 0.0
      type: FLOAT
    }
  }
  node {
    input: "FixedBatchNormalization_65"
    output: "Identity_52"
    name: "Identity_52"
    op_type: "Identity"
  }
  node {
    input: "Identity_52"
    input: "Add_8"
    output: "Add_9"
    name: "Add_9"
    op_type: "Add"
  }
  node {
    input: "Add_9"
    output: "ReLU_33"
    name: "ReLU_33"
    op_type: "Relu"
  }
  node {
    input: "ReLU_33"
    input: "param_feature_extractor_middleflow_block8_separable1_depthwise_W"
    output: "Convolution2DFunction_66"
    name: "Convolution2DFunction_66"
    op_type: "Conv"
    attribute {
      name: "dilations"
      ints: 2
      ints: 2
      type: INTS
    }
    attribute {
      name: "group"
      i: 728
      type: INT
    }
    attribute {
      name: "kernel_shape"
      ints: 3
      ints: 3
      type: INTS
    }
    attribute {
      name: "pads"
      ints: 2
      ints: 2
      ints: 2
      ints: 2
      type: INTS
    }
    attribute {
      name: "strides"
      ints: 1
      ints: 1
      type: INTS
    }
  }
  node {
    input: "Convolution2DFunction_66"
    input: "param_feature_extractor_middleflow_block8_separable1_dw_bn_gamma"
    input: "param_feature_extractor_middleflow_block8_separable1_dw_bn_beta"
    input: "param_feature_extractor_middleflow_block8_separable1_dw_bn_avg_mean"
    input: "param_feature_extractor_middleflow_block8_separable1_dw_bn_avg_var"
    output: "FixedBatchNormalization_66"
    name: "FixedBatchNormalization_66"
    op_type: "BatchNormalization"
    attribute {
      name: "epsilon"
      f: 0.0010000000474974513
      type: FLOAT
    }
    attribute {
      name: "momentum"
      f: 0.0
      type: FLOAT
    }
  }
  node {
    input: "FixedBatchNormalization_66"
    output: "Identity_53"
    name: "Identity_53"
    op_type: "Identity"
  }
  node {
    input: "Identity_53"
    input: "param_feature_extractor_middleflow_block8_separable1_pointwise_W"
    output: "Convolution2DFunction_67"
    name: "Convolution2DFunction_67"
    op_type: "Conv"
    attribute {
      name: "dilations"
      ints: 1
      ints: 1
      type: INTS
    }
    attribute {
      name: "group"
      i: 1
      type: INT
    }
    attribute {
      name: "kernel_shape"
      ints: 1
      ints: 1
      type: INTS
    }
    attribute {
      name: "pads"
      ints: 0
      ints: 0
      ints: 0
      ints: 0
      type: INTS
    }
    attribute {
      name: "strides"
      ints: 1
      ints: 1
      type: INTS
    }
  }
  node {
    input: "Convolution2DFunction_67"
    input: "param_feature_extractor_middleflow_block8_separable1_pw_bn_gamma"
    input: "param_feature_extractor_middleflow_block8_separable1_pw_bn_beta"
    input: "param_feature_extractor_middleflow_block8_separable1_pw_bn_avg_mean"
    input: "param_feature_extractor_middleflow_block8_separable1_pw_bn_avg_var"
    output: "FixedBatchNormalization_67"
    name: "FixedBatchNormalization_67"
    op_type: "BatchNormalization"
    attribute {
      name: "epsilon"
      f: 0.0010000000474974513
      type: FLOAT
    }
    attribute {
      name: "momentum"
      f: 0.0
      type: FLOAT
    }
  }
  node {
    input: "FixedBatchNormalization_67"
    output: "ReLU_34"
    name: "ReLU_34"
    op_type: "Relu"
  }
  node {
    input: "ReLU_34"
    input: "param_feature_extractor_middleflow_block8_separable2_depthwise_W"
    output: "Convolution2DFunction_68"
    name: "Convolution2DFunction_68"
    op_type: "Conv"
    attribute {
      name: "dilations"
      ints: 2
      ints: 2
      type: INTS
    }
    attribute {
      name: "group"
      i: 728
      type: INT
    }
    attribute {
      name: "kernel_shape"
      ints: 3
      ints: 3
      type: INTS
    }
    attribute {
      name: "pads"
      ints: 2
      ints: 2
      ints: 2
      ints: 2
      type: INTS
    }
    attribute {
      name: "strides"
      ints: 1
      ints: 1
      type: INTS
    }
  }
  node {
    input: "Convolution2DFunction_68"
    input: "param_feature_extractor_middleflow_block8_separable2_dw_bn_gamma"
    input: "param_feature_extractor_middleflow_block8_separable2_dw_bn_beta"
    input: "param_feature_extractor_middleflow_block8_separable2_dw_bn_avg_mean"
    input: "param_feature_extractor_middleflow_block8_separable2_dw_bn_avg_var"
    output: "FixedBatchNormalization_68"
    name: "FixedBatchNormalization_68"
    op_type: "BatchNormalization"
    attribute {
      name: "epsilon"
      f: 0.0010000000474974513
      type: FLOAT
    }
    attribute {
      name: "momentum"
      f: 0.0
      type: FLOAT
    }
  }
  node {
    input: "FixedBatchNormalization_68"
    output: "Identity_54"
    name: "Identity_54"
    op_type: "Identity"
  }
  node {
    input: "Identity_54"
    input: "param_feature_extractor_middleflow_block8_separable2_pointwise_W"
    output: "Convolution2DFunction_69"
    name: "Convolution2DFunction_69"
    op_type: "Conv"
    attribute {
      name: "dilations"
      ints: 1
      ints: 1
      type: INTS
    }
    attribute {
      name: "group"
      i: 1
      type: INT
    }
    attribute {
      name: "kernel_shape"
      ints: 1
      ints: 1
      type: INTS
    }
    attribute {
      name: "pads"
      ints: 0
      ints: 0
      ints: 0
      ints: 0
      type: INTS
    }
    attribute {
      name: "strides"
      ints: 1
      ints: 1
      type: INTS
    }
  }
  node {
    input: "Convolution2DFunction_69"
    input: "param_feature_extractor_middleflow_block8_separable2_pw_bn_gamma"
    input: "param_feature_extractor_middleflow_block8_separable2_pw_bn_beta"
    input: "param_feature_extractor_middleflow_block8_separable2_pw_bn_avg_mean"
    input: "param_feature_extractor_middleflow_block8_separable2_pw_bn_avg_var"
    output: "FixedBatchNormalization_69"
    name: "FixedBatchNormalization_69"
    op_type: "BatchNormalization"
    attribute {
      name: "epsilon"
      f: 0.0010000000474974513
      type: FLOAT
    }
    attribute {
      name: "momentum"
      f: 0.0
      type: FLOAT
    }
  }
  node {
    input: "FixedBatchNormalization_69"
    output: "Identity_55"
    name: "Identity_55"
    op_type: "Identity"
  }
  node {
    input: "Identity_55"
    output: "ReLU_35"
    name: "ReLU_35"
    op_type: "Relu"
  }
  node {
    input: "ReLU_35"
    input: "param_feature_extractor_middleflow_block8_separable3_depthwise_W"
    output: "Convolution2DFunction_70"
    name: "Convolution2DFunction_70"
    op_type: "Conv"
    attribute {
      name: "dilations"
      ints: 2
      ints: 2
      type: INTS
    }
    attribute {
      name: "group"
      i: 728
      type: INT
    }
    attribute {
      name: "kernel_shape"
      ints: 3
      ints: 3
      type: INTS
    }
    attribute {
      name: "pads"
      ints: 2
      ints: 2
      ints: 2
      ints: 2
      type: INTS
    }
    attribute {
      name: "strides"
      ints: 1
      ints: 1
      type: INTS
    }
  }
  node {
    input: "Convolution2DFunction_70"
    input: "param_feature_extractor_middleflow_block8_separable3_dw_bn_gamma"
    input: "param_feature_extractor_middleflow_block8_separable3_dw_bn_beta"
    input: "param_feature_extractor_middleflow_block8_separable3_dw_bn_avg_mean"
    input: "param_feature_extractor_middleflow_block8_separable3_dw_bn_avg_var"
    output: "FixedBatchNormalization_70"
    name: "FixedBatchNormalization_70"
    op_type: "BatchNormalization"
    attribute {
      name: "epsilon"
      f: 0.0010000000474974513
      type: FLOAT
    }
    attribute {
      name: "momentum"
      f: 0.0
      type: FLOAT
    }
  }
  node {
    input: "FixedBatchNormalization_70"
    output: "Identity_56"
    name: "Identity_56"
    op_type: "Identity"
  }
  node {
    input: "Identity_56"
    input: "param_feature_extractor_middleflow_block8_separable3_pointwise_W"
    output: "Convolution2DFunction_71"
    name: "Convolution2DFunction_71"
    op_type: "Conv"
    attribute {
      name: "dilations"
      ints: 1
      ints: 1
      type: INTS
    }
    attribute {
      name: "group"
      i: 1
      type: INT
    }
    attribute {
      name: "kernel_shape"
      ints: 1
      ints: 1
      type: INTS
    }
    attribute {
      name: "pads"
      ints: 0
      ints: 0
      ints: 0
      ints: 0
      type: INTS
    }
    attribute {
      name: "strides"
      ints: 1
      ints: 1
      type: INTS
    }
  }
  node {
    input: "Convolution2DFunction_71"
    input: "param_feature_extractor_middleflow_block8_separable3_pw_bn_gamma"
    input: "param_feature_extractor_middleflow_block8_separable3_pw_bn_beta"
    input: "param_feature_extractor_middleflow_block8_separable3_pw_bn_avg_mean"
    input: "param_feature_extractor_middleflow_block8_separable3_pw_bn_avg_var"
    output: "FixedBatchNormalization_71"
    name: "FixedBatchNormalization_71"
    op_type: "BatchNormalization"
    attribute {
      name: "epsilon"
      f: 0.0010000000474974513
      type: FLOAT
    }
    attribute {
      name: "momentum"
      f: 0.0
      type: FLOAT
    }
  }
  node {
    input: "FixedBatchNormalization_71"
    output: "Identity_57"
    name: "Identity_57"
    op_type: "Identity"
  }
  node {
    input: "Identity_57"
    input: "Add_9"
    output: "Add_10"
    name: "Add_10"
    op_type: "Add"
  }
  node {
    input: "Add_10"
    output: "ReLU_36"
    name: "ReLU_36"
    op_type: "Relu"
  }
  node {
    input: "ReLU_36"
    input: "param_feature_extractor_middleflow_block9_separable1_depthwise_W"
    output: "Convolution2DFunction_72"
    name: "Convolution2DFunction_72"
    op_type: "Conv"
    attribute {
      name: "dilations"
      ints: 2
      ints: 2
      type: INTS
    }
    attribute {
      name: "group"
      i: 728
      type: INT
    }
    attribute {
      name: "kernel_shape"
      ints: 3
      ints: 3
      type: INTS
    }
    attribute {
      name: "pads"
      ints: 2
      ints: 2
      ints: 2
      ints: 2
      type: INTS
    }
    attribute {
      name: "strides"
      ints: 1
      ints: 1
      type: INTS
    }
  }
  node {
    input: "Convolution2DFunction_72"
    input: "param_feature_extractor_middleflow_block9_separable1_dw_bn_gamma"
    input: "param_feature_extractor_middleflow_block9_separable1_dw_bn_beta"
    input: "param_feature_extractor_middleflow_block9_separable1_dw_bn_avg_mean"
    input: "param_feature_extractor_middleflow_block9_separable1_dw_bn_avg_var"
    output: "FixedBatchNormalization_72"
    name: "FixedBatchNormalization_72"
    op_type: "BatchNormalization"
    attribute {
      name: "epsilon"
      f: 0.0010000000474974513
      type: FLOAT
    }
    attribute {
      name: "momentum"
      f: 0.0
      type: FLOAT
    }
  }
  node {
    input: "FixedBatchNormalization_72"
    output: "Identity_58"
    name: "Identity_58"
    op_type: "Identity"
  }
  node {
    input: "Identity_58"
    input: "param_feature_extractor_middleflow_block9_separable1_pointwise_W"
    output: "Convolution2DFunction_73"
    name: "Convolution2DFunction_73"
    op_type: "Conv"
    attribute {
      name: "dilations"
      ints: 1
      ints: 1
      type: INTS
    }
    attribute {
      name: "group"
      i: 1
      type: INT
    }
    attribute {
      name: "kernel_shape"
      ints: 1
      ints: 1
      type: INTS
    }
    attribute {
      name: "pads"
      ints: 0
      ints: 0
      ints: 0
      ints: 0
      type: INTS
    }
    attribute {
      name: "strides"
      ints: 1
      ints: 1
      type: INTS
    }
  }
  node {
    input: "Convolution2DFunction_73"
    input: "param_feature_extractor_middleflow_block9_separable1_pw_bn_gamma"
    input: "param_feature_extractor_middleflow_block9_separable1_pw_bn_beta"
    input: "param_feature_extractor_middleflow_block9_separable1_pw_bn_avg_mean"
    input: "param_feature_extractor_middleflow_block9_separable1_pw_bn_avg_var"
    output: "FixedBatchNormalization_73"
    name: "FixedBatchNormalization_73"
    op_type: "BatchNormalization"
    attribute {
      name: "epsilon"
      f: 0.0010000000474974513
      type: FLOAT
    }
    attribute {
      name: "momentum"
      f: 0.0
      type: FLOAT
    }
  }
  node {
    input: "FixedBatchNormalization_73"
    output: "ReLU_37"
    name: "ReLU_37"
    op_type: "Relu"
  }
  node {
    input: "ReLU_37"
    input: "param_feature_extractor_middleflow_block9_separable2_depthwise_W"
    output: "Convolution2DFunction_74"
    name: "Convolution2DFunction_74"
    op_type: "Conv"
    attribute {
      name: "dilations"
      ints: 2
      ints: 2
      type: INTS
    }
    attribute {
      name: "group"
      i: 728
      type: INT
    }
    attribute {
      name: "kernel_shape"
      ints: 3
      ints: 3
      type: INTS
    }
    attribute {
      name: "pads"
      ints: 2
      ints: 2
      ints: 2
      ints: 2
      type: INTS
    }
    attribute {
      name: "strides"
      ints: 1
      ints: 1
      type: INTS
    }
  }
  node {
    input: "Convolution2DFunction_74"
    input: "param_feature_extractor_middleflow_block9_separable2_dw_bn_gamma"
    input: "param_feature_extractor_middleflow_block9_separable2_dw_bn_beta"
    input: "param_feature_extractor_middleflow_block9_separable2_dw_bn_avg_mean"
    input: "param_feature_extractor_middleflow_block9_separable2_dw_bn_avg_var"
    output: "FixedBatchNormalization_74"
    name: "FixedBatchNormalization_74"
    op_type: "BatchNormalization"
    attribute {
      name: "epsilon"
      f: 0.0010000000474974513
      type: FLOAT
    }
    attribute {
      name: "momentum"
      f: 0.0
      type: FLOAT
    }
  }
  node {
    input: "FixedBatchNormalization_74"
    output: "Identity_59"
    name: "Identity_59"
    op_type: "Identity"
  }
  node {
    input: "Identity_59"
    input: "param_feature_extractor_middleflow_block9_separable2_pointwise_W"
    output: "Convolution2DFunction_75"
    name: "Convolution2DFunction_75"
    op_type: "Conv"
    attribute {
      name: "dilations"
      ints: 1
      ints: 1
      type: INTS
    }
    attribute {
      name: "group"
      i: 1
      type: INT
    }
    attribute {
      name: "kernel_shape"
      ints: 1
      ints: 1
      type: INTS
    }
    attribute {
      name: "pads"
      ints: 0
      ints: 0
      ints: 0
      ints: 0
      type: INTS
    }
    attribute {
      name: "strides"
      ints: 1
      ints: 1
      type: INTS
    }
  }
  node {
    input: "Convolution2DFunction_75"
    input: "param_feature_extractor_middleflow_block9_separable2_pw_bn_gamma"
    input: "param_feature_extractor_middleflow_block9_separable2_pw_bn_beta"
    input: "param_feature_extractor_middleflow_block9_separable2_pw_bn_avg_mean"
    input: "param_feature_extractor_middleflow_block9_separable2_pw_bn_avg_var"
    output: "FixedBatchNormalization_75"
    name: "FixedBatchNormalization_75"
    op_type: "BatchNormalization"
    attribute {
      name: "epsilon"
      f: 0.0010000000474974513
      type: FLOAT
    }
    attribute {
      name: "momentum"
      f: 0.0
      type: FLOAT
    }
  }
  node {
    input: "FixedBatchNormalization_75"
    output: "Identity_60"
    name: "Identity_60"
    op_type: "Identity"
  }
  node {
    input: "Identity_60"
    output: "ReLU_38"
    name: "ReLU_38"
    op_type: "Relu"
  }
  node {
    input: "ReLU_38"
    input: "param_feature_extractor_middleflow_block9_separable3_depthwise_W"
    output: "Convolution2DFunction_76"
    name: "Convolution2DFunction_76"
    op_type: "Conv"
    attribute {
      name: "dilations"
      ints: 2
      ints: 2
      type: INTS
    }
    attribute {
      name: "group"
      i: 728
      type: INT
    }
    attribute {
      name: "kernel_shape"
      ints: 3
      ints: 3
      type: INTS
    }
    attribute {
      name: "pads"
      ints: 2
      ints: 2
      ints: 2
      ints: 2
      type: INTS
    }
    attribute {
      name: "strides"
      ints: 1
      ints: 1
      type: INTS
    }
  }
  node {
    input: "Convolution2DFunction_76"
    input: "param_feature_extractor_middleflow_block9_separable3_dw_bn_gamma"
    input: "param_feature_extractor_middleflow_block9_separable3_dw_bn_beta"
    input: "param_feature_extractor_middleflow_block9_separable3_dw_bn_avg_mean"
    input: "param_feature_extractor_middleflow_block9_separable3_dw_bn_avg_var"
    output: "FixedBatchNormalization_76"
    name: "FixedBatchNormalization_76"
    op_type: "BatchNormalization"
    attribute {
      name: "epsilon"
      f: 0.0010000000474974513
      type: FLOAT
    }
    attribute {
      name: "momentum"
      f: 0.0
      type: FLOAT
    }
  }
  node {
    input: "FixedBatchNormalization_76"
    output: "Identity_61"
    name: "Identity_61"
    op_type: "Identity"
  }
  node {
    input: "Identity_61"
    input: "param_feature_extractor_middleflow_block9_separable3_pointwise_W"
    output: "Convolution2DFunction_77"
    name: "Convolution2DFunction_77"
    op_type: "Conv"
    attribute {
      name: "dilations"
      ints: 1
      ints: 1
      type: INTS
    }
    attribute {
      name: "group"
      i: 1
      type: INT
    }
    attribute {
      name: "kernel_shape"
      ints: 1
      ints: 1
      type: INTS
    }
    attribute {
      name: "pads"
      ints: 0
      ints: 0
      ints: 0
      ints: 0
      type: INTS
    }
    attribute {
      name: "strides"
      ints: 1
      ints: 1
      type: INTS
    }
  }
  node {
    input: "Convolution2DFunction_77"
    input: "param_feature_extractor_middleflow_block9_separable3_pw_bn_gamma"
    input: "param_feature_extractor_middleflow_block9_separable3_pw_bn_beta"
    input: "param_feature_extractor_middleflow_block9_separable3_pw_bn_avg_mean"
    input: "param_feature_extractor_middleflow_block9_separable3_pw_bn_avg_var"
    output: "FixedBatchNormalization_77"
    name: "FixedBatchNormalization_77"
    op_type: "BatchNormalization"
    attribute {
      name: "epsilon"
      f: 0.0010000000474974513
      type: FLOAT
    }
    attribute {
      name: "momentum"
      f: 0.0
      type: FLOAT
    }
  }
  node {
    input: "FixedBatchNormalization_77"
    output: "Identity_62"
    name: "Identity_62"
    op_type: "Identity"
  }
  node {
    input: "Identity_62"
    input: "Add_10"
    output: "Add_11"
    name: "Add_11"
    op_type: "Add"
  }
  node {
    input: "Add_11"
    output: "ReLU_39"
    name: "ReLU_39"
    op_type: "Relu"
  }
  node {
    input: "ReLU_39"
    input: "param_feature_extractor_middleflow_block10_separable1_depthwise_W"
    output: "Convolution2DFunction_78"
    name: "Convolution2DFunction_78"
    op_type: "Conv"
    attribute {
      name: "dilations"
      ints: 2
      ints: 2
      type: INTS
    }
    attribute {
      name: "group"
      i: 728
      type: INT
    }
    attribute {
      name: "kernel_shape"
      ints: 3
      ints: 3
      type: INTS
    }
    attribute {
      name: "pads"
      ints: 2
      ints: 2
      ints: 2
      ints: 2
      type: INTS
    }
    attribute {
      name: "strides"
      ints: 1
      ints: 1
      type: INTS
    }
  }
  node {
    input: "Convolution2DFunction_78"
    input: "param_feature_extractor_middleflow_block10_separable1_dw_bn_gamma"
    input: "param_feature_extractor_middleflow_block10_separable1_dw_bn_beta"
    input: "param_feature_extractor_middleflow_block10_separable1_dw_bn_avg_mean"
    input: "param_feature_extractor_middleflow_block10_separable1_dw_bn_avg_var"
    output: "FixedBatchNormalization_78"
    name: "FixedBatchNormalization_78"
    op_type: "BatchNormalization"
    attribute {
      name: "epsilon"
      f: 0.0010000000474974513
      type: FLOAT
    }
    attribute {
      name: "momentum"
      f: 0.0
      type: FLOAT
    }
  }
  node {
    input: "FixedBatchNormalization_78"
    output: "Identity_63"
    name: "Identity_63"
    op_type: "Identity"
  }
  node {
    input: "Identity_63"
    input: "param_feature_extractor_middleflow_block10_separable1_pointwise_W"
    output: "Convolution2DFunction_79"
    name: "Convolution2DFunction_79"
    op_type: "Conv"
    attribute {
      name: "dilations"
      ints: 1
      ints: 1
      type: INTS
    }
    attribute {
      name: "group"
      i: 1
      type: INT
    }
    attribute {
      name: "kernel_shape"
      ints: 1
      ints: 1
      type: INTS
    }
    attribute {
      name: "pads"
      ints: 0
      ints: 0
      ints: 0
      ints: 0
      type: INTS
    }
    attribute {
      name: "strides"
      ints: 1
      ints: 1
      type: INTS
    }
  }
  node {
    input: "Convolution2DFunction_79"
    input: "param_feature_extractor_middleflow_block10_separable1_pw_bn_gamma"
    input: "param_feature_extractor_middleflow_block10_separable1_pw_bn_beta"
    input: "param_feature_extractor_middleflow_block10_separable1_pw_bn_avg_mean"
    input: "param_feature_extractor_middleflow_block10_separable1_pw_bn_avg_var"
    output: "FixedBatchNormalization_79"
    name: "FixedBatchNormalization_79"
    op_type: "BatchNormalization"
    attribute {
      name: "epsilon"
      f: 0.0010000000474974513
      type: FLOAT
    }
    attribute {
      name: "momentum"
      f: 0.0
      type: FLOAT
    }
  }
  node {
    input: "FixedBatchNormalization_79"
    output: "ReLU_40"
    name: "ReLU_40"
    op_type: "Relu"
  }
  node {
    input: "ReLU_40"
    input: "param_feature_extractor_middleflow_block10_separable2_depthwise_W"
    output: "Convolution2DFunction_80"
    name: "Convolution2DFunction_80"
    op_type: "Conv"
    attribute {
      name: "dilations"
      ints: 2
      ints: 2
      type: INTS
    }
    attribute {
      name: "group"
      i: 728
      type: INT
    }
    attribute {
      name: "kernel_shape"
      ints: 3
      ints: 3
      type: INTS
    }
    attribute {
      name: "pads"
      ints: 2
      ints: 2
      ints: 2
      ints: 2
      type: INTS
    }
    attribute {
      name: "strides"
      ints: 1
      ints: 1
      type: INTS
    }
  }
  node {
    input: "Convolution2DFunction_80"
    input: "param_feature_extractor_middleflow_block10_separable2_dw_bn_gamma"
    input: "param_feature_extractor_middleflow_block10_separable2_dw_bn_beta"
    input: "param_feature_extractor_middleflow_block10_separable2_dw_bn_avg_mean"
    input: "param_feature_extractor_middleflow_block10_separable2_dw_bn_avg_var"
    output: "FixedBatchNormalization_80"
    name: "FixedBatchNormalization_80"
    op_type: "BatchNormalization"
    attribute {
      name: "epsilon"
      f: 0.0010000000474974513
      type: FLOAT
    }
    attribute {
      name: "momentum"
      f: 0.0
      type: FLOAT
    }
  }
  node {
    input: "FixedBatchNormalization_80"
    output: "Identity_64"
    name: "Identity_64"
    op_type: "Identity"
  }
  node {
    input: "Identity_64"
    input: "param_feature_extractor_middleflow_block10_separable2_pointwise_W"
    output: "Convolution2DFunction_81"
    name: "Convolution2DFunction_81"
    op_type: "Conv"
    attribute {
      name: "dilations"
      ints: 1
      ints: 1
      type: INTS
    }
    attribute {
      name: "group"
      i: 1
      type: INT
    }
    attribute {
      name: "kernel_shape"
      ints: 1
      ints: 1
      type: INTS
    }
    attribute {
      name: "pads"
      ints: 0
      ints: 0
      ints: 0
      ints: 0
      type: INTS
    }
    attribute {
      name: "strides"
      ints: 1
      ints: 1
      type: INTS
    }
  }
  node {
    input: "Convolution2DFunction_81"
    input: "param_feature_extractor_middleflow_block10_separable2_pw_bn_gamma"
    input: "param_feature_extractor_middleflow_block10_separable2_pw_bn_beta"
    input: "param_feature_extractor_middleflow_block10_separable2_pw_bn_avg_mean"
    input: "param_feature_extractor_middleflow_block10_separable2_pw_bn_avg_var"
    output: "FixedBatchNormalization_81"
    name: "FixedBatchNormalization_81"
    op_type: "BatchNormalization"
    attribute {
      name: "epsilon"
      f: 0.0010000000474974513
      type: FLOAT
    }
    attribute {
      name: "momentum"
      f: 0.0
      type: FLOAT
    }
  }
  node {
    input: "FixedBatchNormalization_81"
    output: "Identity_65"
    name: "Identity_65"
    op_type: "Identity"
  }
  node {
    input: "Identity_65"
    output: "ReLU_41"
    name: "ReLU_41"
    op_type: "Relu"
  }
  node {
    input: "ReLU_41"
    input: "param_feature_extractor_middleflow_block10_separable3_depthwise_W"
    output: "Convolution2DFunction_82"
    name: "Convolution2DFunction_82"
    op_type: "Conv"
    attribute {
      name: "dilations"
      ints: 2
      ints: 2
      type: INTS
    }
    attribute {
      name: "group"
      i: 728
      type: INT
    }
    attribute {
      name: "kernel_shape"
      ints: 3
      ints: 3
      type: INTS
    }
    attribute {
      name: "pads"
      ints: 2
      ints: 2
      ints: 2
      ints: 2
      type: INTS
    }
    attribute {
      name: "strides"
      ints: 1
      ints: 1
      type: INTS
    }
  }
  node {
    input: "Convolution2DFunction_82"
    input: "param_feature_extractor_middleflow_block10_separable3_dw_bn_gamma"
    input: "param_feature_extractor_middleflow_block10_separable3_dw_bn_beta"
    input: "param_feature_extractor_middleflow_block10_separable3_dw_bn_avg_mean"
    input: "param_feature_extractor_middleflow_block10_separable3_dw_bn_avg_var"
    output: "FixedBatchNormalization_82"
    name: "FixedBatchNormalization_82"
    op_type: "BatchNormalization"
    attribute {
      name: "epsilon"
      f: 0.0010000000474974513
      type: FLOAT
    }
    attribute {
      name: "momentum"
      f: 0.0
      type: FLOAT
    }
  }
  node {
    input: "FixedBatchNormalization_82"
    output: "Identity_66"
    name: "Identity_66"
    op_type: "Identity"
  }
  node {
    input: "Identity_66"
    input: "param_feature_extractor_middleflow_block10_separable3_pointwise_W"
    output: "Convolution2DFunction_83"
    name: "Convolution2DFunction_83"
    op_type: "Conv"
    attribute {
      name: "dilations"
      ints: 1
      ints: 1
      type: INTS
    }
    attribute {
      name: "group"
      i: 1
      type: INT
    }
    attribute {
      name: "kernel_shape"
      ints: 1
      ints: 1
      type: INTS
    }
    attribute {
      name: "pads"
      ints: 0
      ints: 0
      ints: 0
      ints: 0
      type: INTS
    }
    attribute {
      name: "strides"
      ints: 1
      ints: 1
      type: INTS
    }
  }
  node {
    input: "Convolution2DFunction_83"
    input: "param_feature_extractor_middleflow_block10_separable3_pw_bn_gamma"
    input: "param_feature_extractor_middleflow_block10_separable3_pw_bn_beta"
    input: "param_feature_extractor_middleflow_block10_separable3_pw_bn_avg_mean"
    input: "param_feature_extractor_middleflow_block10_separable3_pw_bn_avg_var"
    output: "FixedBatchNormalization_83"
    name: "FixedBatchNormalization_83"
    op_type: "BatchNormalization"
    attribute {
      name: "epsilon"
      f: 0.0010000000474974513
      type: FLOAT
    }
    attribute {
      name: "momentum"
      f: 0.0
      type: FLOAT
    }
  }
  node {
    input: "FixedBatchNormalization_83"
    output: "Identity_67"
    name: "Identity_67"
    op_type: "Identity"
  }
  node {
    input: "Identity_67"
    input: "Add_11"
    output: "Add_12"
    name: "Add_12"
    op_type: "Add"
  }
  node {
    input: "Add_12"
    output: "ReLU_42"
    name: "ReLU_42"
    op_type: "Relu"
  }
  node {
    input: "ReLU_42"
    input: "param_feature_extractor_middleflow_block11_separable1_depthwise_W"
    output: "Convolution2DFunction_84"
    name: "Convolution2DFunction_84"
    op_type: "Conv"
    attribute {
      name: "dilations"
      ints: 2
      ints: 2
      type: INTS
    }
    attribute {
      name: "group"
      i: 728
      type: INT
    }
    attribute {
      name: "kernel_shape"
      ints: 3
      ints: 3
      type: INTS
    }
    attribute {
      name: "pads"
      ints: 2
      ints: 2
      ints: 2
      ints: 2
      type: INTS
    }
    attribute {
      name: "strides"
      ints: 1
      ints: 1
      type: INTS
    }
  }
  node {
    input: "Convolution2DFunction_84"
    input: "param_feature_extractor_middleflow_block11_separable1_dw_bn_gamma"
    input: "param_feature_extractor_middleflow_block11_separable1_dw_bn_beta"
    input: "param_feature_extractor_middleflow_block11_separable1_dw_bn_avg_mean"
    input: "param_feature_extractor_middleflow_block11_separable1_dw_bn_avg_var"
    output: "FixedBatchNormalization_84"
    name: "FixedBatchNormalization_84"
    op_type: "BatchNormalization"
    attribute {
      name: "epsilon"
      f: 0.0010000000474974513
      type: FLOAT
    }
    attribute {
      name: "momentum"
      f: 0.0
      type: FLOAT
    }
  }
  node {
    input: "FixedBatchNormalization_84"
    output: "Identity_68"
    name: "Identity_68"
    op_type: "Identity"
  }
  node {
    input: "Identity_68"
    input: "param_feature_extractor_middleflow_block11_separable1_pointwise_W"
    output: "Convolution2DFunction_85"
    name: "Convolution2DFunction_85"
    op_type: "Conv"
    attribute {
      name: "dilations"
      ints: 1
      ints: 1
      type: INTS
    }
    attribute {
      name: "group"
      i: 1
      type: INT
    }
    attribute {
      name: "kernel_shape"
      ints: 1
      ints: 1
      type: INTS
    }
    attribute {
      name: "pads"
      ints: 0
      ints: 0
      ints: 0
      ints: 0
      type: INTS
    }
    attribute {
      name: "strides"
      ints: 1
      ints: 1
      type: INTS
    }
  }
  node {
    input: "Convolution2DFunction_85"
    input: "param_feature_extractor_middleflow_block11_separable1_pw_bn_gamma"
    input: "param_feature_extractor_middleflow_block11_separable1_pw_bn_beta"
    input: "param_feature_extractor_middleflow_block11_separable1_pw_bn_avg_mean"
    input: "param_feature_extractor_middleflow_block11_separable1_pw_bn_avg_var"
    output: "FixedBatchNormalization_85"
    name: "FixedBatchNormalization_85"
    op_type: "BatchNormalization"
    attribute {
      name: "epsilon"
      f: 0.0010000000474974513
      type: FLOAT
    }
    attribute {
      name: "momentum"
      f: 0.0
      type: FLOAT
    }
  }
  node {
    input: "FixedBatchNormalization_85"
    output: "ReLU_43"
    name: "ReLU_43"
    op_type: "Relu"
  }
  node {
    input: "ReLU_43"
    input: "param_feature_extractor_middleflow_block11_separable2_depthwise_W"
    output: "Convolution2DFunction_86"
    name: "Convolution2DFunction_86"
    op_type: "Conv"
    attribute {
      name: "dilations"
      ints: 2
      ints: 2
      type: INTS
    }
    attribute {
      name: "group"
      i: 728
      type: INT
    }
    attribute {
      name: "kernel_shape"
      ints: 3
      ints: 3
      type: INTS
    }
    attribute {
      name: "pads"
      ints: 2
      ints: 2
      ints: 2
      ints: 2
      type: INTS
    }
    attribute {
      name: "strides"
      ints: 1
      ints: 1
      type: INTS
    }
  }
  node {
    input: "Convolution2DFunction_86"
    input: "param_feature_extractor_middleflow_block11_separable2_dw_bn_gamma"
    input: "param_feature_extractor_middleflow_block11_separable2_dw_bn_beta"
    input: "param_feature_extractor_middleflow_block11_separable2_dw_bn_avg_mean"
    input: "param_feature_extractor_middleflow_block11_separable2_dw_bn_avg_var"
    output: "FixedBatchNormalization_86"
    name: "FixedBatchNormalization_86"
    op_type: "BatchNormalization"
    attribute {
      name: "epsilon"
      f: 0.0010000000474974513
      type: FLOAT
    }
    attribute {
      name: "momentum"
      f: 0.0
      type: FLOAT
    }
  }
  node {
    input: "FixedBatchNormalization_86"
    output: "Identity_69"
    name: "Identity_69"
    op_type: "Identity"
  }
  node {
    input: "Identity_69"
    input: "param_feature_extractor_middleflow_block11_separable2_pointwise_W"
    output: "Convolution2DFunction_87"
    name: "Convolution2DFunction_87"
    op_type: "Conv"
    attribute {
      name: "dilations"
      ints: 1
      ints: 1
      type: INTS
    }
    attribute {
      name: "group"
      i: 1
      type: INT
    }
    attribute {
      name: "kernel_shape"
      ints: 1
      ints: 1
      type: INTS
    }
    attribute {
      name: "pads"
      ints: 0
      ints: 0
      ints: 0
      ints: 0
      type: INTS
    }
    attribute {
      name: "strides"
      ints: 1
      ints: 1
      type: INTS
    }
  }
  node {
    input: "Convolution2DFunction_87"
    input: "param_feature_extractor_middleflow_block11_separable2_pw_bn_gamma"
    input: "param_feature_extractor_middleflow_block11_separable2_pw_bn_beta"
    input: "param_feature_extractor_middleflow_block11_separable2_pw_bn_avg_mean"
    input: "param_feature_extractor_middleflow_block11_separable2_pw_bn_avg_var"
    output: "FixedBatchNormalization_87"
    name: "FixedBatchNormalization_87"
    op_type: "BatchNormalization"
    attribute {
      name: "epsilon"
      f: 0.0010000000474974513
      type: FLOAT
    }
    attribute {
      name: "momentum"
      f: 0.0
      type: FLOAT
    }
  }
  node {
    input: "FixedBatchNormalization_87"
    output: "Identity_70"
    name: "Identity_70"
    op_type: "Identity"
  }
  node {
    input: "Identity_70"
    output: "ReLU_44"
    name: "ReLU_44"
    op_type: "Relu"
  }
  node {
    input: "ReLU_44"
    input: "param_feature_extractor_middleflow_block11_separable3_depthwise_W"
    output: "Convolution2DFunction_88"
    name: "Convolution2DFunction_88"
    op_type: "Conv"
    attribute {
      name: "dilations"
      ints: 2
      ints: 2
      type: INTS
    }
    attribute {
      name: "group"
      i: 728
      type: INT
    }
    attribute {
      name: "kernel_shape"
      ints: 3
      ints: 3
      type: INTS
    }
    attribute {
      name: "pads"
      ints: 2
      ints: 2
      ints: 2
      ints: 2
      type: INTS
    }
    attribute {
      name: "strides"
      ints: 1
      ints: 1
      type: INTS
    }
  }
  node {
    input: "Convolution2DFunction_88"
    input: "param_feature_extractor_middleflow_block11_separable3_dw_bn_gamma"
    input: "param_feature_extractor_middleflow_block11_separable3_dw_bn_beta"
    input: "param_feature_extractor_middleflow_block11_separable3_dw_bn_avg_mean"
    input: "param_feature_extractor_middleflow_block11_separable3_dw_bn_avg_var"
    output: "FixedBatchNormalization_88"
    name: "FixedBatchNormalization_88"
    op_type: "BatchNormalization"
    attribute {
      name: "epsilon"
      f: 0.0010000000474974513
      type: FLOAT
    }
    attribute {
      name: "momentum"
      f: 0.0
      type: FLOAT
    }
  }
  node {
    input: "FixedBatchNormalization_88"
    output: "Identity_71"
    name: "Identity_71"
    op_type: "Identity"
  }
  node {
    input: "Identity_71"
    input: "param_feature_extractor_middleflow_block11_separable3_pointwise_W"
    output: "Convolution2DFunction_89"
    name: "Convolution2DFunction_89"
    op_type: "Conv"
    attribute {
      name: "dilations"
      ints: 1
      ints: 1
      type: INTS
    }
    attribute {
      name: "group"
      i: 1
      type: INT
    }
    attribute {
      name: "kernel_shape"
      ints: 1
      ints: 1
      type: INTS
    }
    attribute {
      name: "pads"
      ints: 0
      ints: 0
      ints: 0
      ints: 0
      type: INTS
    }
    attribute {
      name: "strides"
      ints: 1
      ints: 1
      type: INTS
    }
  }
  node {
    input: "Convolution2DFunction_89"
    input: "param_feature_extractor_middleflow_block11_separable3_pw_bn_gamma"
    input: "param_feature_extractor_middleflow_block11_separable3_pw_bn_beta"
    input: "param_feature_extractor_middleflow_block11_separable3_pw_bn_avg_mean"
    input: "param_feature_extractor_middleflow_block11_separable3_pw_bn_avg_var"
    output: "FixedBatchNormalization_89"
    name: "FixedBatchNormalization_89"
    op_type: "BatchNormalization"
    attribute {
      name: "epsilon"
      f: 0.0010000000474974513
      type: FLOAT
    }
    attribute {
      name: "momentum"
      f: 0.0
      type: FLOAT
    }
  }
  node {
    input: "FixedBatchNormalization_89"
    output: "Identity_72"
    name: "Identity_72"
    op_type: "Identity"
  }
  node {
    input: "Identity_72"
    input: "Add_12"
    output: "Add_13"
    name: "Add_13"
    op_type: "Add"
  }
  node {
    input: "Add_13"
    output: "ReLU_45"
    name: "ReLU_45"
    op_type: "Relu"
  }
  node {
    input: "ReLU_45"
    input: "param_feature_extractor_middleflow_block12_separable1_depthwise_W"
    output: "Convolution2DFunction_90"
    name: "Convolution2DFunction_90"
    op_type: "Conv"
    attribute {
      name: "dilations"
      ints: 2
      ints: 2
      type: INTS
    }
    attribute {
      name: "group"
      i: 728
      type: INT
    }
    attribute {
      name: "kernel_shape"
      ints: 3
      ints: 3
      type: INTS
    }
    attribute {
      name: "pads"
      ints: 2
      ints: 2
      ints: 2
      ints: 2
      type: INTS
    }
    attribute {
      name: "strides"
      ints: 1
      ints: 1
      type: INTS
    }
  }
  node {
    input: "Convolution2DFunction_90"
    input: "param_feature_extractor_middleflow_block12_separable1_dw_bn_gamma"
    input: "param_feature_extractor_middleflow_block12_separable1_dw_bn_beta"
    input: "param_feature_extractor_middleflow_block12_separable1_dw_bn_avg_mean"
    input: "param_feature_extractor_middleflow_block12_separable1_dw_bn_avg_var"
    output: "FixedBatchNormalization_90"
    name: "FixedBatchNormalization_90"
    op_type: "BatchNormalization"
    attribute {
      name: "epsilon"
      f: 0.0010000000474974513
      type: FLOAT
    }
    attribute {
      name: "momentum"
      f: 0.0
      type: FLOAT
    }
  }
  node {
    input: "FixedBatchNormalization_90"
    output: "Identity_73"
    name: "Identity_73"
    op_type: "Identity"
  }
  node {
    input: "Identity_73"
    input: "param_feature_extractor_middleflow_block12_separable1_pointwise_W"
    output: "Convolution2DFunction_91"
    name: "Convolution2DFunction_91"
    op_type: "Conv"
    attribute {
      name: "dilations"
      ints: 1
      ints: 1
      type: INTS
    }
    attribute {
      name: "group"
      i: 1
      type: INT
    }
    attribute {
      name: "kernel_shape"
      ints: 1
      ints: 1
      type: INTS
    }
    attribute {
      name: "pads"
      ints: 0
      ints: 0
      ints: 0
      ints: 0
      type: INTS
    }
    attribute {
      name: "strides"
      ints: 1
      ints: 1
      type: INTS
    }
  }
  node {
    input: "Convolution2DFunction_91"
    input: "param_feature_extractor_middleflow_block12_separable1_pw_bn_gamma"
    input: "param_feature_extractor_middleflow_block12_separable1_pw_bn_beta"
    input: "param_feature_extractor_middleflow_block12_separable1_pw_bn_avg_mean"
    input: "param_feature_extractor_middleflow_block12_separable1_pw_bn_avg_var"
    output: "FixedBatchNormalization_91"
    name: "FixedBatchNormalization_91"
    op_type: "BatchNormalization"
    attribute {
      name: "epsilon"
      f: 0.0010000000474974513
      type: FLOAT
    }
    attribute {
      name: "momentum"
      f: 0.0
      type: FLOAT
    }
  }
  node {
    input: "FixedBatchNormalization_91"
    output: "ReLU_46"
    name: "ReLU_46"
    op_type: "Relu"
  }
  node {
    input: "ReLU_46"
    input: "param_feature_extractor_middleflow_block12_separable2_depthwise_W"
    output: "Convolution2DFunction_92"
    name: "Convolution2DFunction_92"
    op_type: "Conv"
    attribute {
      name: "dilations"
      ints: 2
      ints: 2
      type: INTS
    }
    attribute {
      name: "group"
      i: 728
      type: INT
    }
    attribute {
      name: "kernel_shape"
      ints: 3
      ints: 3
      type: INTS
    }
    attribute {
      name: "pads"
      ints: 2
      ints: 2
      ints: 2
      ints: 2
      type: INTS
    }
    attribute {
      name: "strides"
      ints: 1
      ints: 1
      type: INTS
    }
  }
  node {
    input: "Convolution2DFunction_92"
    input: "param_feature_extractor_middleflow_block12_separable2_dw_bn_gamma"
    input: "param_feature_extractor_middleflow_block12_separable2_dw_bn_beta"
    input: "param_feature_extractor_middleflow_block12_separable2_dw_bn_avg_mean"
    input: "param_feature_extractor_middleflow_block12_separable2_dw_bn_avg_var"
    output: "FixedBatchNormalization_92"
    name: "FixedBatchNormalization_92"
    op_type: "BatchNormalization"
    attribute {
      name: "epsilon"
      f: 0.0010000000474974513
      type: FLOAT
    }
    attribute {
      name: "momentum"
      f: 0.0
      type: FLOAT
    }
  }
  node {
    input: "FixedBatchNormalization_92"
    output: "Identity_74"
    name: "Identity_74"
    op_type: "Identity"
  }
  node {
    input: "Identity_74"
    input: "param_feature_extractor_middleflow_block12_separable2_pointwise_W"
    output: "Convolution2DFunction_93"
    name: "Convolution2DFunction_93"
    op_type: "Conv"
    attribute {
      name: "dilations"
      ints: 1
      ints: 1
      type: INTS
    }
    attribute {
      name: "group"
      i: 1
      type: INT
    }
    attribute {
      name: "kernel_shape"
      ints: 1
      ints: 1
      type: INTS
    }
    attribute {
      name: "pads"
      ints: 0
      ints: 0
      ints: 0
      ints: 0
      type: INTS
    }
    attribute {
      name: "strides"
      ints: 1
      ints: 1
      type: INTS
    }
  }
  node {
    input: "Convolution2DFunction_93"
    input: "param_feature_extractor_middleflow_block12_separable2_pw_bn_gamma"
    input: "param_feature_extractor_middleflow_block12_separable2_pw_bn_beta"
    input: "param_feature_extractor_middleflow_block12_separable2_pw_bn_avg_mean"
    input: "param_feature_extractor_middleflow_block12_separable2_pw_bn_avg_var"
    output: "FixedBatchNormalization_93"
    name: "FixedBatchNormalization_93"
    op_type: "BatchNormalization"
    attribute {
      name: "epsilon"
      f: 0.0010000000474974513
      type: FLOAT
    }
    attribute {
      name: "momentum"
      f: 0.0
      type: FLOAT
    }
  }
  node {
    input: "FixedBatchNormalization_93"
    output: "Identity_75"
    name: "Identity_75"
    op_type: "Identity"
  }
  node {
    input: "Identity_75"
    output: "ReLU_47"
    name: "ReLU_47"
    op_type: "Relu"
  }
  node {
    input: "ReLU_47"
    input: "param_feature_extractor_middleflow_block12_separable3_depthwise_W"
    output: "Convolution2DFunction_94"
    name: "Convolution2DFunction_94"
    op_type: "Conv"
    attribute {
      name: "dilations"
      ints: 2
      ints: 2
      type: INTS
    }
    attribute {
      name: "group"
      i: 728
      type: INT
    }
    attribute {
      name: "kernel_shape"
      ints: 3
      ints: 3
      type: INTS
    }
    attribute {
      name: "pads"
      ints: 2
      ints: 2
      ints: 2
      ints: 2
      type: INTS
    }
    attribute {
      name: "strides"
      ints: 1
      ints: 1
      type: INTS
    }
  }
  node {
    input: "Convolution2DFunction_94"
    input: "param_feature_extractor_middleflow_block12_separable3_dw_bn_gamma"
    input: "param_feature_extractor_middleflow_block12_separable3_dw_bn_beta"
    input: "param_feature_extractor_middleflow_block12_separable3_dw_bn_avg_mean"
    input: "param_feature_extractor_middleflow_block12_separable3_dw_bn_avg_var"
    output: "FixedBatchNormalization_94"
    name: "FixedBatchNormalization_94"
    op_type: "BatchNormalization"
    attribute {
      name: "epsilon"
      f: 0.0010000000474974513
      type: FLOAT
    }
    attribute {
      name: "momentum"
      f: 0.0
      type: FLOAT
    }
  }
  node {
    input: "FixedBatchNormalization_94"
    output: "Identity_76"
    name: "Identity_76"
    op_type: "Identity"
  }
  node {
    input: "Identity_76"
    input: "param_feature_extractor_middleflow_block12_separable3_pointwise_W"
    output: "Convolution2DFunction_95"
    name: "Convolution2DFunction_95"
    op_type: "Conv"
    attribute {
      name: "dilations"
      ints: 1
      ints: 1
      type: INTS
    }
    attribute {
      name: "group"
      i: 1
      type: INT
    }
    attribute {
      name: "kernel_shape"
      ints: 1
      ints: 1
      type: INTS
    }
    attribute {
      name: "pads"
      ints: 0
      ints: 0
      ints: 0
      ints: 0
      type: INTS
    }
    attribute {
      name: "strides"
      ints: 1
      ints: 1
      type: INTS
    }
  }
  node {
    input: "Convolution2DFunction_95"
    input: "param_feature_extractor_middleflow_block12_separable3_pw_bn_gamma"
    input: "param_feature_extractor_middleflow_block12_separable3_pw_bn_beta"
    input: "param_feature_extractor_middleflow_block12_separable3_pw_bn_avg_mean"
    input: "param_feature_extractor_middleflow_block12_separable3_pw_bn_avg_var"
    output: "FixedBatchNormalization_95"
    name: "FixedBatchNormalization_95"
    op_type: "BatchNormalization"
    attribute {
      name: "epsilon"
      f: 0.0010000000474974513
      type: FLOAT
    }
    attribute {
      name: "momentum"
      f: 0.0
      type: FLOAT
    }
  }
  node {
    input: "FixedBatchNormalization_95"
    output: "Identity_77"
    name: "Identity_77"
    op_type: "Identity"
  }
  node {
    input: "Identity_77"
    input: "Add_13"
    output: "Add_14"
    name: "Add_14"
    op_type: "Add"
  }
  node {
    input: "Add_14"
    output: "ReLU_48"
    name: "ReLU_48"
    op_type: "Relu"
  }
  node {
    input: "ReLU_48"
    input: "param_feature_extractor_middleflow_block13_separable1_depthwise_W"
    output: "Convolution2DFunction_96"
    name: "Convolution2DFunction_96"
    op_type: "Conv"
    attribute {
      name: "dilations"
      ints: 2
      ints: 2
      type: INTS
    }
    attribute {
      name: "group"
      i: 728
      type: INT
    }
    attribute {
      name: "kernel_shape"
      ints: 3
      ints: 3
      type: INTS
    }
    attribute {
      name: "pads"
      ints: 2
      ints: 2
      ints: 2
      ints: 2
      type: INTS
    }
    attribute {
      name: "strides"
      ints: 1
      ints: 1
      type: INTS
    }
  }
  node {
    input: "Convolution2DFunction_96"
    input: "param_feature_extractor_middleflow_block13_separable1_dw_bn_gamma"
    input: "param_feature_extractor_middleflow_block13_separable1_dw_bn_beta"
    input: "param_feature_extractor_middleflow_block13_separable1_dw_bn_avg_mean"
    input: "param_feature_extractor_middleflow_block13_separable1_dw_bn_avg_var"
    output: "FixedBatchNormalization_96"
    name: "FixedBatchNormalization_96"
    op_type: "BatchNormalization"
    attribute {
      name: "epsilon"
      f: 0.0010000000474974513
      type: FLOAT
    }
    attribute {
      name: "momentum"
      f: 0.0
      type: FLOAT
    }
  }
  node {
    input: "FixedBatchNormalization_96"
    output: "Identity_78"
    name: "Identity_78"
    op_type: "Identity"
  }
  node {
    input: "Identity_78"
    input: "param_feature_extractor_middleflow_block13_separable1_pointwise_W"
    output: "Convolution2DFunction_97"
    name: "Convolution2DFunction_97"
    op_type: "Conv"
    attribute {
      name: "dilations"
      ints: 1
      ints: 1
      type: INTS
    }
    attribute {
      name: "group"
      i: 1
      type: INT
    }
    attribute {
      name: "kernel_shape"
      ints: 1
      ints: 1
      type: INTS
    }
    attribute {
      name: "pads"
      ints: 0
      ints: 0
      ints: 0
      ints: 0
      type: INTS
    }
    attribute {
      name: "strides"
      ints: 1
      ints: 1
      type: INTS
    }
  }
  node {
    input: "Convolution2DFunction_97"
    input: "param_feature_extractor_middleflow_block13_separable1_pw_bn_gamma"
    input: "param_feature_extractor_middleflow_block13_separable1_pw_bn_beta"
    input: "param_feature_extractor_middleflow_block13_separable1_pw_bn_avg_mean"
    input: "param_feature_extractor_middleflow_block13_separable1_pw_bn_avg_var"
    output: "FixedBatchNormalization_97"
    name: "FixedBatchNormalization_97"
    op_type: "BatchNormalization"
    attribute {
      name: "epsilon"
      f: 0.0010000000474974513
      type: FLOAT
    }
    attribute {
      name: "momentum"
      f: 0.0
      type: FLOAT
    }
  }
  node {
    input: "FixedBatchNormalization_97"
    output: "ReLU_49"
    name: "ReLU_49"
    op_type: "Relu"
  }
  node {
    input: "ReLU_49"
    input: "param_feature_extractor_middleflow_block13_separable2_depthwise_W"
    output: "Convolution2DFunction_98"
    name: "Convolution2DFunction_98"
    op_type: "Conv"
    attribute {
      name: "dilations"
      ints: 2
      ints: 2
      type: INTS
    }
    attribute {
      name: "group"
      i: 728
      type: INT
    }
    attribute {
      name: "kernel_shape"
      ints: 3
      ints: 3
      type: INTS
    }
    attribute {
      name: "pads"
      ints: 2
      ints: 2
      ints: 2
      ints: 2
      type: INTS
    }
    attribute {
      name: "strides"
      ints: 1
      ints: 1
      type: INTS
    }
  }
  node {
    input: "Convolution2DFunction_98"
    input: "param_feature_extractor_middleflow_block13_separable2_dw_bn_gamma"
    input: "param_feature_extractor_middleflow_block13_separable2_dw_bn_beta"
    input: "param_feature_extractor_middleflow_block13_separable2_dw_bn_avg_mean"
    input: "param_feature_extractor_middleflow_block13_separable2_dw_bn_avg_var"
    output: "FixedBatchNormalization_98"
    name: "FixedBatchNormalization_98"
    op_type: "BatchNormalization"
    attribute {
      name: "epsilon"
      f: 0.0010000000474974513
      type: FLOAT
    }
    attribute {
      name: "momentum"
      f: 0.0
      type: FLOAT
    }
  }
  node {
    input: "FixedBatchNormalization_98"
    output: "Identity_79"
    name: "Identity_79"
    op_type: "Identity"
  }
  node {
    input: "Identity_79"
    input: "param_feature_extractor_middleflow_block13_separable2_pointwise_W"
    output: "Convolution2DFunction_99"
    name: "Convolution2DFunction_99"
    op_type: "Conv"
    attribute {
      name: "dilations"
      ints: 1
      ints: 1
      type: INTS
    }
    attribute {
      name: "group"
      i: 1
      type: INT
    }
    attribute {
      name: "kernel_shape"
      ints: 1
      ints: 1
      type: INTS
    }
    attribute {
      name: "pads"
      ints: 0
      ints: 0
      ints: 0
      ints: 0
      type: INTS
    }
    attribute {
      name: "strides"
      ints: 1
      ints: 1
      type: INTS
    }
  }
  node {
    input: "Convolution2DFunction_99"
    input: "param_feature_extractor_middleflow_block13_separable2_pw_bn_gamma"
    input: "param_feature_extractor_middleflow_block13_separable2_pw_bn_beta"
    input: "param_feature_extractor_middleflow_block13_separable2_pw_bn_avg_mean"
    input: "param_feature_extractor_middleflow_block13_separable2_pw_bn_avg_var"
    output: "FixedBatchNormalization_99"
    name: "FixedBatchNormalization_99"
    op_type: "BatchNormalization"
    attribute {
      name: "epsilon"
      f: 0.0010000000474974513
      type: FLOAT
    }
    attribute {
      name: "momentum"
      f: 0.0
      type: FLOAT
    }
  }
  node {
    input: "FixedBatchNormalization_99"
    output: "Identity_80"
    name: "Identity_80"
    op_type: "Identity"
  }
  node {
    input: "Identity_80"
    output: "ReLU_50"
    name: "ReLU_50"
    op_type: "Relu"
  }
  node {
    input: "ReLU_50"
    input: "param_feature_extractor_middleflow_block13_separable3_depthwise_W"
    output: "Convolution2DFunction_100"
    name: "Convolution2DFunction_100"
    op_type: "Conv"
    attribute {
      name: "dilations"
      ints: 2
      ints: 2
      type: INTS
    }
    attribute {
      name: "group"
      i: 728
      type: INT
    }
    attribute {
      name: "kernel_shape"
      ints: 3
      ints: 3
      type: INTS
    }
    attribute {
      name: "pads"
      ints: 2
      ints: 2
      ints: 2
      ints: 2
      type: INTS
    }
    attribute {
      name: "strides"
      ints: 1
      ints: 1
      type: INTS
    }
  }
  node {
    input: "Convolution2DFunction_100"
    input: "param_feature_extractor_middleflow_block13_separable3_dw_bn_gamma"
    input: "param_feature_extractor_middleflow_block13_separable3_dw_bn_beta"
    input: "param_feature_extractor_middleflow_block13_separable3_dw_bn_avg_mean"
    input: "param_feature_extractor_middleflow_block13_separable3_dw_bn_avg_var"
    output: "FixedBatchNormalization_100"
    name: "FixedBatchNormalization_100"
    op_type: "BatchNormalization"
    attribute {
      name: "epsilon"
      f: 0.0010000000474974513
      type: FLOAT
    }
    attribute {
      name: "momentum"
      f: 0.0
      type: FLOAT
    }
  }
  node {
…
    name: "param_feature_extractor_middleflow_block3_separable3_pw_bn_avg_mean"
    type {
      tensor_type {
        elem_type: 1
        shape {
          dim {
            dim_value: 728
          }
        }
      }
    }
  }
  input {
    name: "param_feature_extractor_middleflow_block3_separable3_pw_bn_avg_var"
    type {
      tensor_type {
        elem_type: 1
        shape {
          dim {
            dim_value: 728
          }
        }
      }
    }
  }
  input {
    name: "param_feature_extractor_middleflow_block4_separable1_dw_bn_avg_mean"
    type {
      tensor_type {
        elem_type: 1
        shape {
          dim {
            dim_value: 728
          }
        }
      }
    }
  }
  input {
    name: "param_feature_extractor_middleflow_block4_separable1_dw_bn_avg_var"
    type {
      tensor_type {
        elem_type: 1
        shape {
          dim {
            dim_value: 728
          }
        }
      }
    }
  }
  input {
    name: "param_feature_extractor_middleflow_block4_separable1_pw_bn_avg_mean"
    type {
      tensor_type {
        elem_type: 1
        shape {
          dim {
            dim_value: 728
          }
        }
      }
    }
  }
  input {
    name: "param_feature_extractor_middleflow_block4_separable1_pw_bn_avg_var"
    type {
      tensor_type {
        elem_type: 1
        shape {
          dim {
            dim_value: 728
          }
        }
      }
    }
  }
  input {
    name: "param_feature_extractor_middleflow_block4_separable2_dw_bn_avg_mean"
    type {
      tensor_type {
        elem_type: 1
        shape {
          dim {
            dim_value: 728
          }
        }
      }
    }
  }
  input {
    name: "param_feature_extractor_middleflow_block4_separable2_dw_bn_avg_var"
    type {
      tensor_type {
        elem_type: 1
        shape {
          dim {
            dim_value: 728
          }
        }
      }
    }
  }
  input {
    name: "param_feature_extractor_middleflow_block4_separable2_pw_bn_avg_mean"
    type {
      tensor_type {
        elem_type: 1
        shape {
          dim {
            dim_value: 728
          }
        }
      }
    }
  }
  input {
    name: "param_feature_extractor_middleflow_block4_separable2_pw_bn_avg_var"
    type {
      tensor_type {
        elem_type: 1
        shape {
          dim {
            dim_value: 728
          }
        }
      }
    }
  }
  input {
    name: "param_feature_extractor_middleflow_block4_separable3_dw_bn_avg_mean"
    type {
      tensor_type {
        elem_type: 1
        shape {
          dim {
            dim_value: 728
          }
        }
      }
    }
  }
  input {
    name: "param_feature_extractor_middleflow_block4_separable3_dw_bn_avg_var"
    type {
      tensor_type {
        elem_type: 1
        shape {
          dim {
            dim_value: 728
          }
        }
      }
    }
  }
  input {
    name: "param_feature_extractor_middleflow_block4_separable3_pw_bn_avg_mean"
    type {
      tensor_type {
        elem_type: 1
        shape {
          dim {
            dim_value: 728
          }
        }
      }
    }
  }
  input {
    name: "param_feature_extractor_middleflow_block4_separable3_pw_bn_avg_var"
    type {
      tensor_type {
        elem_type: 1
        shape {
          dim {
            dim_value: 728
          }
        }
      }
    }
  }
  input {
    name: "param_feature_extractor_middleflow_block5_separable1_dw_bn_avg_mean"
    type {
      tensor_type {
        elem_type: 1
        shape {
          dim {
            dim_value: 728
          }
        }
      }
    }
  }
  input {
    name: "param_feature_extractor_middleflow_block5_separable1_dw_bn_avg_var"
    type {
      tensor_type {
        elem_type: 1
        shape {
          dim {
            dim_value: 728
          }
        }
      }
    }
  }
  input {
    name: "param_feature_extractor_middleflow_block5_separable1_pw_bn_avg_mean"
    type {
      tensor_type {
        elem_type: 1
        shape {
          dim {
            dim_value: 728
          }
        }
      }
    }
  }
  input {
    name: "param_feature_extractor_middleflow_block5_separable1_pw_bn_avg_var"
    type {
      tensor_type {
        elem_type: 1
        shape {
          dim {
            dim_value: 728
          }
        }
      }
    }
  }
  input {
    name: "param_feature_extractor_middleflow_block5_separable2_dw_bn_avg_mean"
    type {
      tensor_type {
        elem_type: 1
        shape {
          dim {
            dim_value: 728
          }
        }
      }
    }
  }
  input {
    name: "param_feature_extractor_middleflow_block5_separable2_dw_bn_avg_var"
    type {
      tensor_type {
        elem_type: 1
        shape {
          dim {
            dim_value: 728
          }
        }
      }
    }
  }
  input {
    name: "param_feature_extractor_middleflow_block5_separable2_pw_bn_avg_mean"
    type {
      tensor_type {
        elem_type: 1
        shape {
          dim {
            dim_value: 728
          }
        }
      }
    }
  }
  input {
    name: "param_feature_extractor_middleflow_block5_separable2_pw_bn_avg_var"
    type {
      tensor_type {
        elem_type: 1
        shape {
          dim {
            dim_value: 728
          }
        }
      }
    }
  }
  input {
    name: "param_feature_extractor_middleflow_block5_separable3_dw_bn_avg_mean"
    type {
      tensor_type {
        elem_type: 1
        shape {
          dim {
            dim_value: 728
          }
        }
      }
    }
  }
  input {
    name: "param_feature_extractor_middleflow_block5_separable3_dw_bn_avg_var"
    type {
      tensor_type {
        elem_type: 1
        shape {
          dim {
            dim_value: 728
          }
        }
      }
    }
  }
  input {
    name: "param_feature_extractor_middleflow_block5_separable3_pw_bn_avg_mean"
    type {
      tensor_type {
        elem_type: 1
        shape {
          dim {
            dim_value: 728
          }
        }
      }
    }
  }
  input {
    name: "param_feature_extractor_middleflow_block5_separable3_pw_bn_avg_var"
    type {
      tensor_type {
        elem_type: 1
        shape {
          dim {
            dim_value: 728
          }
        }
      }
    }
  }
  input {
    name: "param_feature_extractor_middleflow_block6_separable1_dw_bn_avg_mean"
    type {
      tensor_type {
        elem_type: 1
        shape {
          dim {
            dim_value: 728
          }
        }
      }
    }
  }
  input {
    name: "param_feature_extractor_middleflow_block6_separable1_dw_bn_avg_var"
    type {
      tensor_type {
        elem_type: 1
        shape {
          dim {
            dim_value: 728
          }
        }
      }
    }
  }
  input {
    name: "param_feature_extractor_middleflow_block6_separable1_pw_bn_avg_mean"
    type {
      tensor_type {
        elem_type: 1
        shape {
          dim {
            dim_value: 728
          }
        }
      }
    }
  }
  input {
    name: "param_feature_extractor_middleflow_block6_separable1_pw_bn_avg_var"
    type {
      tensor_type {
        elem_type: 1
        shape {
          dim {
            dim_value: 728
          }
        }
      }
    }
  }
  input {
    name: "param_feature_extractor_middleflow_block6_separable2_dw_bn_avg_mean"
    type {
      tensor_type {
        elem_type: 1
        shape {
          dim {
            dim_value: 728
          }
        }
      }
    }
  }
  input {
    name: "param_feature_extractor_middleflow_block6_separable2_dw_bn_avg_var"
    type {
      tensor_type {
        elem_type: 1
        shape {
          dim {
            dim_value: 728
          }
        }
      }
    }
  }
  input {
    name: "param_feature_extractor_middleflow_block6_separable2_pw_bn_avg_mean"
    type {
      tensor_type {
        elem_type: 1
        shape {
          dim {
            dim_value: 728
          }
        }
      }
    }
  }
  input {
    name: "param_feature_extractor_middleflow_block6_separable2_pw_bn_avg_var"
    type {
      tensor_type {
        elem_type: 1
        shape {
          dim {
            dim_value: 728
          }
        }
      }
    }
  }
  input {
    name: "param_feature_extractor_middleflow_block6_separable3_dw_bn_avg_mean"
    type {
      tensor_type {
        elem_type: 1
        shape {
          dim {
            dim_value: 728
          }
        }
      }
    }
  }
  input {
    name: "param_feature_extractor_middleflow_block6_separable3_dw_bn_avg_var"
    type {
      tensor_type {
        elem_type: 1
        shape {
          dim {
            dim_value: 728
          }
        }
      }
    }
  }
  input {
    name: "param_feature_extractor_middleflow_block6_separable3_pw_bn_avg_mean"
    type {
      tensor_type {
        elem_type: 1
        shape {
          dim {
            dim_value: 728
          }
        }
      }
    }
  }
  input {
    name: "param_feature_extractor_middleflow_block6_separable3_pw_bn_avg_var"
    type {
      tensor_type {
        elem_type: 1
        shape {
          dim {
            dim_value: 728
          }
        }
      }
    }
  }
  input {
    name: "param_feature_extractor_middleflow_block7_separable1_dw_bn_avg_mean"
    type {
      tensor_type {
        elem_type: 1
        shape {
          dim {
            dim_value: 728
          }
        }
      }
    }
  }
  input {
    name: "param_feature_extractor_middleflow_block7_separable1_dw_bn_avg_var"
    type {
      tensor_type {
        elem_type: 1
        shape {
          dim {
            dim_value: 728
          }
        }
      }
    }
  }
  input {
    name: "param_feature_extractor_middleflow_block7_separable1_pw_bn_avg_mean"
    type {
      tensor_type {
        elem_type: 1
        shape {
          dim {
            dim_value: 728
          }
        }
      }
    }
  }
  input {
    name: "param_feature_extractor_middleflow_block7_separable1_pw_bn_avg_var"
    type {
      tensor_type {
        elem_type: 1
        shape {
          dim {
            dim_value: 728
          }
        }
      }
    }
  }
  input {
    name: "param_feature_extractor_middleflow_block7_separable2_dw_bn_avg_mean"
    type {
      tensor_type {
        elem_type: 1
        shape {
          dim {
            dim_value: 728
          }
        }
      }
    }
  }
  input {
    name: "param_feature_extractor_middleflow_block7_separable2_dw_bn_avg_var"
    type {
      tensor_type {
        elem_type: 1
        shape {
          dim {
            dim_value: 728
          }
        }
      }
    }
  }
  input {
    name: "param_feature_extractor_middleflow_block7_separable2_pw_bn_avg_mean"
    type {
      tensor_type {
        elem_type: 1
        shape {
          dim {
            dim_value: 728
          }
        }
      }
    }
  }
  input {
    name: "param_feature_extractor_middleflow_block7_separable2_pw_bn_avg_var"
    type {
      tensor_type {
        elem_type: 1
        shape {
          dim {
            dim_value: 728
          }
        }
      }
    }
  }
  input {
    name: "param_feature_extractor_middleflow_block7_separable3_dw_bn_avg_mean"
    type {
      tensor_type {
        elem_type: 1
        shape {
          dim {
            dim_value: 728
          }
        }
      }
    }
  }
  input {
    name: "param_feature_extractor_middleflow_block7_separable3_dw_bn_avg_var"
    type {
      tensor_type {
        elem_type: 1
        shape {
          dim {
            dim_value: 728
          }
        }
      }
    }
  }
  input {
    name: "param_feature_extractor_middleflow_block7_separable3_pw_bn_avg_mean"
    type {
      tensor_type {
        elem_type: 1
        shape {
          dim {
            dim_value: 728
          }
        }
      }
    }
  }
  input {
    name: "param_feature_extractor_middleflow_block7_separable3_pw_bn_avg_var"
    type {
      tensor_type {
        elem_type: 1
        shape {
          dim {
            dim_value: 728
          }
        }
      }
    }
  }
  input {
    name: "param_feature_extractor_middleflow_block8_separable1_dw_bn_avg_mean"
    type {
      tensor_type {
        elem_type: 1
        shape {
          dim {
            dim_value: 728
          }
        }
      }
    }
  }
  input {
    name: "param_feature_extractor_middleflow_block8_separable1_dw_bn_avg_var"
    type {
      tensor_type {
        elem_type: 1
        shape {
          dim {
            dim_value: 728
          }
        }
      }
    }
  }
  input {
    name: "param_feature_extractor_middleflow_block8_separable1_pw_bn_avg_mean"
    type {
      tensor_type {
        elem_type: 1
        shape {
          dim {
            dim_value: 728
          }
        }
      }
    }
  }
  input {
    name: "param_feature_extractor_middleflow_block8_separable1_pw_bn_avg_var"
    type {
      tensor_type {
        elem_type: 1
        shape {
          dim {
            dim_value: 728
          }
        }
      }
    }
  }
  input {
    name: "param_feature_extractor_middleflow_block8_separable2_dw_bn_avg_mean"
    type {
      tensor_type {
        elem_type: 1
        shape {
          dim {
            dim_value: 728
          }
        }
      }
    }
  }
  input {
    name: "param_feature_extractor_middleflow_block8_separable2_dw_bn_avg_var"
    type {
      tensor_type {
        elem_type: 1
        shape {
          dim {
            dim_value: 728
          }
        }
      }
    }
  }
  input {
    name: "param_feature_extractor_middleflow_block8_separable2_pw_bn_avg_mean"
    type {
      tensor_type {
        elem_type: 1
        shape {
          dim {
            dim_value: 728
          }
        }
      }
    }
  }
  input {
    name: "param_feature_extractor_middleflow_block8_separable2_pw_bn_avg_var"
    type {
      tensor_type {
        elem_type: 1
        shape {
          dim {
            dim_value: 728
          }
        }
      }
    }
  }
  input {
    name: "param_feature_extractor_middleflow_block8_separable3_dw_bn_avg_mean"
    type {
      tensor_type {
        elem_type: 1
        shape {
          dim {
            dim_value: 728
          }
        }
      }
    }
  }
  input {
    name: "param_feature_extractor_middleflow_block8_separable3_dw_bn_avg_var"
    type {
      tensor_type {
        elem_type: 1
        shape {
          dim {
            dim_value: 728
          }
        }
      }
    }
  }
  input {
    name: "param_feature_extractor_middleflow_block8_separable3_pw_bn_avg_mean"
    type {
      tensor_type {
        elem_type: 1
        shape {
          dim {
            dim_value: 728
          }
        }
      }
    }
  }
  input {
    name: "param_feature_extractor_middleflow_block8_separable3_pw_bn_avg_var"
    type {
      tensor_type {
        elem_type: 1
        shape {
          dim {
            dim_value: 728
          }
        }
      }
    }
  }
  input {
    name: "param_feature_extractor_middleflow_block9_separable1_dw_bn_avg_mean"
    type {
      tensor_type {
        elem_type: 1
        shape {
          dim {
            dim_value: 728
          }
        }
      }
    }
  }
  input {
    name: "param_feature_extractor_middleflow_block9_separable1_dw_bn_avg_var"
    type {
      tensor_type {
        elem_type: 1
        shape {
          dim {
            dim_value: 728
          }
        }
      }
    }
  }
  input {
    name: "param_feature_extractor_middleflow_block9_separable1_pw_bn_avg_mean"
    type {
      tensor_type {
        elem_type: 1
        shape {
          dim {
            dim_value: 728
          }
        }
      }
    }
  }
  input {
    name: "param_feature_extractor_middleflow_block9_separable1_pw_bn_avg_var"
    type {
      tensor_type {
        elem_type: 1
        shape {
          dim {
            dim_value: 728
          }
        }
      }
    }
  }
  input {
    name: "param_feature_extractor_middleflow_block9_separable2_dw_bn_avg_mean"
    type {
      tensor_type {
        elem_type: 1
        shape {
          dim {
            dim_value: 728
          }
        }
      }
    }
  }
  input {
    name: "param_feature_extractor_middleflow_block9_separable2_dw_bn_avg_var"
    type {
      tensor_type {
        elem_type: 1
        shape {
          dim {
            dim_value: 728
          }
        }
      }
    }
  }
  input {
    name: "param_feature_extractor_middleflow_block9_separable2_pw_bn_avg_mean"
    type {
      tensor_type {
        elem_type: 1
        shape {
          dim {
            dim_value: 728
          }
        }
      }
    }
  }
  input {
    name: "param_feature_extractor_middleflow_block9_separable2_pw_bn_avg_var"
    type {
      tensor_type {
        elem_type: 1
        shape {
          dim {
            dim_value: 728
          }
        }
      }
    }
  }
  input {
    name: "param_feature_extractor_middleflow_block9_separable3_dw_bn_avg_mean"
    type {
      tensor_type {
        elem_type: 1
        shape {
          dim {
            dim_value: 728
          }
        }
      }
    }
  }
  input {
    name: "param_feature_extractor_middleflow_block9_separable3_dw_bn_avg_var"
    type {
      tensor_type {
        elem_type: 1
        shape {
          dim {
            dim_value: 728
          }
        }
      }
    }
  }
  input {
    name: "param_feature_extractor_middleflow_block9_separable3_pw_bn_avg_mean"
    type {
      tensor_type {
        elem_type: 1
        shape {
          dim {
            dim_value: 728
          }
        }
      }
    }
  }
  input {
    name: "param_feature_extractor_middleflow_block9_separable3_pw_bn_avg_var"
    type {
      tensor_type {
        elem_type: 1
        shape {
          dim {
            dim_value: 728
          }
        }
      }
    }
  }
  input {
    name: "param_feature_extractor_middleflow_block10_separable1_dw_bn_avg_mean"
    type {
      tensor_type {
        elem_type: 1
        shape {
          dim {
            dim_value: 728
          }
        }
      }
    }
  }
  input {
    name: "param_feature_extractor_middleflow_block10_separable1_dw_bn_avg_var"
    type {
      tensor_type {
        elem_type: 1
        shape {
          dim {
            dim_value: 728
          }
        }
      }
    }
  }
  input {
    name: "param_feature_extractor_middleflow_block10_separable1_pw_bn_avg_mean"
    type {
      tensor_type {
        elem_type: 1
        shape {
          dim {
            dim_value: 728
          }
        }
      }
    }
  }
  input {
    name: "param_feature_extractor_middleflow_block10_separable1_pw_bn_avg_var"
    type {
      tensor_type {
        elem_type: 1
        shape {
          dim {
            dim_value: 728
          }
        }
      }
    }
  }
  input {
    name: "param_feature_extractor_middleflow_block10_separable2_dw_bn_avg_mean"
    type {
      tensor_type {
        elem_type: 1
        shape {
          dim {
            dim_value: 728
          }
        }
      }
    }
  }
  input {
    name: "param_feature_extractor_middleflow_block10_separable2_dw_bn_avg_var"
    type {
      tensor_type {
        elem_type: 1
        shape {
          dim {
            dim_value: 728
          }
        }
      }
    }
  }
  input {
    name: "param_feature_extractor_middleflow_block10_separable2_pw_bn_avg_mean"
    type {
      tensor_type {
        elem_type: 1
        shape {
          dim {
            dim_value: 728
          }
        }
      }
    }
  }
  input {
    name: "param_feature_extractor_middleflow_block10_separable2_pw_bn_avg_var"
    type {
      tensor_type {
        elem_type: 1
        shape {
          dim {
            dim_value: 728
          }
        }
      }
    }
  }
  input {
    name: "param_feature_extractor_middleflow_block10_separable3_dw_bn_avg_mean"
    type {
      tensor_type {
        elem_type: 1
        shape {
          dim {
            dim_value: 728
          }
        }
      }
    }
  }
  input {
    name: "param_feature_extractor_middleflow_block10_separable3_dw_bn_avg_var"
    type {
      tensor_type {
        elem_type: 1
        shape {
          dim {
            dim_value: 728
          }
        }
      }
    }
  }
  input {
    name: "param_feature_extractor_middleflow_block10_separable3_pw_bn_avg_mean"
    type {
      tensor_type {
        elem_type: 1
        shape {
          dim {
            dim_value: 728
          }
        }
      }
    }
  }
  input {
    name: "param_feature_extractor_middleflow_block10_separable3_pw_bn_avg_var"
    type {
      tensor_type {
        elem_type: 1
        shape {
          dim {
            dim_value: 728
          }
        }
      }
    }
  }
  input {
    name: "param_feature_extractor_middleflow_block11_separable1_dw_bn_avg_mean"
    type {
      tensor_type {
        elem_type: 1
        shape {
          dim {
            dim_value: 728
          }
        }
      }
    }
  }
  input {
    name: "param_feature_extractor_middleflow_block11_separable1_dw_bn_avg_var"
    type {
      tensor_type {
        elem_type: 1
        shape {
          dim {
            dim_value: 728
          }
        }
      }
    }
  }
  input {
    name: "param_feature_extractor_middleflow_block11_separable1_pw_bn_avg_mean"
    type {
      tensor_type {
        elem_type: 1
        shape {
          dim {
            dim_value: 728
          }
        }
      }
    }
  }
  input {
    name: "param_feature_extractor_middleflow_block11_separable1_pw_bn_avg_var"
    type {
      tensor_type {
        elem_type: 1
        shape {
          dim {
            dim_value: 728
          }
        }
      }
    }
  }
  input {
    name: "param_feature_extractor_middleflow_block11_separable2_dw_bn_avg_mean"
    type {
      tensor_type {
        elem_type: 1
        shape {
          dim {
            dim_value: 728
          }
        }
      }
    }
  }
  input {
    name: "param_feature_extractor_middleflow_block11_separable2_dw_bn_avg_var"
    type {
      tensor_type {
        elem_type: 1
        shape {
          dim {
            dim_value: 728
          }
        }
      }
    }
  }
  input {
    name: "param_feature_extractor_middleflow_block11_separable2_pw_bn_avg_mean"
    type {
      tensor_type {
        elem_type: 1
        shape {
          dim {
            dim_value: 728
          }
        }
      }
    }
  }
  input {
    name: "param_feature_extractor_middleflow_block11_separable2_pw_bn_avg_var"
    type {
      tensor_type {
        elem_type: 1
        shape {
          dim {
            dim_value: 728
          }
        }
      }
    }
  }
  input {
    name: "param_feature_extractor_middleflow_block11_separable3_dw_bn_avg_mean"
    type {
      tensor_type {
        elem_type: 1
        shape {
          dim {
            dim_value: 728
          }
        }
      }
    }
  }
  input {
    name: "param_feature_extractor_middleflow_block11_separable3_dw_bn_avg_var"
    type {
      tensor_type {
        elem_type: 1
        shape {
          dim {
            dim_value: 728
          }
        }
      }
    }
  }
  input {
    name: "param_feature_extractor_middleflow_block11_separable3_pw_bn_avg_mean"
    type {
      tensor_type {
        elem_type: 1
        shape {
          dim {
            dim_value: 728
          }
        }
      }
    }
  }
  input {
    name: "param_feature_extractor_middleflow_block11_separable3_pw_bn_avg_var"
    type {
      tensor_type {
        elem_type: 1
        shape {
          dim {
            dim_value: 728
          }
        }
      }
    }
  }
  input {
    name: "param_feature_extractor_middleflow_block12_separable1_dw_bn_avg_mean"
    type {
      tensor_type {
        elem_type: 1
        shape {
          dim {
            dim_value: 728
          }
        }
      }
    }
  }
  input {
    name: "param_feature_extractor_middleflow_block12_separable1_dw_bn_avg_var"
    type {
      tensor_type {
        elem_type: 1
        shape {
          dim {
            dim_value: 728
          }
        }
      }
    }
  }
  input {
    name: "param_feature_extractor_middleflow_block12_separable1_pw_bn_avg_mean"
    type {
      tensor_type {
        elem_type: 1
        shape {
          dim {
            dim_value: 728
          }
        }
      }
    }
  }
  input {
    name: "param_feature_extractor_middleflow_block12_separable1_pw_bn_avg_var"
    type {
      tensor_type {
        elem_type: 1
        shape {
          dim {
            dim_value: 728
          }
        }
      }
    }
  }
  input {
    name: "param_feature_extractor_middleflow_block12_separable2_dw_bn_avg_mean"
    type {
      tensor_type {
        elem_type: 1
        shape {
          dim {
            dim_value: 728
          }
        }
      }
    }
  }
  input {
    name: "param_feature_extractor_middleflow_block12_separable2_dw_bn_avg_var"
    type {
      tensor_type {
        elem_type: 1
        shape {
          dim {
            dim_value: 728
          }
        }
      }
    }
  }
  input {
    name: "param_feature_extractor_middleflow_block12_separable2_pw_bn_avg_mean"
    type {
      tensor_type {
        elem_type: 1
        shape {
          dim {
            dim_value: 728
          }
        }
      }
    }
  }
  input {
    name: "param_feature_extractor_middleflow_block12_separable2_pw_bn_avg_var"
    type {
      tensor_type {
        elem_type: 1
        shape {
          dim {
            dim_value: 728
          }
        }
      }
    }
  }
  input {
    name: "param_feature_extractor_middleflow_block12_separable3_dw_bn_avg_mean"
    type {
      tensor_type {
        elem_type: 1
        shape {
          dim {
            dim_value: 728
          }
        }
      }
    }
  }
  input {
    name: "param_feature_extractor_middleflow_block12_separable3_dw_bn_avg_var"
    type {
      tensor_type {
        elem_type: 1
        shape {
          dim {
            dim_value: 728
          }
        }
      }
    }
  }
  input {
    name: "param_feature_extractor_middleflow_block12_separable3_pw_bn_avg_mean"
    type {
      tensor_type {
        elem_type: 1
        shape {
          dim {
            dim_value: 728
          }
        }
      }
    }
  }
  input {
    name: "param_feature_extractor_middleflow_block12_separable3_pw_bn_avg_var"
    type {
      tensor_type {
        elem_type: 1
        shape {
          dim {
            dim_value: 728
          }
        }
      }
    }
  }
  input {
    name: "param_feature_extractor_middleflow_block13_separable1_dw_bn_avg_mean"
    type {
      tensor_type {
        elem_type: 1
        shape {
          dim {
            dim_value: 728
          }
        }
      }
    }
  }
  input {
    name: "param_feature_extractor_middleflow_block13_separable1_dw_bn_avg_var"
    type {
      tensor_type {
        elem_type: 1
        shape {
          dim {
            dim_value: 728
          }
        }
      }
    }
  }
  input {
    name: "param_feature_extractor_middleflow_block13_separable1_pw_bn_avg_mean"
    type {
      tensor_type {
        elem_type: 1
        shape {
          dim {
            dim_value: 728
          }
        }
      }
    }
  }
  input {
    name: "param_feature_extractor_middleflow_block13_separable1_pw_bn_avg_var"
    type {
      tensor_type {
        elem_type: 1
        shape {
          dim {
            dim_value: 728
          }
        }
      }
    }
  }
  input {
    name: "param_feature_extractor_middleflow_block13_separable2_dw_bn_avg_mean"
    type {
      tensor_type {
        elem_type: 1
        shape {
          dim {
            dim_value: 728
          }
        }
      }
    }
  }
  input {
    name: "param_feature_extractor_middleflow_block13_separable2_dw_bn_avg_var"
    type {
      tensor_type {
        elem_type: 1
        shape {
          dim {
            dim_value: 728
          }
        }
      }
    }
  }
  input {
    name: "param_feature_extractor_middleflow_block13_separable2_pw_bn_avg_mean"
    type {
      tensor_type {
        elem_type: 1
        shape {
          dim {
            dim_value: 728
          }
        }
      }
    }
  }
  input {
    name: "param_feature_extractor_middleflow_block13_separable2_pw_bn_avg_var"
    type {
      tensor_type {
        elem_type: 1
        shape {
          dim {
            dim_value: 728
          }
        }
      }
    }
  }
  input {
    name: "param_feature_extractor_middleflow_block13_separable3_dw_bn_avg_mean"
    type {
      tensor_type {
        elem_type: 1
        shape {
          dim {
            dim_value: 728
          }
        }
      }
    }
  }
  input {
    name: "param_feature_extractor_middleflow_block13_separable3_dw_bn_avg_var"
    type {
      tensor_type {
        elem_type: 1
        shape {
          dim {
            dim_value: 728
          }
        }
      }
    }
  }
  input {
    name: "param_feature_extractor_middleflow_block13_separable3_pw_bn_avg_mean"
    type {
      tensor_type {
        elem_type: 1
        shape {
          dim {
            dim_value: 728
          }
        }
      }
    }
  }
  input {
    name: "param_feature_extractor_middleflow_block13_separable3_pw_bn_avg_var"
    type {
      tensor_type {
        elem_type: 1
        shape {
          dim {
            dim_value: 728
          }
        }
      }
    }
  }
  input {
    name: "param_feature_extractor_middleflow_block14_separable1_dw_bn_avg_mean"
    type {
      tensor_type {
        elem_type: 1
        shape {
          dim {
            dim_value: 728
          }
        }
      }
    }
  }
  input {
    name: "param_feature_extractor_middleflow_block14_separable1_dw_bn_avg_var"
    type {
      tensor_type {
        elem_type: 1
        shape {
          dim {
            dim_value: 728
          }
        }
      }
    }
  }
  input {
    name: "param_feature_extractor_middleflow_block14_separable1_pw_bn_avg_mean"
    type {
      tensor_type {
        elem_type: 1
        shape {
          dim {
            dim_value: 728
          }
        }
      }
    }
  }
  input {
    name: "param_feature_extractor_middleflow_block14_separable1_pw_bn_avg_var"
    type {
      tensor_type {
        elem_type: 1
        shape {
          dim {
            dim_value: 728
          }
        }
      }
    }
  }
  input {
    name: "param_feature_extractor_middleflow_block14_separable2_dw_bn_avg_mean"
    type {
      tensor_type {
        elem_type: 1
        shape {
          dim {
            dim_value: 728
          }
        }
      }
    }
  }
  input {
    name: "param_feature_extractor_middleflow_block14_separable2_dw_bn_avg_var"
    type {
      tensor_type {
        elem_type: 1
        shape {
          dim {
            dim_value: 728
          }
        }
      }
    }
  }
  input {
    name: "param_feature_extractor_middleflow_block14_separable2_pw_bn_avg_mean"
    type {
      tensor_type {
        elem_type: 1
        shape {
          dim {
            dim_value: 728
          }
        }
      }
    }
  }
  input {
    name: "param_feature_extractor_middleflow_block14_separable2_pw_bn_avg_var"
    type {
      tensor_type {
        elem_type: 1
        shape {
          dim {
            dim_value: 728
          }
        }
      }
    }
  }
  input {
    name: "param_feature_extractor_middleflow_block14_separable3_dw_bn_avg_mean"
    type {
      tensor_type {
        elem_type: 1
        shape {
          dim {
            dim_value: 728
          }
        }
      }
    }
  }
  input {
    name: "param_feature_extractor_middleflow_block14_separable3_dw_bn_avg_var"
    type {
      tensor_type {
        elem_type: 1
        shape {
          dim {
            dim_value: 728
          }
        }
      }
    }
  }
  input {
    name: "param_feature_extractor_middleflow_block14_separable3_pw_bn_avg_mean"
    type {
      tensor_type {
        elem_type: 1
        shape {
          dim {
            dim_value: 728
          }
        }
      }
    }
  }
  input {
    name: "param_feature_extractor_middleflow_block14_separable3_pw_bn_avg_var"
    type {
      tensor_type {
        elem_type: 1
        shape {
          dim {
            dim_value: 728
          }
        }
      }
    }
  }
  input {
    name: "param_feature_extractor_middleflow_block15_separable1_dw_bn_avg_mean"
    type {
      tensor_type {
        elem_type: 1
        shape {
          dim {
            dim_value: 728
          }
        }
      }
    }
  }
  input {
    name: "param_feature_extractor_middleflow_block15_separable1_dw_bn_avg_var"
    type {
      tensor_type {
        elem_type: 1
        shape {
          dim {
            dim_value: 728
          }
        }
      }
    }
  }
  input {
    name: "param_feature_extractor_middleflow_block15_separable1_pw_bn_avg_mean"
    type {
      tensor_type {
        elem_type: 1
        shape {
          dim {
            dim_value: 728
          }
        }
      }
    }
  }
  input {
    name: "param_feature_extractor_middleflow_block15_separable1_pw_bn_avg_var"
    type {
      tensor_type {
        elem_type: 1
        shape {
          dim {
            dim_value: 728
          }
        }
      }
    }
  }
  input {
    name: "param_feature_extractor_middleflow_block15_separable2_dw_bn_avg_mean"
    type {
      tensor_type {
        elem_type: 1
        shape {
          dim {
            dim_value: 728
          }
        }
      }
    }
  }
  input {
    name: "param_feature_extractor_middleflow_block15_separable2_dw_bn_avg_var"
    type {
      tensor_type {
        elem_type: 1
        shape {
          dim {
            dim_value: 728
          }
        }
      }
    }
  }
  input {
    name: "param_feature_extractor_middleflow_block15_separable2_pw_bn_avg_mean"
    type {
      tensor_type {
        elem_type: 1
        shape {
          dim {
            dim_value: 728
          }
        }
      }
    }
  }
  input {
    name: "param_feature_extractor_middleflow_block15_separable2_pw_bn_avg_var"
    type {
      tensor_type {
        elem_type: 1
        shape {
          dim {
            dim_value: 728
          }
        }
      }
    }
  }
  input {
    name: "param_feature_extractor_middleflow_block15_separable3_dw_bn_avg_mean"
    type {
      tensor_type {
        elem_type: 1
        shape {
          dim {
            dim_value: 728
          }
        }
      }
    }
  }
  input {
    name: "param_feature_extractor_middleflow_block15_separable3_dw_bn_avg_var"
    type {
      tensor_type {
        elem_type: 1
        shape {
          dim {
            dim_value: 728
          }
        }
      }
    }
  }
  input {
    name: "param_feature_extractor_middleflow_block15_separable3_pw_bn_avg_mean"
    type {
      tensor_type {
        elem_type: 1
        shape {
          dim {
            dim_value: 728
          }
        }
      }
    }
  }
  input {
    name: "param_feature_extractor_middleflow_block15_separable3_pw_bn_avg_var"
    type {
      tensor_type {
        elem_type: 1
        shape {
          dim {
            dim_value: 728
          }
        }
      }
    }
  }
  input {
    name: "param_feature_extractor_middleflow_block16_separable1_dw_bn_avg_mean"
    type {
      tensor_type {
        elem_type: 1
        shape {
          dim {
            dim_value: 728
          }
        }
      }
    }
  }
  input {
    name: "param_feature_extractor_middleflow_block16_separable1_dw_bn_avg_var"
    type {
      tensor_type {
        elem_type: 1
        shape {
          dim {
            dim_value: 728
          }
        }
      }
    }
  }
  input {
    name: "param_feature_extractor_middleflow_block16_separable1_pw_bn_avg_mean"
    type {
      tensor_type {
        elem_type: 1
        shape {
          dim {
            dim_value: 728
          }
        }
      }
    }
  }
  input {
    name: "param_feature_extractor_middleflow_block16_separable1_pw_bn_avg_var"
    type {
      tensor_type {
        elem_type: 1
        shape {
          dim {
            dim_value: 728
          }
        }
      }
    }
  }
  input {
    name: "param_feature_extractor_middleflow_block16_separable2_dw_bn_avg_mean"
    type {
      tensor_type {
        elem_type: 1
        shape {
          dim {
            dim_value: 728
          }
        }
      }
    }
  }
  input {
    name: "param_feature_extractor_middleflow_block16_separable2_dw_bn_avg_var"
    type {
      tensor_type {
        elem_type: 1
        shape {
          dim {
            dim_value: 728
          }
        }
      }
    }
  }
  input {
    name: "param_feature_extractor_middleflow_block16_separable2_pw_bn_avg_mean"
    type {
      tensor_type {
        elem_type: 1
        shape {
          dim {
            dim_value: 728
          }
        }
      }
    }
  }
  input {
    name: "param_feature_extractor_middleflow_block16_separable2_pw_bn_avg_var"
    type {
      tensor_type {
        elem_type: 1
        shape {
          dim {
            dim_value: 728
          }
        }
      }
    }
  }
  input {
    name: "param_feature_extractor_middleflow_block16_separable3_dw_bn_avg_mean"
    type {
      tensor_type {
        elem_type: 1
        shape {
          dim {
            dim_value: 728
          }
        }
      }
    }
  }
  input {
    name: "param_feature_extractor_middleflow_block16_separable3_dw_bn_avg_var"
    type {
      tensor_type {
        elem_type: 1
        shape {
          dim {
            dim_value: 728
          }
        }
      }
    }
  }
  input {
    name: "param_feature_extractor_middleflow_block16_separable3_pw_bn_avg_mean"
    type {
      tensor_type {
        elem_type: 1
        shape {
          dim {
            dim_value: 728
          }
        }
      }
    }
  }
  input {
    name: "param_feature_extractor_middleflow_block16_separable3_pw_bn_avg_var"
    type {
      tensor_type {
        elem_type: 1
        shape {
          dim {
            dim_value: 728
          }
        }
      }
    }
  }
  input {
    name: "param_feature_extractor_exitflow_block1_conv_bn_avg_mean"
    type {
      tensor_type {
        elem_type: 1
        shape {
          dim {
            dim_value: 1024
          }
        }
      }
    }
  }
  input {
    name: "param_feature_extractor_exitflow_block1_conv_bn_avg_var"
    type {
      tensor_type {
        elem_type: 1
        shape {
          dim {
            dim_value: 1024
          }
        }
      }
    }
  }
  input {
    name: "param_feature_extractor_exitflow_block1_separable1_dw_bn_avg_mean"
    type {
      tensor_type {
        elem_type: 1
        shape {
          dim {
            dim_value: 728
          }
        }
      }
    }
  }
  input {
    name: "param_feature_extractor_exitflow_block1_separable1_dw_bn_avg_var"
    type {
      tensor_type {
        elem_type: 1
        shape {
          dim {
            dim_value: 728
          }
        }
      }
    }
  }
  input {
    name: "param_feature_extractor_exitflow_block1_separable1_pw_bn_avg_mean"
    type {
      tensor_type {
        elem_type: 1
        shape {
          dim {
            dim_value: 728
          }
        }
      }
    }
  }
  input {
    name: "param_feature_extractor_exitflow_block1_separable1_pw_bn_avg_var"
    type {
      tensor_type {
        elem_type: 1
        shape {
          dim {
            dim_value: 728
          }
        }
      }
    }
  }
  input {
    name: "param_feature_extractor_exitflow_block1_separable2_dw_bn_avg_mean"
    type {
      tensor_type {
        elem_type: 1
        shape {
          dim {
            dim_value: 728
          }
        }
      }
    }
  }
  input {
    name: "param_feature_extractor_exitflow_block1_separable2_dw_bn_avg_var"
    type {
      tensor_type {
        elem_type: 1
        shape {
          dim {
            dim_value: 728
          }
        }
      }
    }
  }
  input {
    name: "param_feature_extractor_exitflow_block1_separable2_pw_bn_avg_mean"
    type {
      tensor_type {
        elem_type: 1
        shape {
          dim {
            dim_value: 1024
          }
        }
      }
    }
  }
  input {
    name: "param_feature_extractor_exitflow_block1_separable2_pw_bn_avg_var"
    type {
      tensor_type {
        elem_type: 1
        shape {
          dim {
            dim_value: 1024
          }
        }
      }
    }
  }
  input {
    name: "param_feature_extractor_exitflow_block1_separable3_dw_bn_avg_mean"
    type {
      tensor_type {
        elem_type: 1
        shape {
          dim {
            dim_value: 1024
          }
        }
      }
    }
  }
  input {
    name: "param_feature_extractor_exitflow_block1_separable3_dw_bn_avg_var"
    type {
      tensor_type {
        elem_type: 1
        shape {
          dim {
            dim_value: 1024
          }
        }
      }
    }
  }
  input {
    name: "param_feature_extractor_exitflow_block1_separable3_pw_bn_avg_mean"
    type {
      tensor_type {
        elem_type: 1
        shape {
          dim {
            dim_value: 1024
          }
        }
      }
    }
  }
  input {
    name: "param_feature_extractor_exitflow_block1_separable3_pw_bn_avg_var"
    type {
      tensor_type {
        elem_type: 1
        shape {
          dim {
            dim_value: 1024
          }
        }
      }
    }
  }
  input {
    name: "param_feature_extractor_exitflow_block2_separable1_dw_bn_avg_mean"
    type {
      tensor_type {
        elem_type: 1
        shape {
          dim {
            dim_value: 1024
          }
        }
      }
    }
  }
  input {
    name: "param_feature_extractor_exitflow_block2_separable1_dw_bn_avg_var"
    type {
      tensor_type {
        elem_type: 1
        shape {
          dim {
            dim_value: 1024
          }
        }
      }
    }
  }
  input {
    name: "param_feature_extractor_exitflow_block2_separable1_pw_bn_avg_mean"
    type {
      tensor_type {
        elem_type: 1
        shape {
          dim {
            dim_value: 1536
          }
        }
      }
    }
  }
  input {
    name: "param_feature_extractor_exitflow_block2_separable1_pw_bn_avg_var"
    type {
      tensor_type {
        elem_type: 1
        shape {
          dim {
            dim_value: 1536
          }
        }
      }
    }
  }
  input {
    name: "param_feature_extractor_exitflow_block2_separable2_dw_bn_avg_mean"
    type {
      tensor_type {
        elem_type: 1
        shape {
          dim {
            dim_value: 1536
          }
        }
      }
    }
  }
  input {
    name: "param_feature_extractor_exitflow_block2_separable2_dw_bn_avg_var"
    type {
      tensor_type {
        elem_type: 1
        shape {
          dim {
            dim_value: 1536
          }
        }
      }
    }
  }
  input {
    name: "param_feature_extractor_exitflow_block2_separable2_pw_bn_avg_mean"
    type {
      tensor_type {
        elem_type: 1
        shape {
          dim {
            dim_value: 1536
          }
        }
      }
    }
  }
  input {
    name: "param_feature_extractor_exitflow_block2_separable2_pw_bn_avg_var"
    type {
      tensor_type {
        elem_type: 1
        shape {
          dim {
            dim_value: 1536
          }
        }
      }
    }
  }
  input {
    name: "param_feature_extractor_exitflow_block2_separable3_dw_bn_avg_mean"
    type {
      tensor_type {
        elem_type: 1
        shape {
          dim {
            dim_value: 1536
          }
        }
      }
    }
  }
  input {
    name: "param_feature_extractor_exitflow_block2_separable3_dw_bn_avg_var"
    type {
      tensor_type {
        elem_type: 1
        shape {
          dim {
            dim_value: 1536
          }
        }
      }
    }
  }
  input {
    name: "param_feature_extractor_exitflow_block2_separable3_pw_bn_avg_mean"
    type {
      tensor_type {
        elem_type: 1
        shape {
          dim {
            dim_value: 2048
          }
        }
      }
    }
  }
  input {
    name: "param_feature_extractor_exitflow_block2_separable3_pw_bn_avg_var"
    type {
      tensor_type {
        elem_type: 1
        shape {
          dim {
            dim_value: 2048
          }
        }
      }
    }
  }
  input {
    name: "param_aspp_atrous3_dw_bn_avg_mean"
    type {
      tensor_type {
        elem_type: 1
        shape {
          dim {
            dim_value: 2048
          }
        }
      }
    }
  }
  input {
    name: "param_aspp_atrous3_dw_bn_avg_var"
    type {
      tensor_type {
        elem_type: 1
        shape {
          dim {
            dim_value: 2048
          }
        }
      }
    }
  }
  input {
    name: "param_aspp_atrous2_dw_bn_avg_mean"
    type {
      tensor_type {
        elem_type: 1
        shape {
          dim {
            dim_value: 2048
          }
        }
      }
    }
  }
  input {
    name: "param_aspp_atrous2_dw_bn_avg_var"
    type {
      tensor_type {
        elem_type: 1
        shape {
          dim {
            dim_value: 2048
          }
        }
      }
    }
  }
  input {
    name: "param_aspp_atrous1_dw_bn_avg_mean"
    type {
      tensor_type {
        elem_type: 1
        shape {
          dim {
            dim_value: 2048
          }
        }
      }
    }
  }
  input {
    name: "param_aspp_atrous1_dw_bn_avg_var"
    type {
      tensor_type {
        elem_type: 1
        shape {
          dim {
            dim_value: 2048
          }
        }
      }
    }
  }
  input {
    name: "param_aspp_conv1x1_bn_avg_mean"
    type {
      tensor_type {
        elem_type: 1
        shape {
          dim {
            dim_value: 256
          }
        }
      }
    }
  }
  input {
    name: "param_aspp_conv1x1_bn_avg_var"
    type {
      tensor_type {
        elem_type: 1
        shape {
          dim {
            dim_value: 256
          }
        }
      }
    }
  }
  input {
    name: "param_aspp_image_pooling_conv_bn_avg_mean"
    type {
      tensor_type {
        elem_type: 1
        shape {
          dim {
            dim_value: 256
          }
        }
      }
    }
  }
  input {
    name: "param_aspp_image_pooling_conv_bn_avg_var"
    type {
      tensor_type {
        elem_type: 1
        shape {
          dim {
            dim_value: 256
          }
        }
      }
    }
  }
  input {
    name: "param_aspp_atrous3_pw_bn_avg_mean"
    type {
      tensor_type {
        elem_type: 1
        shape {
          dim {
            dim_value: 256
          }
        }
      }
    }
  }
  input {
    name: "param_aspp_atrous3_pw_bn_avg_var"
    type {
      tensor_type {
        elem_type: 1
        shape {
          dim {
            dim_value: 256
          }
        }
      }
    }
  }
  input {
    name: "param_aspp_atrous2_pw_bn_avg_mean"
    type {
      tensor_type {
        elem_type: 1
        shape {
          dim {
            dim_value: 256
          }
        }
      }
    }
  }
  input {
    name: "param_aspp_atrous2_pw_bn_avg_var"
    type {
      tensor_type {
        elem_type: 1
        shape {
          dim {
            dim_value: 256
          }
        }
      }
    }
  }
  input {
    name: "param_aspp_atrous1_pw_bn_avg_mean"
    type {
      tensor_type {
        elem_type: 1
        shape {
          dim {
            dim_value: 256
          }
        }
      }
    }
  }
  input {
    name: "param_aspp_atrous1_pw_bn_avg_var"
    type {
      tensor_type {
        elem_type: 1
        shape {
          dim {
            dim_value: 256
          }
        }
      }
    }
  }
  input {
    name: "param_aspp_proj_bn_avg_mean"
    type {
      tensor_type {
        elem_type: 1
        shape {
          dim {
            dim_value: 256
          }
        }
      }
    }
  }
  input {
    name: "param_aspp_proj_bn_avg_var"
    type {
      tensor_type {
        elem_type: 1
        shape {
          dim {
            dim_value: 256
          }
        }
      }
    }
  }
  input {
    name: "param_decoder_conv1_dw_bn_avg_mean"
    type {
      tensor_type {
        elem_type: 1
        shape {
          dim {
            dim_value: 304
          }
        }
      }
    }
  }
  input {
    name: "param_decoder_conv1_dw_bn_avg_var"
    type {
      tensor_type {
        elem_type: 1
        shape {
          dim {
            dim_value: 304
          }
        }
      }
    }
  }
  input {
    name: "param_decoder_conv1_pw_bn_avg_mean"
    type {
      tensor_type {
        elem_type: 1
        shape {
          dim {
            dim_value: 256
          }
        }
      }
    }
  }
  input {
    name: "param_decoder_conv1_pw_bn_avg_var"
    type {
      tensor_type {
        elem_type: 1
        shape {
          dim {
            dim_value: 256
          }
        }
      }
    }
  }
  input {
    name: "param_decoder_conv2_dw_bn_avg_mean"
    type {
      tensor_type {
        elem_type: 1
        shape {
          dim {
            dim_value: 256
          }
        }
      }
    }
  }
  input {
    name: "param_decoder_conv2_dw_bn_avg_var"
    type {
      tensor_type {
        elem_type: 1
        shape {
          dim {
            dim_value: 256
          }
        }
      }
    }
  }
  input {
    name: "param_decoder_conv2_pw_bn_avg_mean"
    type {
      tensor_type {
        elem_type: 1
        shape {
          dim {
            dim_value: 256
          }
        }
      }
    }
  }
  input {
    name: "param_decoder_conv2_pw_bn_avg_var"
    type {
      tensor_type {
        elem_type: 1
        shape {
          dim {
            dim_value: 256
          }
        }
      }
    }
  }
  output {
    name: "Convolution2DFunction_146"
    type {
      tensor_type {
        elem_type: 1
        shape {
          dim {
            dim_value: 1
          }
          dim {
            dim_value: 21
          }
          dim {
            dim_value: 56
          }
          dim {
            dim_value: 56
          }
        }
      }
    }
  }
}
opset_import {
  version: 10
}
