ir_version: 5
producer_name: "tf2onnx"
producer_version: "1.5.3"
model_version: 0
graph {
  name: "tf2onnx"
  node {
    input: "import/radius/fc3/BatchNorm/Shape:0"
    output: "import/radius/fc3/BatchNorm/Reshape_1__643:0"
    name: "import/radius/fc3/BatchNorm/Reshape_1__643"
    op_type: "Cast"
    attribute {
      name: "to"
      i: 7
      type: INT
    }
  }
  node {
    input: "import/radius/fc3/BatchNorm/Reshape/shape:0"
    output: "import/radius/fc3/BatchNorm/Reshape__640:0"
    name: "import/radius/fc3/BatchNorm/Reshape__640"
    op_type: "Cast"
    attribute {
      name: "to"
      i: 7
      type: INT
    }
  }
  node {
    input: "import/radius/fc2/BatchNorm/Shape:0"
    output: "import/radius/fc2/BatchNorm/Reshape_1__639:0"
    name: "import/radius/fc2/BatchNorm/Reshape_1__639"
    op_type: "Cast"
    attribute {
      name: "to"
      i: 7
      type: INT
    }
  }
  node {
    input: "import/radius/fc2/BatchNorm/Reshape/shape:0"
    output: "import/radius/fc2/BatchNorm/Reshape__636:0"
    name: "import/radius/fc2/BatchNorm/Reshape__636"
    op_type: "Cast"
    attribute {
      name: "to"
      i: 7
      type: INT
    }
  }
  node {
    input: "import/radius/fc1/BatchNorm/Shape:0"
    output: "import/radius/fc1/BatchNorm/Reshape_1__635:0"
    name: "import/radius/fc1/BatchNorm/Reshape_1__635"
    op_type: "Cast"
    attribute {
      name: "to"
      i: 7
      type: INT
    }
  }
  node {
    input: "import/radius/fc1/BatchNorm/Reshape/shape:0"
    output: "import/radius/fc1/BatchNorm/Reshape__632:0"
    name: "import/radius/fc1/BatchNorm/Reshape__632"
    op_type: "Cast"
    attribute {
      name: "to"
      i: 7
      type: INT
    }
  }
  node {
    input: "import/radius/Flatten/flatten/Reshape/shape:0"
    output: "import/radius/Flatten/flatten/Reshape__631:0"
    name: "import/radius/Flatten/flatten/Reshape__631"
    op_type: "Cast"
    attribute {
      name: "to"
      i: 7
      type: INT
    }
  }
  node {
    input: "import/eye:0"
    output: "import/hourglass/pre/conv/Conv2D__9:0"
    name: "import/hourglass/pre/conv/Conv2D__9"
    op_type: "Transpose"
    attribute {
      name: "perm"
      ints: 0
      ints: 3
      ints: 1
      ints: 2
      type: INTS
    }
  }
  node {
    input: "import/hourglass/pre/conv/Conv2D__9:0"
    input: "import/hourglass/pre/conv/kernel:0"
    output: "import/hourglass/pre/conv/Conv2D:0"
    name: "import/hourglass/pre/conv/Conv2D"
    op_type: "Conv"
    attribute {
      name: "dilations"
      ints: 1
      ints: 1
      type: INTS
    }
    attribute {
      name: "strides"
      ints: 3
      ints: 3
      type: INTS
    }
    attribute {
      name: "kernel_shape"
      ints: 7
      ints: 7
      type: INTS
    }
    attribute {
      name: "pads"
      ints: 2
      ints: 2
      ints: 2
      ints: 2
      type: INTS
    }
  }
  node {
    input: "import/hourglass/pre/conv/Conv2D:0"
    output: "import/hourglass/pre/conv/Conv2D__10:0"
    name: "import/hourglass/pre/conv/Conv2D__10"
    op_type: "Transpose"
    attribute {
      name: "perm"
      ints: 0
      ints: 2
      ints: 3
      ints: 1
      type: INTS
    }
  }
  node {
    input: "import/hourglass/pre/conv/Conv2D__10:0"
    input: "import/hourglass/pre/conv/bias:0"
    output: "import/hourglass/pre/conv/BiasAdd:0"
    name: "import/hourglass/pre/conv/BiasAdd"
    op_type: "Add"
  }
  node {
    input: "import/hourglass/pre/conv/BiasAdd:0"
    output: "import/hourglass/pre/BatchNorm/FusedBatchNorm__11:0"
    name: "import/hourglass/pre/BatchNorm/FusedBatchNorm__11"
    op_type: "Transpose"
    attribute {
      name: "perm"
      ints: 0
      ints: 3
      ints: 1
      ints: 2
      type: INTS
    }
  }
  node {
    input: "import/hourglass/pre/BatchNorm/FusedBatchNorm__11:0"
    input: "import/hourglass/pre/BatchNorm/gamma:0"
    input: "import/hourglass/pre/BatchNorm/beta:0"
    input: "import/hourglass/pre/BatchNorm/moving_mean:0"
    input: "import/hourglass/pre/BatchNorm/moving_variance:0"
    output: "import/hourglass/pre/BatchNorm/FusedBatchNorm:0"
    name: "import/hourglass/pre/BatchNorm/FusedBatchNorm"
    op_type: "BatchNormalization"
    attribute {
      name: "epsilon"
      f: 0.0010000000474974513
      type: FLOAT
    }
  }
  node {
    input: "import/hourglass/pre/BatchNorm/FusedBatchNorm:0"
    output: "import/hourglass/pre/BatchNorm/FusedBatchNorm__12:0"
    name: "import/hourglass/pre/BatchNorm/FusedBatchNorm__12"
    op_type: "Transpose"
    attribute {
      name: "perm"
      ints: 0
      ints: 2
      ints: 3
      ints: 1
      type: INTS
    }
  }
  node {
    input: "import/hourglass/pre/BatchNorm/FusedBatchNorm__12:0"
    output: "import/hourglass/pre/Relu:0"
    name: "import/hourglass/pre/Relu"
    op_type: "Relu"
  }
  node {
    input: "import/hourglass/pre/Relu:0"
    output: "import/hourglass/pre/res1/skip/conv/Conv2D__13:0"
    name: "import/hourglass/pre/res1/skip/conv/Conv2D__13"
    op_type: "Transpose"
    attribute {
      name: "perm"
      ints: 0
      ints: 3
      ints: 1
      ints: 2
      type: INTS
    }
  }
  node {
    input: "import/hourglass/pre/res1/skip/conv/Conv2D__13:0"
    input: "import/hourglass/pre/res1/skip/conv/kernel:0"
    output: "import/hourglass/pre/res1/skip/conv/Conv2D:0"
    name: "import/hourglass/pre/res1/skip/conv/Conv2D"
    op_type: "Conv"
    attribute {
      name: "dilations"
      ints: 1
      ints: 1
      type: INTS
    }
    attribute {
      name: "strides"
      ints: 1
      ints: 1
      type: INTS
    }
    attribute {
      name: "kernel_shape"
      ints: 1
      ints: 1
      type: INTS
    }
    attribute {
      name: "pads"
      ints: 0
      ints: 0
      ints: 0
      ints: 0
      type: INTS
    }
  }
  node {
    input: "import/hourglass/pre/res1/skip/conv/Conv2D:0"
    output: "import/hourglass/pre/res1/skip/conv/Conv2D__14:0"
    name: "import/hourglass/pre/res1/skip/conv/Conv2D__14"
    op_type: "Transpose"
    attribute {
      name: "perm"
      ints: 0
      ints: 2
      ints: 3
      ints: 1
      type: INTS
    }
  }
  node {
    input: "import/hourglass/pre/res1/skip/conv/Conv2D__14:0"
    input: "import/hourglass/pre/res1/skip/conv/bias:0"
    output: "import/hourglass/pre/res1/skip/conv/BiasAdd:0"
    name: "import/hourglass/pre/res1/skip/conv/BiasAdd"
    op_type: "Add"
  }
  node {
    input: "import/hourglass/pre/Relu:0"
    output: "import/hourglass/pre/res1/conv1/BatchNorm/FusedBatchNorm__15:0"
    name: "import/hourglass/pre/res1/conv1/BatchNorm/FusedBatchNorm__15"
    op_type: "Transpose"
    attribute {
      name: "perm"
      ints: 0
      ints: 3
      ints: 1
      ints: 2
      type: INTS
    }
  }
  node {
    input: "import/hourglass/pre/res1/conv1/BatchNorm/FusedBatchNorm__15:0"
    input: "import/hourglass/pre/res1/conv1/BatchNorm/gamma:0"
    input: "import/hourglass/pre/res1/conv1/BatchNorm/beta:0"
    input: "import/hourglass/pre/res1/conv1/BatchNorm/moving_mean:0"
    input: "import/hourglass/pre/res1/conv1/BatchNorm/moving_variance:0"
    output: "import/hourglass/pre/res1/conv1/BatchNorm/FusedBatchNorm:0"
    name: "import/hourglass/pre/res1/conv1/BatchNorm/FusedBatchNorm"
    op_type: "BatchNormalization"
    attribute {
      name: "epsilon"
      f: 0.0010000000474974513
      type: FLOAT
    }
  }
  node {
    input: "import/hourglass/pre/res1/conv1/BatchNorm/FusedBatchNorm:0"
    output: "import/hourglass/pre/res1/conv1/BatchNorm/FusedBatchNorm__16:0"
    name: "import/hourglass/pre/res1/conv1/BatchNorm/FusedBatchNorm__16"
    op_type: "Transpose"
    attribute {
      name: "perm"
      ints: 0
      ints: 2
      ints: 3
      ints: 1
      type: INTS
    }
  }
  node {
    input: "import/hourglass/pre/res1/conv1/BatchNorm/FusedBatchNorm__16:0"
    output: "import/hourglass/pre/res1/conv1/Relu:0"
    name: "import/hourglass/pre/res1/conv1/Relu"
    op_type: "Relu"
  }
  node {
    input: "import/hourglass/pre/res1/conv1/Relu:0"
    output: "import/hourglass/pre/res1/conv1/conv/Conv2D__17:0"
    name: "import/hourglass/pre/res1/conv1/conv/Conv2D__17"
    op_type: "Transpose"
    attribute {
      name: "perm"
      ints: 0
      ints: 3
      ints: 1
      ints: 2
      type: INTS
    }
  }
  node {
    input: "import/hourglass/pre/res1/conv1/conv/Conv2D__17:0"
    input: "import/hourglass/pre/res1/conv1/conv/kernel:0"
    output: "import/hourglass/pre/res1/conv1/conv/Conv2D:0"
    name: "import/hourglass/pre/res1/conv1/conv/Conv2D"
    op_type: "Conv"
    attribute {
      name: "dilations"
      ints: 1
      ints: 1
      type: INTS
    }
    attribute {
      name: "strides"
      ints: 1
      ints: 1
      type: INTS
    }
    attribute {
      name: "kernel_shape"
      ints: 1
      ints: 1
      type: INTS
    }
    attribute {
      name: "pads"
      ints: 0
      ints: 0
      ints: 0
      ints: 0
      type: INTS
    }
  }
  node {
    input: "import/hourglass/pre/res1/conv1/conv/Conv2D:0"
    output: "import/hourglass/pre/res1/conv1/conv/Conv2D__18:0"
    name: "import/hourglass/pre/res1/conv1/conv/Conv2D__18"
    op_type: "Transpose"
    attribute {
      name: "perm"
      ints: 0
      ints: 2
      ints: 3
      ints: 1
      type: INTS
    }
  }
  node {
    input: "import/hourglass/pre/res1/conv1/conv/Conv2D__18:0"
    input: "import/hourglass/pre/res1/conv1/conv/bias:0"
    output: "import/hourglass/pre/res1/conv1/conv/BiasAdd:0"
    name: "import/hourglass/pre/res1/conv1/conv/BiasAdd"
    op_type: "Add"
  }
  node {
    input: "import/hourglass/pre/res1/conv1/conv/BiasAdd:0"
    output: "import/hourglass/pre/res1/conv2/BatchNorm/FusedBatchNorm__19:0"
    name: "import/hourglass/pre/res1/conv2/BatchNorm/FusedBatchNorm__19"
    op_type: "Transpose"
    attribute {
      name: "perm"
      ints: 0
      ints: 3
      ints: 1
      ints: 2
      type: INTS
    }
  }
  node {
    input: "import/hourglass/pre/res1/conv2/BatchNorm/FusedBatchNorm__19:0"
    input: "import/hourglass/pre/res1/conv2/BatchNorm/gamma:0"
    input: "import/hourglass/pre/res1/conv2/BatchNorm/beta:0"
    input: "import/hourglass/pre/res1/conv2/BatchNorm/moving_mean:0"
    input: "import/hourglass/pre/res1/conv2/BatchNorm/moving_variance:0"
    output: "import/hourglass/pre/res1/conv2/BatchNorm/FusedBatchNorm:0"
    name: "import/hourglass/pre/res1/conv2/BatchNorm/FusedBatchNorm"
    op_type: "BatchNormalization"
    attribute {
      name: "epsilon"
      f: 0.0010000000474974513
      type: FLOAT
    }
  }
  node {
    input: "import/hourglass/pre/res1/conv2/BatchNorm/FusedBatchNorm:0"
    output: "import/hourglass/pre/res1/conv2/BatchNorm/FusedBatchNorm__20:0"
    name: "import/hourglass/pre/res1/conv2/BatchNorm/FusedBatchNorm__20"
    op_type: "Transpose"
    attribute {
      name: "perm"
      ints: 0
      ints: 2
      ints: 3
      ints: 1
      type: INTS
    }
  }
  node {
    input: "import/hourglass/pre/res1/conv2/BatchNorm/FusedBatchNorm__20:0"
    output: "import/hourglass/pre/res1/conv2/Relu:0"
    name: "import/hourglass/pre/res1/conv2/Relu"
    op_type: "Relu"
  }
  node {
    input: "import/hourglass/pre/res1/conv2/Relu:0"
    output: "import/hourglass/pre/res1/conv2/conv/Conv2D__21:0"
    name: "import/hourglass/pre/res1/conv2/conv/Conv2D__21"
    op_type: "Transpose"
    attribute {
      name: "perm"
      ints: 0
      ints: 3
      ints: 1
      ints: 2
      type: INTS
    }
  }
  node {
    input: "import/hourglass/pre/res1/conv2/conv/Conv2D__21:0"
    input: "import/hourglass/pre/res1/conv2/conv/kernel:0"
    output: "import/hourglass/pre/res1/conv2/conv/Conv2D:0"
    name: "import/hourglass/pre/res1/conv2/conv/Conv2D"
    op_type: "Conv"
    attribute {
      name: "dilations"
      ints: 1
      ints: 1
      type: INTS
    }
    attribute {
      name: "strides"
      ints: 1
      ints: 1
      type: INTS
    }
    attribute {
      name: "kernel_shape"
      ints: 3
      ints: 3
      type: INTS
    }
    attribute {
      name: "pads"
      ints: 1
      ints: 1
      ints: 1
      ints: 1
      type: INTS
    }
  }
  node {
    input: "import/hourglass/pre/res1/conv2/conv/Conv2D:0"
    output: "import/hourglass/pre/res1/conv2/conv/Conv2D__22:0"
    name: "import/hourglass/pre/res1/conv2/conv/Conv2D__22"
    op_type: "Transpose"
    attribute {
      name: "perm"
      ints: 0
      ints: 2
      ints: 3
      ints: 1
      type: INTS
    }
  }
  node {
    input: "import/hourglass/pre/res1/conv2/conv/Conv2D__22:0"
    input: "import/hourglass/pre/res1/conv2/conv/bias:0"
    output: "import/hourglass/pre/res1/conv2/conv/BiasAdd:0"
    name: "import/hourglass/pre/res1/conv2/conv/BiasAdd"
    op_type: "Add"
  }
  node {
    input: "import/hourglass/pre/res1/conv2/conv/BiasAdd:0"
    output: "import/hourglass/pre/res1/conv3/BatchNorm/FusedBatchNorm__23:0"
    name: "import/hourglass/pre/res1/conv3/BatchNorm/FusedBatchNorm__23"
    op_type: "Transpose"
    attribute {
      name: "perm"
      ints: 0
      ints: 3
      ints: 1
      ints: 2
      type: INTS
    }
  }
  node {
    input: "import/hourglass/pre/res1/conv3/BatchNorm/FusedBatchNorm__23:0"
    input: "import/hourglass/pre/res1/conv3/BatchNorm/gamma:0"
    input: "import/hourglass/pre/res1/conv3/BatchNorm/beta:0"
    input: "import/hourglass/pre/res1/conv3/BatchNorm/moving_mean:0"
    input: "import/hourglass/pre/res1/conv3/BatchNorm/moving_variance:0"
    output: "import/hourglass/pre/res1/conv3/BatchNorm/FusedBatchNorm:0"
    name: "import/hourglass/pre/res1/conv3/BatchNorm/FusedBatchNorm"
    op_type: "BatchNormalization"
    attribute {
      name: "epsilon"
      f: 0.0010000000474974513
      type: FLOAT
    }
  }
  node {
    input: "import/hourglass/pre/res1/conv3/BatchNorm/FusedBatchNorm:0"
    output: "import/hourglass/pre/res1/conv3/BatchNorm/FusedBatchNorm__24:0"
    name: "import/hourglass/pre/res1/conv3/BatchNorm/FusedBatchNorm__24"
    op_type: "Transpose"
    attribute {
      name: "perm"
      ints: 0
      ints: 2
      ints: 3
      ints: 1
      type: INTS
    }
  }
  node {
    input: "import/hourglass/pre/res1/conv3/BatchNorm/FusedBatchNorm__24:0"
    output: "import/hourglass/pre/res1/conv3/Relu:0"
    name: "import/hourglass/pre/res1/conv3/Relu"
    op_type: "Relu"
  }
  node {
    input: "import/hourglass/pre/res1/conv3/Relu:0"
    output: "import/hourglass/pre/res1/conv3/conv/Conv2D__25:0"
    name: "import/hourglass/pre/res1/conv3/conv/Conv2D__25"
    op_type: "Transpose"
    attribute {
      name: "perm"
      ints: 0
      ints: 3
      ints: 1
      ints: 2
      type: INTS
    }
  }
  node {
    input: "import/hourglass/pre/res1/conv3/conv/Conv2D__25:0"
    input: "import/hourglass/pre/res1/conv3/conv/kernel:0"
    output: "import/hourglass/pre/res1/conv3/conv/Conv2D:0"
    name: "import/hourglass/pre/res1/conv3/conv/Conv2D"
    op_type: "Conv"
    attribute {
      name: "dilations"
      ints: 1
      ints: 1
      type: INTS
    }
    attribute {
      name: "strides"
      ints: 1
      ints: 1
      type: INTS
    }
    attribute {
      name: "kernel_shape"
      ints: 1
      ints: 1
      type: INTS
    }
    attribute {
      name: "pads"
      ints: 0
      ints: 0
      ints: 0
      ints: 0
      type: INTS
    }
  }
  node {
    input: "import/hourglass/pre/res1/conv3/conv/Conv2D:0"
    output: "import/hourglass/pre/res1/conv3/conv/Conv2D__26:0"
    name: "import/hourglass/pre/res1/conv3/conv/Conv2D__26"
    op_type: "Transpose"
    attribute {
      name: "perm"
      ints: 0
      ints: 2
      ints: 3
      ints: 1
      type: INTS
    }
  }
  node {
    input: "import/hourglass/pre/res1/conv3/conv/Conv2D__26:0"
    input: "import/hourglass/pre/res1/conv3/conv/bias:0"
    output: "import/hourglass/pre/res1/conv3/conv/BiasAdd:0"
    name: "import/hourglass/pre/res1/conv3/conv/BiasAdd"
    op_type: "Add"
  }
  node {
    input: "import/hourglass/pre/res1/conv3/conv/BiasAdd:0"
    input: "import/hourglass/pre/res1/skip/conv/BiasAdd:0"
    output: "import/hourglass/pre/res1/add:0"
    name: "import/hourglass/pre/res1/add"
    op_type: "Add"
  }
  node {
    input: "import/hourglass/pre/res1/add:0"
    output: "import/hourglass/pre/res2/skip/conv/Conv2D__27:0"
    name: "import/hourglass/pre/res2/skip/conv/Conv2D__27"
    op_type: "Transpose"
    attribute {
      name: "perm"
      ints: 0
      ints: 3
      ints: 1
      ints: 2
      type: INTS
    }
  }
  node {
    input: "import/hourglass/pre/res2/skip/conv/Conv2D__27:0"
    input: "import/hourglass/pre/res2/skip/conv/kernel:0"
    output: "import/hourglass/pre/res2/skip/conv/Conv2D:0"
    name: "import/hourglass/pre/res2/skip/conv/Conv2D"
    op_type: "Conv"
    attribute {
      name: "dilations"
      ints: 1
      ints: 1
      type: INTS
    }
    attribute {
      name: "strides"
      ints: 1
      ints: 1
      type: INTS
    }
    attribute {
      name: "kernel_shape"
      ints: 1
      ints: 1
      type: INTS
    }
    attribute {
      name: "pads"
      ints: 0
      ints: 0
      ints: 0
      ints: 0
      type: INTS
    }
  }
  node {
    input: "import/hourglass/pre/res2/skip/conv/Conv2D:0"
    output: "import/hourglass/pre/res2/skip/conv/Conv2D__28:0"
    name: "import/hourglass/pre/res2/skip/conv/Conv2D__28"
    op_type: "Transpose"
    attribute {
      name: "perm"
      ints: 0
      ints: 2
      ints: 3
      ints: 1
      type: INTS
    }
  }
  node {
    input: "import/hourglass/pre/res2/skip/conv/Conv2D__28:0"
    input: "import/hourglass/pre/res2/skip/conv/bias:0"
    output: "import/hourglass/pre/res2/skip/conv/BiasAdd:0"
    name: "import/hourglass/pre/res2/skip/conv/BiasAdd"
    op_type: "Add"
  }
  node {
    input: "import/hourglass/pre/res1/add:0"
    output: "import/hourglass/pre/res2/conv1/BatchNorm/FusedBatchNorm__29:0"
    name: "import/hourglass/pre/res2/conv1/BatchNorm/FusedBatchNorm__29"
    op_type: "Transpose"
    attribute {
      name: "perm"
      ints: 0
      ints: 3
      ints: 1
      ints: 2
      type: INTS
    }
  }
  node {
    input: "import/hourglass/pre/res2/conv1/BatchNorm/FusedBatchNorm__29:0"
    input: "import/hourglass/pre/res2/conv1/BatchNorm/gamma:0"
    input: "import/hourglass/pre/res2/conv1/BatchNorm/beta:0"
    input: "import/hourglass/pre/res2/conv1/BatchNorm/moving_mean:0"
    input: "import/hourglass/pre/res2/conv1/BatchNorm/moving_variance:0"
    output: "import/hourglass/pre/res2/conv1/BatchNorm/FusedBatchNorm:0"
    name: "import/hourglass/pre/res2/conv1/BatchNorm/FusedBatchNorm"
    op_type: "BatchNormalization"
    attribute {
      name: "epsilon"
      f: 0.0010000000474974513
      type: FLOAT
    }
  }
  node {
    input: "import/hourglass/pre/res2/conv1/BatchNorm/FusedBatchNorm:0"
    output: "import/hourglass/pre/res2/conv1/BatchNorm/FusedBatchNorm__30:0"
    name: "import/hourglass/pre/res2/conv1/BatchNorm/FusedBatchNorm__30"
    op_type: "Transpose"
    attribute {
      name: "perm"
      ints: 0
      ints: 2
      ints: 3
      ints: 1
      type: INTS
    }
  }
  node {
    input: "import/hourglass/pre/res2/conv1/BatchNorm/FusedBatchNorm__30:0"
    output: "import/hourglass/pre/res2/conv1/Relu:0"
    name: "import/hourglass/pre/res2/conv1/Relu"
    op_type: "Relu"
  }
  node {
    input: "import/hourglass/pre/res2/conv1/Relu:0"
    output: "import/hourglass/pre/res2/conv1/conv/Conv2D__31:0"
    name: "import/hourglass/pre/res2/conv1/conv/Conv2D__31"
    op_type: "Transpose"
    attribute {
      name: "perm"
      ints: 0
      ints: 3
      ints: 1
      ints: 2
      type: INTS
    }
  }
  node {
    input: "import/hourglass/pre/res2/conv1/conv/Conv2D__31:0"
    input: "import/hourglass/pre/res2/conv1/conv/kernel:0"
    output: "import/hourglass/pre/res2/conv1/conv/Conv2D:0"
    name: "import/hourglass/pre/res2/conv1/conv/Conv2D"
    op_type: "Conv"
    attribute {
      name: "dilations"
      ints: 1
      ints: 1
      type: INTS
    }
    attribute {
      name: "strides"
      ints: 1
      ints: 1
      type: INTS
    }
    attribute {
      name: "kernel_shape"
      ints: 1
      ints: 1
      type: INTS
    }
    attribute {
      name: "pads"
      ints: 0
      ints: 0
      ints: 0
      ints: 0
      type: INTS
    }
  }
  node {
    input: "import/hourglass/pre/res2/conv1/conv/Conv2D:0"
    output: "import/hourglass/pre/res2/conv1/conv/Conv2D__32:0"
    name: "import/hourglass/pre/res2/conv1/conv/Conv2D__32"
    op_type: "Transpose"
    attribute {
      name: "perm"
      ints: 0
      ints: 2
      ints: 3
      ints: 1
      type: INTS
    }
  }
  node {
    input: "import/hourglass/pre/res2/conv1/conv/Conv2D__32:0"
    input: "import/hourglass/pre/res2/conv1/conv/bias:0"
    output: "import/hourglass/pre/res2/conv1/conv/BiasAdd:0"
    name: "import/hourglass/pre/res2/conv1/conv/BiasAdd"
    op_type: "Add"
  }
  node {
    input: "import/hourglass/pre/res2/conv1/conv/BiasAdd:0"
    output: "import/hourglass/pre/res2/conv2/BatchNorm/FusedBatchNorm__33:0"
    name: "import/hourglass/pre/res2/conv2/BatchNorm/FusedBatchNorm__33"
    op_type: "Transpose"
    attribute {
      name: "perm"
      ints: 0
      ints: 3
      ints: 1
      ints: 2
      type: INTS
    }
  }
  node {
    input: "import/hourglass/pre/res2/conv2/BatchNorm/FusedBatchNorm__33:0"
    input: "import/hourglass/pre/res2/conv2/BatchNorm/gamma:0"
    input: "import/hourglass/pre/res2/conv2/BatchNorm/beta:0"
    input: "import/hourglass/pre/res2/conv2/BatchNorm/moving_mean:0"
    input: "import/hourglass/pre/res2/conv2/BatchNorm/moving_variance:0"
    output: "import/hourglass/pre/res2/conv2/BatchNorm/FusedBatchNorm:0"
    name: "import/hourglass/pre/res2/conv2/BatchNorm/FusedBatchNorm"
    op_type: "BatchNormalization"
    attribute {
      name: "epsilon"
      f: 0.0010000000474974513
      type: FLOAT
    }
  }
  node {
    input: "import/hourglass/pre/res2/conv2/BatchNorm/FusedBatchNorm:0"
    output: "import/hourglass/pre/res2/conv2/BatchNorm/FusedBatchNorm__34:0"
    name: "import/hourglass/pre/res2/conv2/BatchNorm/FusedBatchNorm__34"
    op_type: "Transpose"
    attribute {
      name: "perm"
      ints: 0
      ints: 2
      ints: 3
      ints: 1
      type: INTS
    }
  }
  node {
    input: "import/hourglass/pre/res2/conv2/BatchNorm/FusedBatchNorm__34:0"
    output: "import/hourglass/pre/res2/conv2/Relu:0"
    name: "import/hourglass/pre/res2/conv2/Relu"
    op_type: "Relu"
  }
  node {
    input: "import/hourglass/pre/res2/conv2/Relu:0"
    output: "import/hourglass/pre/res2/conv2/conv/Conv2D__35:0"
    name: "import/hourglass/pre/res2/conv2/conv/Conv2D__35"
    op_type: "Transpose"
    attribute {
      name: "perm"
      ints: 0
      ints: 3
      ints: 1
      ints: 2
      type: INTS
    }
  }
  node {
    input: "import/hourglass/pre/res2/conv2/conv/Conv2D__35:0"
    input: "import/hourglass/pre/res2/conv2/conv/kernel:0"
    output: "import/hourglass/pre/res2/conv2/conv/Conv2D:0"
    name: "import/hourglass/pre/res2/conv2/conv/Conv2D"
    op_type: "Conv"
    attribute {
      name: "dilations"
      ints: 1
      ints: 1
      type: INTS
    }
    attribute {
      name: "strides"
      ints: 1
      ints: 1
      type: INTS
    }
    attribute {
      name: "kernel_shape"
      ints: 3
      ints: 3
      type: INTS
    }
    attribute {
      name: "pads"
      ints: 1
      ints: 1
      ints: 1
      ints: 1
      type: INTS
    }
  }
  node {
    input: "import/hourglass/pre/res2/conv2/conv/Conv2D:0"
    output: "import/hourglass/pre/res2/conv2/conv/Conv2D__36:0"
    name: "import/hourglass/pre/res2/conv2/conv/Conv2D__36"
    op_type: "Transpose"
    attribute {
      name: "perm"
      ints: 0
      ints: 2
      ints: 3
      ints: 1
      type: INTS
    }
  }
  node {
    input: "import/hourglass/pre/res2/conv2/conv/Conv2D__36:0"
    input: "import/hourglass/pre/res2/conv2/conv/bias:0"
    output: "import/hourglass/pre/res2/conv2/conv/BiasAdd:0"
    name: "import/hourglass/pre/res2/conv2/conv/BiasAdd"
    op_type: "Add"
  }
  node {
    input: "import/hourglass/pre/res2/conv2/conv/BiasAdd:0"
    output: "import/hourglass/pre/res2/conv3/BatchNorm/FusedBatchNorm__37:0"
    name: "import/hourglass/pre/res2/conv3/BatchNorm/FusedBatchNorm__37"
    op_type: "Transpose"
    attribute {
      name: "perm"
      ints: 0
      ints: 3
      ints: 1
      ints: 2
      type: INTS
    }
  }
  node {
    input: "import/hourglass/pre/res2/conv3/BatchNorm/FusedBatchNorm__37:0"
    input: "import/hourglass/pre/res2/conv3/BatchNorm/gamma:0"
    input: "import/hourglass/pre/res2/conv3/BatchNorm/beta:0"
    input: "import/hourglass/pre/res2/conv3/BatchNorm/moving_mean:0"
    input: "import/hourglass/pre/res2/conv3/BatchNorm/moving_variance:0"
    output: "import/hourglass/pre/res2/conv3/BatchNorm/FusedBatchNorm:0"
    name: "import/hourglass/pre/res2/conv3/BatchNorm/FusedBatchNorm"
    op_type: "BatchNormalization"
    attribute {
      name: "epsilon"
      f: 0.0010000000474974513
      type: FLOAT
    }
  }
  node {
    input: "import/hourglass/pre/res2/conv3/BatchNorm/FusedBatchNorm:0"
    output: "import/hourglass/pre/res2/conv3/BatchNorm/FusedBatchNorm__38:0"
    name: "import/hourglass/pre/res2/conv3/BatchNorm/FusedBatchNorm__38"
    op_type: "Transpose"
    attribute {
      name: "perm"
      ints: 0
      ints: 2
      ints: 3
      ints: 1
      type: INTS
    }
  }
  node {
    input: "import/hourglass/pre/res2/conv3/BatchNorm/FusedBatchNorm__38:0"
    output: "import/hourglass/pre/res2/conv3/Relu:0"
    name: "import/hourglass/pre/res2/conv3/Relu"
    op_type: "Relu"
  }
  node {
    input: "import/hourglass/pre/res2/conv3/Relu:0"
    output: "import/hourglass/pre/res2/conv3/conv/Conv2D__39:0"
    name: "import/hourglass/pre/res2/conv3/conv/Conv2D__39"
    op_type: "Transpose"
    attribute {
      name: "perm"
      ints: 0
      ints: 3
      ints: 1
      ints: 2
      type: INTS
    }
  }
  node {
    input: "import/hourglass/pre/res2/conv3/conv/Conv2D__39:0"
    input: "import/hourglass/pre/res2/conv3/conv/kernel:0"
    output: "import/hourglass/pre/res2/conv3/conv/Conv2D:0"
    name: "import/hourglass/pre/res2/conv3/conv/Conv2D"
    op_type: "Conv"
    attribute {
      name: "dilations"
      ints: 1
      ints: 1
      type: INTS
    }
    attribute {
      name: "strides"
      ints: 1
      ints: 1
      type: INTS
    }
    attribute {
      name: "kernel_shape"
      ints: 1
      ints: 1
      type: INTS
    }
    attribute {
      name: "pads"
      ints: 0
      ints: 0
      ints: 0
      ints: 0
      type: INTS
    }
  }
  node {
    input: "import/hourglass/pre/res2/conv3/conv/Conv2D:0"
    output: "import/hourglass/pre/res2/conv3/conv/Conv2D__40:0"
    name: "import/hourglass/pre/res2/conv3/conv/Conv2D__40"
    op_type: "Transpose"
    attribute {
      name: "perm"
      ints: 0
      ints: 2
      ints: 3
      ints: 1
      type: INTS
    }
  }
  node {
    input: "import/hourglass/pre/res2/conv3/conv/Conv2D__40:0"
    input: "import/hourglass/pre/res2/conv3/conv/bias:0"
    output: "import/hourglass/pre/res2/conv3/conv/BiasAdd:0"
    name: "import/hourglass/pre/res2/conv3/conv/BiasAdd"
    op_type: "Add"
  }
  node {
    input: "import/hourglass/pre/res2/conv3/conv/BiasAdd:0"
    input: "import/hourglass/pre/res2/skip/conv/BiasAdd:0"
    output: "import/hourglass/pre/res2/add:0"
    name: "import/hourglass/pre/res2/add"
    op_type: "Add"
  }
  node {
    input: "import/hourglass/pre/res2/add:0"
    output: "import/hourglass/hg_1/depth1/up1_1/skip/Identity:0"
    name: "import/hourglass/hg_1/depth1/up1_1/skip/Identity"
    op_type: "Identity"
  }
  node {
    input: "import/hourglass/pre/res2/add:0"
    output: "import/hourglass/hg_1/depth1/up1_1/conv1/BatchNorm/FusedBatchNorm__41:0"
    name: "import/hourglass/hg_1/depth1/up1_1/conv1/BatchNorm/FusedBatchNorm__41"
    op_type: "Transpose"
    attribute {
      name: "perm"
      ints: 0
      ints: 3
      ints: 1
      ints: 2
      type: INTS
    }
  }
  node {
    input: "import/hourglass/hg_1/depth1/up1_1/conv1/BatchNorm/FusedBatchNorm__41:0"
    input: "import/hourglass/hg_1/depth1/up1_1/conv1/BatchNorm/gamma:0"
    input: "import/hourglass/hg_1/depth1/up1_1/conv1/BatchNorm/beta:0"
    input: "import/hourglass/hg_1/depth1/up1_1/conv1/BatchNorm/moving_mean:0"
    input: "import/hourglass/hg_1/depth1/up1_1/conv1/BatchNorm/moving_variance:0"
    output: "import/hourglass/hg_1/depth1/up1_1/conv1/BatchNorm/FusedBatchNorm:0"
    name: "import/hourglass/hg_1/depth1/up1_1/conv1/BatchNorm/FusedBatchNorm"
    op_type: "BatchNormalization"
    attribute {
      name: "epsilon"
      f: 0.0010000000474974513
      type: FLOAT
    }
  }
  node {
    input: "import/hourglass/hg_1/depth1/up1_1/conv1/BatchNorm/FusedBatchNorm:0"
    output: "import/hourglass/hg_1/depth1/up1_1/conv1/BatchNorm/FusedBatchNorm__42:0"
    name: "import/hourglass/hg_1/depth1/up1_1/conv1/BatchNorm/FusedBatchNorm__42"
    op_type: "Transpose"
    attribute {
      name: "perm"
      ints: 0
      ints: 2
      ints: 3
      ints: 1
      type: INTS
    }
  }
  node {
    input: "import/hourglass/hg_1/depth1/up1_1/conv1/BatchNorm/FusedBatchNorm__42:0"
    output: "import/hourglass/hg_1/depth1/up1_1/conv1/Relu:0"
    name: "import/hourglass/hg_1/depth1/up1_1/conv1/Relu"
    op_type: "Relu"
  }
  node {
    input: "import/hourglass/hg_1/depth1/up1_1/conv1/Relu:0"
    output: "import/hourglass/hg_1/depth1/up1_1/conv1/conv/Conv2D__43:0"
    name: "import/hourglass/hg_1/depth1/up1_1/conv1/conv/Conv2D__43"
    op_type: "Transpose"
    attribute {
      name: "perm"
      ints: 0
      ints: 3
      ints: 1
      ints: 2
      type: INTS
    }
  }
  node {
    input: "import/hourglass/hg_1/depth1/up1_1/conv1/conv/Conv2D__43:0"
    input: "import/hourglass/hg_1/depth1/up1_1/conv1/conv/kernel:0"
    output: "import/hourglass/hg_1/depth1/up1_1/conv1/conv/Conv2D:0"
    name: "import/hourglass/hg_1/depth1/up1_1/conv1/conv/Conv2D"
    op_type: "Conv"
    attribute {
      name: "dilations"
      ints: 1
      ints: 1
      type: INTS
    }
    attribute {
      name: "strides"
      ints: 1
      ints: 1
      type: INTS
    }
    attribute {
      name: "kernel_shape"
      ints: 1
      ints: 1
      type: INTS
    }
    attribute {
      name: "pads"
      ints: 0
      ints: 0
      ints: 0
      ints: 0
      type: INTS
    }
  }
  node {
    input: "import/hourglass/hg_1/depth1/up1_1/conv1/conv/Conv2D:0"
    output: "import/hourglass/hg_1/depth1/up1_1/conv1/conv/Conv2D__44:0"
    name: "import/hourglass/hg_1/depth1/up1_1/conv1/conv/Conv2D__44"
    op_type: "Transpose"
    attribute {
      name: "perm"
      ints: 0
      ints: 2
      ints: 3
      ints: 1
      type: INTS
    }
  }
  node {
    input: "import/hourglass/hg_1/depth1/up1_1/conv1/conv/Conv2D__44:0"
    input: "import/hourglass/hg_1/depth1/up1_1/conv1/conv/bias:0"
    output: "import/hourglass/hg_1/depth1/up1_1/conv1/conv/BiasAdd:0"
    name: "import/hourglass/hg_1/depth1/up1_1/conv1/conv/BiasAdd"
    op_type: "Add"
  }
  node {
    input: "import/hourglass/hg_1/depth1/up1_1/conv1/conv/BiasAdd:0"
    output: "import/hourglass/hg_1/depth1/up1_1/conv2/BatchNorm/FusedBatchNorm__45:0"
    name: "import/hourglass/hg_1/depth1/up1_1/conv2/BatchNorm/FusedBatchNorm__45"
    op_type: "Transpose"
    attribute {
      name: "perm"
      ints: 0
      ints: 3
      ints: 1
      ints: 2
      type: INTS
    }
  }
  node {
    input: "import/hourglass/hg_1/depth1/up1_1/conv2/BatchNorm/FusedBatchNorm__45:0"
    input: "import/hourglass/hg_1/depth1/up1_1/conv2/BatchNorm/gamma:0"
    input: "import/hourglass/hg_1/depth1/up1_1/conv2/BatchNorm/beta:0"
    input: "import/hourglass/hg_1/depth1/up1_1/conv2/BatchNorm/moving_mean:0"
    input: "import/hourglass/hg_1/depth1/up1_1/conv2/BatchNorm/moving_variance:0"
    output: "import/hourglass/hg_1/depth1/up1_1/conv2/BatchNorm/FusedBatchNorm:0"
    name: "import/hourglass/hg_1/depth1/up1_1/conv2/BatchNorm/FusedBatchNorm"
    op_type: "BatchNormalization"
    attribute {
      name: "epsilon"
      f: 0.0010000000474974513
      type: FLOAT
    }
  }
  node {
    input: "import/hourglass/hg_1/depth1/up1_1/conv2/BatchNorm/FusedBatchNorm:0"
    output: "import/hourglass/hg_1/depth1/up1_1/conv2/BatchNorm/FusedBatchNorm__46:0"
    name: "import/hourglass/hg_1/depth1/up1_1/conv2/BatchNorm/FusedBatchNorm__46"
    op_type: "Transpose"
    attribute {
      name: "perm"
      ints: 0
      ints: 2
      ints: 3
      ints: 1
      type: INTS
    }
  }
  node {
    input: "import/hourglass/hg_1/depth1/up1_1/conv2/BatchNorm/FusedBatchNorm__46:0"
    output: "import/hourglass/hg_1/depth1/up1_1/conv2/Relu:0"
    name: "import/hourglass/hg_1/depth1/up1_1/conv2/Relu"
    op_type: "Relu"
  }
  node {
    input: "import/hourglass/hg_1/depth1/up1_1/conv2/Relu:0"
    output: "import/hourglass/hg_1/depth1/up1_1/conv2/conv/Conv2D__47:0"
    name: "import/hourglass/hg_1/depth1/up1_1/conv2/conv/Conv2D__47"
    op_type: "Transpose"
    attribute {
      name: "perm"
      ints: 0
      ints: 3
      ints: 1
      ints: 2
      type: INTS
    }
  }
  node {
    input: "import/hourglass/hg_1/depth1/up1_1/conv2/conv/Conv2D__47:0"
    input: "import/hourglass/hg_1/depth1/up1_1/conv2/conv/kernel:0"
    output: "import/hourglass/hg_1/depth1/up1_1/conv2/conv/Conv2D:0"
    name: "import/hourglass/hg_1/depth1/up1_1/conv2/conv/Conv2D"
    op_type: "Conv"
    attribute {
      name: "dilations"
      ints: 1
      ints: 1
      type: INTS
    }
    attribute {
      name: "strides"
      ints: 1
      ints: 1
      type: INTS
    }
    attribute {
      name: "kernel_shape"
      ints: 3
      ints: 3
      type: INTS
    }
    attribute {
      name: "pads"
      ints: 1
      ints: 1
      ints: 1
      ints: 1
      type: INTS
    }
  }
  node {
    input: "import/hourglass/hg_1/depth1/up1_1/conv2/conv/Conv2D:0"
    output: "import/hourglass/hg_1/depth1/up1_1/conv2/conv/Conv2D__48:0"
    name: "import/hourglass/hg_1/depth1/up1_1/conv2/conv/Conv2D__48"
    op_type: "Transpose"
    attribute {
      name: "perm"
      ints: 0
      ints: 2
      ints: 3
      ints: 1
      type: INTS
    }
  }
  node {
    input: "import/hourglass/hg_1/depth1/up1_1/conv2/conv/Conv2D__48:0"
    input: "import/hourglass/hg_1/depth1/up1_1/conv2/conv/bias:0"
    output: "import/hourglass/hg_1/depth1/up1_1/conv2/conv/BiasAdd:0"
    name: "import/hourglass/hg_1/depth1/up1_1/conv2/conv/BiasAdd"
    op_type: "Add"
  }
  node {
    input: "import/hourglass/hg_1/depth1/up1_1/conv2/conv/BiasAdd:0"
    output: "import/hourglass/hg_1/depth1/up1_1/conv3/BatchNorm/FusedBatchNorm__49:0"
    name: "import/hourglass/hg_1/depth1/up1_1/conv3/BatchNorm/FusedBatchNorm__49"
    op_type: "Transpose"
    attribute {
      name: "perm"
      ints: 0
      ints: 3
      ints: 1
      ints: 2
      type: INTS
    }
  }
  node {
    input: "import/hourglass/hg_1/depth1/up1_1/conv3/BatchNorm/FusedBatchNorm__49:0"
    input: "import/hourglass/hg_1/depth1/up1_1/conv3/BatchNorm/gamma:0"
    input: "import/hourglass/hg_1/depth1/up1_1/conv3/BatchNorm/beta:0"
    input: "import/hourglass/hg_1/depth1/up1_1/conv3/BatchNorm/moving_mean:0"
    input: "import/hourglass/hg_1/depth1/up1_1/conv3/BatchNorm/moving_variance:0"
    output: "import/hourglass/hg_1/depth1/up1_1/conv3/BatchNorm/FusedBatchNorm:0"
    name: "import/hourglass/hg_1/depth1/up1_1/conv3/BatchNorm/FusedBatchNorm"
    op_type: "BatchNormalization"
    attribute {
      name: "epsilon"
      f: 0.0010000000474974513
      type: FLOAT
    }
  }
  node {
    input: "import/hourglass/hg_1/depth1/up1_1/conv3/BatchNorm/FusedBatchNorm:0"
    output: "import/hourglass/hg_1/depth1/up1_1/conv3/BatchNorm/FusedBatchNorm__50:0"
    name: "import/hourglass/hg_1/depth1/up1_1/conv3/BatchNorm/FusedBatchNorm__50"
    op_type: "Transpose"
    attribute {
      name: "perm"
      ints: 0
      ints: 2
      ints: 3
      ints: 1
      type: INTS
    }
  }
  node {
    input: "import/hourglass/hg_1/depth1/up1_1/conv3/BatchNorm/FusedBatchNorm__50:0"
    output: "import/hourglass/hg_1/depth1/up1_1/conv3/Relu:0"
    name: "import/hourglass/hg_1/depth1/up1_1/conv3/Relu"
    op_type: "Relu"
  }
  node {
    input: "import/hourglass/hg_1/depth1/up1_1/conv3/Relu:0"
    output: "import/hourglass/hg_1/depth1/up1_1/conv3/conv/Conv2D__51:0"
    name: "import/hourglass/hg_1/depth1/up1_1/conv3/conv/Conv2D__51"
    op_type: "Transpose"
    attribute {
      name: "perm"
      ints: 0
      ints: 3
      ints: 1
      ints: 2
      type: INTS
    }
  }
  node {
    input: "import/hourglass/hg_1/depth1/up1_1/conv3/conv/Conv2D__51:0"
    input: "import/hourglass/hg_1/depth1/up1_1/conv3/conv/kernel:0"
    output: "import/hourglass/hg_1/depth1/up1_1/conv3/conv/Conv2D:0"
    name: "import/hourglass/hg_1/depth1/up1_1/conv3/conv/Conv2D"
    op_type: "Conv"
    attribute {
      name: "dilations"
      ints: 1
      ints: 1
      type: INTS
    }
    attribute {
      name: "strides"
      ints: 1
      ints: 1
      type: INTS
    }
    attribute {
      name: "kernel_shape"
      ints: 1
      ints: 1
      type: INTS
    }
    attribute {
      name: "pads"
      ints: 0
      ints: 0
      ints: 0
      ints: 0
      type: INTS
    }
  }
  node {
    input: "import/hourglass/hg_1/depth1/up1_1/conv3/conv/Conv2D:0"
    output: "import/hourglass/hg_1/depth1/up1_1/conv3/conv/Conv2D__52:0"
    name: "import/hourglass/hg_1/depth1/up1_1/conv3/conv/Conv2D__52"
    op_type: "Transpose"
    attribute {
      name: "perm"
      ints: 0
      ints: 2
      ints: 3
      ints: 1
      type: INTS
    }
  }
  node {
    input: "import/hourglass/hg_1/depth1/up1_1/conv3/conv/Conv2D__52:0"
    input: "import/hourglass/hg_1/depth1/up1_1/conv3/conv/bias:0"
    output: "import/hourglass/hg_1/depth1/up1_1/conv3/conv/BiasAdd:0"
    name: "import/hourglass/hg_1/depth1/up1_1/conv3/conv/BiasAdd"
    op_type: "Add"
  }
  node {
    input: "import/hourglass/hg_1/depth1/up1_1/conv3/conv/BiasAdd:0"
    input: "import/hourglass/hg_1/depth1/up1_1/skip/Identity:0"
    output: "import/hourglass/hg_1/depth1/up1_1/add:0"
    name: "import/hourglass/hg_1/depth1/up1_1/add"
    op_type: "Add"
  }
  node {
    input: "import/hourglass/pre/res2/add:0"
    output: "import/hourglass/hg_1/depth1/pool/MaxPool__53:0"
    name: "import/hourglass/hg_1/depth1/pool/MaxPool__53"
    op_type: "Transpose"
    attribute {
      name: "perm"
      ints: 0
      ints: 3
      ints: 1
      ints: 2
      type: INTS
    }
  }
  node {
    input: "import/hourglass/hg_1/depth1/pool/MaxPool__53:0"
    output: "import/hourglass/hg_1/depth1/pool/MaxPool:0"
    name: "import/hourglass/hg_1/depth1/pool/MaxPool"
    op_type: "MaxPool"
    attribute {
      name: "strides"
      ints: 2
      ints: 2
      type: INTS
    }
    attribute {
      name: "kernel_shape"
      ints: 2
      ints: 2
      type: INTS
    }
    attribute {
      name: "pads"
      ints: 0
      ints: 0
      ints: 0
      ints: 0
      type: INTS
    }
  }
  node {
    input: "import/hourglass/hg_1/depth1/pool/MaxPool:0"
    output: "import/hourglass/hg_1/depth1/pool/MaxPool__54:0"
    name: "import/hourglass/hg_1/depth1/pool/MaxPool__54"
    op_type: "Transpose"
    attribute {
      name: "perm"
      ints: 0
      ints: 2
      ints: 3
      ints: 1
      type: INTS
    }
  }
  node {
    input: "import/hourglass/hg_1/depth1/pool/MaxPool__54:0"
    output: "import/hourglass/hg_1/depth1/low1_1/skip/Identity:0"
    name: "import/hourglass/hg_1/depth1/low1_1/skip/Identity"
    op_type: "Identity"
  }
  node {
    input: "import/hourglass/hg_1/depth1/pool/MaxPool__54:0"
    output: "import/hourglass/hg_1/depth1/low1_1/conv1/BatchNorm/FusedBatchNorm__55:0"
    name: "import/hourglass/hg_1/depth1/low1_1/conv1/BatchNorm/FusedBatchNorm__55"
    op_type: "Transpose"
    attribute {
      name: "perm"
      ints: 0
      ints: 3
      ints: 1
      ints: 2
      type: INTS
    }
  }
  node {
    input: "import/hourglass/hg_1/depth1/low1_1/conv1/BatchNorm/FusedBatchNorm__55:0"
    input: "import/hourglass/hg_1/depth1/low1_1/conv1/BatchNorm/gamma:0"
    input: "import/hourglass/hg_1/depth1/low1_1/conv1/BatchNorm/beta:0"
    input: "import/hourglass/hg_1/depth1/low1_1/conv1/BatchNorm/moving_mean:0"
    input: "import/hourglass/hg_1/depth1/low1_1/conv1/BatchNorm/moving_variance:0"
    output: "import/hourglass/hg_1/depth1/low1_1/conv1/BatchNorm/FusedBatchNorm:0"
    name: "import/hourglass/hg_1/depth1/low1_1/conv1/BatchNorm/FusedBatchNorm"
    op_type: "BatchNormalization"
    attribute {
      name: "epsilon"
      f: 0.0010000000474974513
      type: FLOAT
    }
  }
  node {
    input: "import/hourglass/hg_1/depth1/low1_1/conv1/BatchNorm/FusedBatchNorm:0"
    output: "import/hourglass/hg_1/depth1/low1_1/conv1/BatchNorm/FusedBatchNorm__56:0"
    name: "import/hourglass/hg_1/depth1/low1_1/conv1/BatchNorm/FusedBatchNorm__56"
    op_type: "Transpose"
    attribute {
      name: "perm"
      ints: 0
      ints: 2
      ints: 3
      ints: 1
      type: INTS
    }
  }
  node {
    input: "import/hourglass/hg_1/depth1/low1_1/conv1/BatchNorm/FusedBatchNorm__56:0"
    output: "import/hourglass/hg_1/depth1/low1_1/conv1/Relu:0"
    name: "import/hourglass/hg_1/depth1/low1_1/conv1/Relu"
    op_type: "Relu"
  }
  node {
    input: "import/hourglass/hg_1/depth1/low1_1/conv1/Relu:0"
    output: "import/hourglass/hg_1/depth1/low1_1/conv1/conv/Conv2D__57:0"
    name: "import/hourglass/hg_1/depth1/low1_1/conv1/conv/Conv2D__57"
    op_type: "Transpose"
    attribute {
      name: "perm"
      ints: 0
      ints: 3
      ints: 1
      ints: 2
      type: INTS
    }
  }
  node {
    input: "import/hourglass/hg_1/depth1/low1_1/conv1/conv/Conv2D__57:0"
    input: "import/hourglass/hg_1/depth1/low1_1/conv1/conv/kernel:0"
    output: "import/hourglass/hg_1/depth1/low1_1/conv1/conv/Conv2D:0"
    name: "import/hourglass/hg_1/depth1/low1_1/conv1/conv/Conv2D"
    op_type: "Conv"
    attribute {
      name: "dilations"
      ints: 1
      ints: 1
      type: INTS
    }
    attribute {
      name: "strides"
      ints: 1
      ints: 1
      type: INTS
    }
    attribute {
      name: "kernel_shape"
      ints: 1
      ints: 1
      type: INTS
    }
    attribute {
      name: "pads"
      ints: 0
      ints: 0
      ints: 0
      ints: 0
      type: INTS
    }
  }
  node {
    input: "import/hourglass/hg_1/depth1/low1_1/conv1/conv/Conv2D:0"
    output: "import/hourglass/hg_1/depth1/low1_1/conv1/conv/Conv2D__58:0"
    name: "import/hourglass/hg_1/depth1/low1_1/conv1/conv/Conv2D__58"
    op_type: "Transpose"
    attribute {
      name: "perm"
      ints: 0
      ints: 2
      ints: 3
      ints: 1
      type: INTS
    }
  }
  node {
    input: "import/hourglass/hg_1/depth1/low1_1/conv1/conv/Conv2D__58:0"
    input: "import/hourglass/hg_1/depth1/low1_1/conv1/conv/bias:0"
    output: "import/hourglass/hg_1/depth1/low1_1/conv1/conv/BiasAdd:0"
    name: "import/hourglass/hg_1/depth1/low1_1/conv1/conv/BiasAdd"
    op_type: "Add"
  }
  node {
    input: "import/hourglass/hg_1/depth1/low1_1/conv1/conv/BiasAdd:0"
    output: "import/hourglass/hg_1/depth1/low1_1/conv2/BatchNorm/FusedBatchNorm__59:0"
    name: "import/hourglass/hg_1/depth1/low1_1/conv2/BatchNorm/FusedBatchNorm__59"
    op_type: "Transpose"
    attribute {
      name: "perm"
      ints: 0
      ints: 3
      ints: 1
      ints: 2
      type: INTS
    }
  }
  node {
    input: "import/hourglass/hg_1/depth1/low1_1/conv2/BatchNorm/FusedBatchNorm__59:0"
    input: "import/hourglass/hg_1/depth1/low1_1/conv2/BatchNorm/gamma:0"
    input: "import/hourglass/hg_1/depth1/low1_1/conv2/BatchNorm/beta:0"
    input: "import/hourglass/hg_1/depth1/low1_1/conv2/BatchNorm/moving_mean:0"
    input: "import/hourglass/hg_1/depth1/low1_1/conv2/BatchNorm/moving_variance:0"
    output: "import/hourglass/hg_1/depth1/low1_1/conv2/BatchNorm/FusedBatchNorm:0"
    name: "import/hourglass/hg_1/depth1/low1_1/conv2/BatchNorm/FusedBatchNorm"
    op_type: "BatchNormalization"
    attribute {
      name: "epsilon"
      f: 0.0010000000474974513
      type: FLOAT
    }
  }
  node {
    input: "import/hourglass/hg_1/depth1/low1_1/conv2/BatchNorm/FusedBatchNorm:0"
    output: "import/hourglass/hg_1/depth1/low1_1/conv2/BatchNorm/FusedBatchNorm__60:0"
    name: "import/hourglass/hg_1/depth1/low1_1/conv2/BatchNorm/FusedBatchNorm__60"
    op_type: "Transpose"
    attribute {
      name: "perm"
      ints: 0
      ints: 2
      ints: 3
      ints: 1
      type: INTS
    }
  }
  node {
    input: "import/hourglass/hg_1/depth1/low1_1/conv2/BatchNorm/FusedBatchNorm__60:0"
    output: "import/hourglass/hg_1/depth1/low1_1/conv2/Relu:0"
    name: "import/hourglass/hg_1/depth1/low1_1/conv2/Relu"
    op_type: "Relu"
  }
  node {
    input: "import/hourglass/hg_1/depth1/low1_1/conv2/Relu:0"
    output: "import/hourglass/hg_1/depth1/low1_1/conv2/conv/Conv2D__61:0"
    name: "import/hourglass/hg_1/depth1/low1_1/conv2/conv/Conv2D__61"
    op_type: "Transpose"
    attribute {
      name: "perm"
      ints: 0
      ints: 3
      ints: 1
      ints: 2
      type: INTS
    }
  }
  node {
    input: "import/hourglass/hg_1/depth1/low1_1/conv2/conv/Conv2D__61:0"
    input: "import/hourglass/hg_1/depth1/low1_1/conv2/conv/kernel:0"
    output: "import/hourglass/hg_1/depth1/low1_1/conv2/conv/Conv2D:0"
    name: "import/hourglass/hg_1/depth1/low1_1/conv2/conv/Conv2D"
    op_type: "Conv"
    attribute {
      name: "dilations"
      ints: 1
      ints: 1
      type: INTS
    }
    attribute {
      name: "strides"
      ints: 1
      ints: 1
      type: INTS
    }
    attribute {
      name: "kernel_shape"
      ints: 3
      ints: 3
      type: INTS
    }
    attribute {
      name: "pads"
      ints: 1
      ints: 1
      ints: 1
      ints: 1
      type: INTS
    }
  }
  node {
    input: "import/hourglass/hg_1/depth1/low1_1/conv2/conv/Conv2D:0"
    output: "import/hourglass/hg_1/depth1/low1_1/conv2/conv/Conv2D__62:0"
    name: "import/hourglass/hg_1/depth1/low1_1/conv2/conv/Conv2D__62"
    op_type: "Transpose"
    attribute {
      name: "perm"
      ints: 0
      ints: 2
      ints: 3
      ints: 1
      type: INTS
    }
  }
  node {
    input: "import/hourglass/hg_1/depth1/low1_1/conv2/conv/Conv2D__62:0"
    input: "import/hourglass/hg_1/depth1/low1_1/conv2/conv/bias:0"
    output: "import/hourglass/hg_1/depth1/low1_1/conv2/conv/BiasAdd:0"
    name: "import/hourglass/hg_1/depth1/low1_1/conv2/conv/BiasAdd"
    op_type: "Add"
  }
  node {
    input: "import/hourglass/hg_1/depth1/low1_1/conv2/conv/BiasAdd:0"
    output: "import/hourglass/hg_1/depth1/low1_1/conv3/BatchNorm/FusedBatchNorm__63:0"
    name: "import/hourglass/hg_1/depth1/low1_1/conv3/BatchNorm/FusedBatchNorm__63"
    op_type: "Transpose"
    attribute {
      name: "perm"
      ints: 0
      ints: 3
      ints: 1
      ints: 2
      type: INTS
    }
  }
  node {
    input: "import/hourglass/hg_1/depth1/low1_1/conv3/BatchNorm/FusedBatchNorm__63:0"
    input: "import/hourglass/hg_1/depth1/low1_1/conv3/BatchNorm/gamma:0"
    input: "import/hourglass/hg_1/depth1/low1_1/conv3/BatchNorm/beta:0"
    input: "import/hourglass/hg_1/depth1/low1_1/conv3/BatchNorm/moving_mean:0"
    input: "import/hourglass/hg_1/depth1/low1_1/conv3/BatchNorm/moving_variance:0"
    output: "import/hourglass/hg_1/depth1/low1_1/conv3/BatchNorm/FusedBatchNorm:0"
    name: "import/hourglass/hg_1/depth1/low1_1/conv3/BatchNorm/FusedBatchNorm"
    op_type: "BatchNormalization"
    attribute {
      name: "epsilon"
      f: 0.0010000000474974513
      type: FLOAT
    }
  }
  node {
    input: "import/hourglass/hg_1/depth1/low1_1/conv3/BatchNorm/FusedBatchNorm:0"
    output: "import/hourglass/hg_1/depth1/low1_1/conv3/BatchNorm/FusedBatchNorm__64:0"
    name: "import/hourglass/hg_1/depth1/low1_1/conv3/BatchNorm/FusedBatchNorm__64"
    op_type: "Transpose"
    attribute {
      name: "perm"
      ints: 0
      ints: 2
      ints: 3
      ints: 1
      type: INTS
    }
  }
  node {
    input: "import/hourglass/hg_1/depth1/low1_1/conv3/BatchNorm/FusedBatchNorm__64:0"
    output: "import/hourglass/hg_1/depth1/low1_1/conv3/Relu:0"
    name: "import/hourglass/hg_1/depth1/low1_1/conv3/Relu"
    op_type: "Relu"
  }
  node {
    input: "import/hourglass/hg_1/depth1/low1_1/conv3/Relu:0"
    output: "import/hourglass/hg_1/depth1/low1_1/conv3/conv/Conv2D__65:0"
    name: "import/hourglass/hg_1/depth1/low1_1/conv3/conv/Conv2D__65"
    op_type: "Transpose"
    attribute {
      name: "perm"
      ints: 0
      ints: 3
      ints: 1
      ints: 2
      type: INTS
    }
  }
  node {
    input: "import/hourglass/hg_1/depth1/low1_1/conv3/conv/Conv2D__65:0"
    input: "import/hourglass/hg_1/depth1/low1_1/conv3/conv/kernel:0"
    output: "import/hourglass/hg_1/depth1/low1_1/conv3/conv/Conv2D:0"
    name: "import/hourglass/hg_1/depth1/low1_1/conv3/conv/Conv2D"
    op_type: "Conv"
    attribute {
      name: "dilations"
      ints: 1
      ints: 1
      type: INTS
    }
    attribute {
      name: "strides"
      ints: 1
      ints: 1
      type: INTS
    }
    attribute {
      name: "kernel_shape"
      ints: 1
      ints: 1
      type: INTS
    }
    attribute {
      name: "pads"
      ints: 0
      ints: 0
      ints: 0
      ints: 0
      type: INTS
    }
  }
  node {
    input: "import/hourglass/hg_1/depth1/low1_1/conv3/conv/Conv2D:0"
    output: "import/hourglass/hg_1/depth1/low1_1/conv3/conv/Conv2D__66:0"
    name: "import/hourglass/hg_1/depth1/low1_1/conv3/conv/Conv2D__66"
    op_type: "Transpose"
    attribute {
      name: "perm"
      ints: 0
      ints: 2
      ints: 3
      ints: 1
      type: INTS
    }
  }
  node {
    input: "import/hourglass/hg_1/depth1/low1_1/conv3/conv/Conv2D__66:0"
    input: "import/hourglass/hg_1/depth1/low1_1/conv3/conv/bias:0"
    output: "import/hourglass/hg_1/depth1/low1_1/conv3/conv/BiasAdd:0"
    name: "import/hourglass/hg_1/depth1/low1_1/conv3/conv/BiasAdd"
    op_type: "Add"
  }
  node {
    input: "import/hourglass/hg_1/depth1/low1_1/conv3/conv/BiasAdd:0"
    input: "import/hourglass/hg_1/depth1/low1_1/skip/Identity:0"
    output: "import/hourglass/hg_1/depth1/low1_1/add:0"
    name: "import/hourglass/hg_1/depth1/low1_1/add"
    op_type: "Add"
  }
  node {
    input: "import/hourglass/hg_1/depth1/low1_1/add:0"
    output: "import/hourglass/hg_1/depth1/depth2/up1_1/skip/Identity:0"
    name: "import/hourglass/hg_1/depth1/depth2/up1_1/skip/Identity"
    op_type: "Identity"
  }
  node {
    input: "import/hourglass/hg_1/depth1/low1_1/add:0"
    output: "import/hourglass/hg_1/depth1/depth2/up1_1/conv1/BatchNorm/FusedBatchNorm__67:0"
    name: "import/hourglass/hg_1/depth1/depth2/up1_1/conv1/BatchNorm/FusedBatchNorm__67"
    op_type: "Transpose"
    attribute {
      name: "perm"
      ints: 0
      ints: 3
      ints: 1
      ints: 2
      type: INTS
    }
  }
  node {
    input: "import/hourglass/hg_1/depth1/depth2/up1_1/conv1/BatchNorm/FusedBatchNorm__67:0"
    input: "import/hourglass/hg_1/depth1/depth2/up1_1/conv1/BatchNorm/gamma:0"
    input: "import/hourglass/hg_1/depth1/depth2/up1_1/conv1/BatchNorm/beta:0"
    input: "import/hourglass/hg_1/depth1/depth2/up1_1/conv1/BatchNorm/moving_mean:0"
    input: "import/hourglass/hg_1/depth1/depth2/up1_1/conv1/BatchNorm/moving_variance:0"
    output: "import/hourglass/hg_1/depth1/depth2/up1_1/conv1/BatchNorm/FusedBatchNorm:0"
    name: "import/hourglass/hg_1/depth1/depth2/up1_1/conv1/BatchNorm/FusedBatchNorm"
    op_type: "BatchNormalization"
    attribute {
      name: "epsilon"
      f: 0.0010000000474974513
      type: FLOAT
    }
  }
  node {
    input: "import/hourglass/hg_1/depth1/depth2/up1_1/conv1/BatchNorm/FusedBatchNorm:0"
    output: "import/hourglass/hg_1/depth1/depth2/up1_1/conv1/BatchNorm/FusedBatchNorm__68:0"
    name: "import/hourglass/hg_1/depth1/depth2/up1_1/conv1/BatchNorm/FusedBatchNorm__68"
    op_type: "Transpose"
    attribute {
      name: "perm"
      ints: 0
      ints: 2
      ints: 3
      ints: 1
      type: INTS
    }
  }
  node {
    input: "import/hourglass/hg_1/depth1/depth2/up1_1/conv1/BatchNorm/FusedBatchNorm__68:0"
    output: "import/hourglass/hg_1/depth1/depth2/up1_1/conv1/Relu:0"
    name: "import/hourglass/hg_1/depth1/depth2/up1_1/conv1/Relu"
    op_type: "Relu"
  }
  node {
    input: "import/hourglass/hg_1/depth1/depth2/up1_1/conv1/Relu:0"
    output: "import/hourglass/hg_1/depth1/depth2/up1_1/conv1/conv/Conv2D__69:0"
    name: "import/hourglass/hg_1/depth1/depth2/up1_1/conv1/conv/Conv2D__69"
    op_type: "Transpose"
    attribute {
      name: "perm"
      ints: 0
      ints: 3
      ints: 1
      ints: 2
      type: INTS
    }
  }
  node {
    input: "import/hourglass/hg_1/depth1/depth2/up1_1/conv1/conv/Conv2D__69:0"
    input: "import/hourglass/hg_1/depth1/depth2/up1_1/conv1/conv/kernel:0"
    output: "import/hourglass/hg_1/depth1/depth2/up1_1/conv1/conv/Conv2D:0"
    name: "import/hourglass/hg_1/depth1/depth2/up1_1/conv1/conv/Conv2D"
    op_type: "Conv"
    attribute {
      name: "dilations"
      ints: 1
      ints: 1
      type: INTS
    }
    attribute {
      name: "strides"
      ints: 1
      ints: 1
      type: INTS
    }
    attribute {
      name: "kernel_shape"
      ints: 1
      ints: 1
      type: INTS
    }
    attribute {
      name: "pads"
      ints: 0
      ints: 0
      ints: 0
      ints: 0
      type: INTS
    }
  }
  node {
    input: "import/hourglass/hg_1/depth1/depth2/up1_1/conv1/conv/Conv2D:0"
    output: "import/hourglass/hg_1/depth1/depth2/up1_1/conv1/conv/Conv2D__70:0"
    name: "import/hourglass/hg_1/depth1/depth2/up1_1/conv1/conv/Conv2D__70"
    op_type: "Transpose"
    attribute {
      name: "perm"
      ints: 0
      ints: 2
      ints: 3
      ints: 1
      type: INTS
    }
  }
  node {
    input: "import/hourglass/hg_1/depth1/depth2/up1_1/conv1/conv/Conv2D__70:0"
    input: "import/hourglass/hg_1/depth1/depth2/up1_1/conv1/conv/bias:0"
    output: "import/hourglass/hg_1/depth1/depth2/up1_1/conv1/conv/BiasAdd:0"
    name: "import/hourglass/hg_1/depth1/depth2/up1_1/conv1/conv/BiasAdd"
    op_type: "Add"
  }
  node {
    input: "import/hourglass/hg_1/depth1/depth2/up1_1/conv1/conv/BiasAdd:0"
    output: "import/hourglass/hg_1/depth1/depth2/up1_1/conv2/BatchNorm/FusedBatchNorm__71:0"
    name: "import/hourglass/hg_1/depth1/depth2/up1_1/conv2/BatchNorm/FusedBatchNorm__71"
    op_type: "Transpose"
    attribute {
      name: "perm"
      ints: 0
      ints: 3
      ints: 1
      ints: 2
      type: INTS
    }
  }
  node {
    input: "import/hourglass/hg_1/depth1/depth2/up1_1/conv2/BatchNorm/FusedBatchNorm__71:0"
    input: "import/hourglass/hg_1/depth1/depth2/up1_1/conv2/BatchNorm/gamma:0"
    input: "import/hourglass/hg_1/depth1/depth2/up1_1/conv2/BatchNorm/beta:0"
    input: "import/hourglass/hg_1/depth1/depth2/up1_1/conv2/BatchNorm/moving_mean:0"
    input: "import/hourglass/hg_1/depth1/depth2/up1_1/conv2/BatchNorm/moving_variance:0"
    output: "import/hourglass/hg_1/depth1/depth2/up1_1/conv2/BatchNorm/FusedBatchNorm:0"
    name: "import/hourglass/hg_1/depth1/depth2/up1_1/conv2/BatchNorm/FusedBatchNorm"
    op_type: "BatchNormalization"
    attribute {
      name: "epsilon"
      f: 0.0010000000474974513
      type: FLOAT
    }
  }
  node {
    input: "import/hourglass/hg_1/depth1/depth2/up1_1/conv2/BatchNorm/FusedBatchNorm:0"
    output: "import/hourglass/hg_1/depth1/depth2/up1_1/conv2/BatchNorm/FusedBatchNorm__72:0"
    name: "import/hourglass/hg_1/depth1/depth2/up1_1/conv2/BatchNorm/FusedBatchNorm__72"
    op_type: "Transpose"
    attribute {
      name: "perm"
      ints: 0
      ints: 2
      ints: 3
      ints: 1
      type: INTS
    }
  }
  node {
    input: "import/hourglass/hg_1/depth1/depth2/up1_1/conv2/BatchNorm/FusedBatchNorm__72:0"
    output: "import/hourglass/hg_1/depth1/depth2/up1_1/conv2/Relu:0"
    name: "import/hourglass/hg_1/depth1/depth2/up1_1/conv2/Relu"
    op_type: "Relu"
  }
  node {
    input: "import/hourglass/hg_1/depth1/depth2/up1_1/conv2/Relu:0"
    output: "import/hourglass/hg_1/depth1/depth2/up1_1/conv2/conv/Conv2D__73:0"
    name: "import/hourglass/hg_1/depth1/depth2/up1_1/conv2/conv/Conv2D__73"
    op_type: "Transpose"
    attribute {
      name: "perm"
      ints: 0
      ints: 3
      ints: 1
      ints: 2
      type: INTS
    }
  }
  node {
    input: "import/hourglass/hg_1/depth1/depth2/up1_1/conv2/conv/Conv2D__73:0"
    input: "import/hourglass/hg_1/depth1/depth2/up1_1/conv2/conv/kernel:0"
    output: "import/hourglass/hg_1/depth1/depth2/up1_1/conv2/conv/Conv2D:0"
    name: "import/hourglass/hg_1/depth1/depth2/up1_1/conv2/conv/Conv2D"
    op_type: "Conv"
    attribute {
      name: "dilations"
      ints: 1
      ints: 1
      type: INTS
    }
    attribute {
      name: "strides"
      ints: 1
      ints: 1
      type: INTS
    }
    attribute {
      name: "kernel_shape"
      ints: 3
      ints: 3
      type: INTS
    }
    attribute {
      name: "pads"
      ints: 1
      ints: 1
      ints: 1
      ints: 1
      type: INTS
    }
  }
  node {
    input: "import/hourglass/hg_1/depth1/depth2/up1_1/conv2/conv/Conv2D:0"
    output: "import/hourglass/hg_1/depth1/depth2/up1_1/conv2/conv/Conv2D__74:0"
    name: "import/hourglass/hg_1/depth1/depth2/up1_1/conv2/conv/Conv2D__74"
    op_type: "Transpose"
    attribute {
      name: "perm"
      ints: 0
      ints: 2
      ints: 3
      ints: 1
      type: INTS
    }
  }
  node {
    input: "import/hourglass/hg_1/depth1/depth2/up1_1/conv2/conv/Conv2D__74:0"
    input: "import/hourglass/hg_1/depth1/depth2/up1_1/conv2/conv/bias:0"
    output: "import/hourglass/hg_1/depth1/depth2/up1_1/conv2/conv/BiasAdd:0"
    name: "import/hourglass/hg_1/depth1/depth2/up1_1/conv2/conv/BiasAdd"
    op_type: "Add"
  }
  node {
    input: "import/hourglass/hg_1/depth1/depth2/up1_1/conv2/conv/BiasAdd:0"
    output: "import/hourglass/hg_1/depth1/depth2/up1_1/conv3/BatchNorm/FusedBatchNorm__75:0"
    name: "import/hourglass/hg_1/depth1/depth2/up1_1/conv3/BatchNorm/FusedBatchNorm__75"
    op_type: "Transpose"
    attribute {
      name: "perm"
      ints: 0
      ints: 3
      ints: 1
      ints: 2
      type: INTS
    }
  }
  node {
    input: "import/hourglass/hg_1/depth1/depth2/up1_1/conv3/BatchNorm/FusedBatchNorm__75:0"
    input: "import/hourglass/hg_1/depth1/depth2/up1_1/conv3/BatchNorm/gamma:0"
    input: "import/hourglass/hg_1/depth1/depth2/up1_1/conv3/BatchNorm/beta:0"
    input: "import/hourglass/hg_1/depth1/depth2/up1_1/conv3/BatchNorm/moving_mean:0"
    input: "import/hourglass/hg_1/depth1/depth2/up1_1/conv3/BatchNorm/moving_variance:0"
    output: "import/hourglass/hg_1/depth1/depth2/up1_1/conv3/BatchNorm/FusedBatchNorm:0"
    name: "import/hourglass/hg_1/depth1/depth2/up1_1/conv3/BatchNorm/FusedBatchNorm"
    op_type: "BatchNormalization"
    attribute {
      name: "epsilon"
      f: 0.0010000000474974513
      type: FLOAT
    }
  }
  node {
    input: "import/hourglass/hg_1/depth1/depth2/up1_1/conv3/BatchNorm/FusedBatchNorm:0"
    output: "import/hourglass/hg_1/depth1/depth2/up1_1/conv3/BatchNorm/FusedBatchNorm__76:0"
    name: "import/hourglass/hg_1/depth1/depth2/up1_1/conv3/BatchNorm/FusedBatchNorm__76"
    op_type: "Transpose"
    attribute {
      name: "perm"
      ints: 0
      ints: 2
      ints: 3
      ints: 1
      type: INTS
    }
  }
  node {
    input: "import/hourglass/hg_1/depth1/depth2/up1_1/conv3/BatchNorm/FusedBatchNorm__76:0"
    output: "import/hourglass/hg_1/depth1/depth2/up1_1/conv3/Relu:0"
    name: "import/hourglass/hg_1/depth1/depth2/up1_1/conv3/Relu"
    op_type: "Relu"
  }
  node {
    input: "import/hourglass/hg_1/depth1/depth2/up1_1/conv3/Relu:0"
    output: "import/hourglass/hg_1/depth1/depth2/up1_1/conv3/conv/Conv2D__77:0"
    name: "import/hourglass/hg_1/depth1/depth2/up1_1/conv3/conv/Conv2D__77"
    op_type: "Transpose"
    attribute {
      name: "perm"
      ints: 0
      ints: 3
      ints: 1
      ints: 2
      type: INTS
    }
  }
  node {
    input: "import/hourglass/hg_1/depth1/depth2/up1_1/conv3/conv/Conv2D__77:0"
    input: "import/hourglass/hg_1/depth1/depth2/up1_1/conv3/conv/kernel:0"
    output: "import/hourglass/hg_1/depth1/depth2/up1_1/conv3/conv/Conv2D:0"
    name: "import/hourglass/hg_1/depth1/depth2/up1_1/conv3/conv/Conv2D"
    op_type: "Conv"
    attribute {
      name: "dilations"
      ints: 1
      ints: 1
      type: INTS
    }
    attribute {
      name: "strides"
      ints: 1
      ints: 1
      type: INTS
    }
    attribute {
      name: "kernel_shape"
      ints: 1
      ints: 1
      type: INTS
    }
    attribute {
      name: "pads"
      ints: 0
      ints: 0
      ints: 0
      ints: 0
      type: INTS
    }
  }
  node {
    input: "import/hourglass/hg_1/depth1/depth2/up1_1/conv3/conv/Conv2D:0"
    output: "import/hourglass/hg_1/depth1/depth2/up1_1/conv3/conv/Conv2D__78:0"
    name: "import/hourglass/hg_1/depth1/depth2/up1_1/conv3/conv/Conv2D__78"
    op_type: "Transpose"
    attribute {
      name: "perm"
      ints: 0
      ints: 2
      ints: 3
      ints: 1
      type: INTS
    }
  }
  node {
    input: "import/hourglass/hg_1/depth1/depth2/up1_1/conv3/conv/Conv2D__78:0"
    input: "import/hourglass/hg_1/depth1/depth2/up1_1/conv3/conv/bias:0"
    output: "import/hourglass/hg_1/depth1/depth2/up1_1/conv3/conv/BiasAdd:0"
    name: "import/hourglass/hg_1/depth1/depth2/up1_1/conv3/conv/BiasAdd"
    op_type: "Add"
  }
  node {
    input: "import/hourglass/hg_1/depth1/depth2/up1_1/conv3/conv/BiasAdd:0"
    input: "import/hourglass/hg_1/depth1/depth2/up1_1/skip/Identity:0"
    output: "import/hourglass/hg_1/depth1/depth2/up1_1/add:0"
    name: "import/hourglass/hg_1/depth1/depth2/up1_1/add"
    op_type: "Add"
  }
  node {
    input: "import/hourglass/hg_1/depth1/low1_1/add:0"
    output: "import/hourglass/hg_1/depth1/depth2/pool/MaxPool__79:0"
    name: "import/hourglass/hg_1/depth1/depth2/pool/MaxPool__79"
    op_type: "Transpose"
    attribute {
      name: "perm"
      ints: 0
      ints: 3
      ints: 1
      ints: 2
      type: INTS
    }
  }
  node {
    input: "import/hourglass/hg_1/depth1/depth2/pool/MaxPool__79:0"
    output: "import/hourglass/hg_1/depth1/depth2/pool/MaxPool:0"
    name: "import/hourglass/hg_1/depth1/depth2/pool/MaxPool"
    op_type: "MaxPool"
    attribute {
      name: "strides"
      ints: 2
      ints: 2
      type: INTS
    }
    attribute {
      name: "kernel_shape"
      ints: 2
      ints: 2
      type: INTS
    }
    attribute {
      name: "pads"
      ints: 0
      ints: 0
      ints: 0
      ints: 0
      type: INTS
    }
  }
  node {
    input: "import/hourglass/hg_1/depth1/depth2/pool/MaxPool:0"
    output: "import/hourglass/hg_1/depth1/depth2/pool/MaxPool__80:0"
    name: "import/hourglass/hg_1/depth1/depth2/pool/MaxPool__80"
    op_type: "Transpose"
    attribute {
      name: "perm"
      ints: 0
      ints: 2
      ints: 3
      ints: 1
      type: INTS
    }
  }
  node {
    input: "import/hourglass/hg_1/depth1/depth2/pool/MaxPool__80:0"
    output: "import/hourglass/hg_1/depth1/depth2/low1_1/skip/Identity:0"
    name: "import/hourglass/hg_1/depth1/depth2/low1_1/skip/Identity"
    op_type: "Identity"
  }
  node {
    input: "import/hourglass/hg_1/depth1/depth2/pool/MaxPool__80:0"
    output: "import/hourglass/hg_1/depth1/depth2/low1_1/conv1/BatchNorm/FusedBatchNorm__81:0"
    name: "import/hourglass/hg_1/depth1/depth2/low1_1/conv1/BatchNorm/FusedBatchNorm__81"
    op_type: "Transpose"
    attribute {
      name: "perm"
      ints: 0
      ints: 3
      ints: 1
      ints: 2
      type: INTS
    }
  }
  node {
    input: "import/hourglass/hg_1/depth1/depth2/low1_1/conv1/BatchNorm/FusedBatchNorm__81:0"
    input: "import/hourglass/hg_1/depth1/depth2/low1_1/conv1/BatchNorm/gamma:0"
    input: "import/hourglass/hg_1/depth1/depth2/low1_1/conv1/BatchNorm/beta:0"
    input: "import/hourglass/hg_1/depth1/depth2/low1_1/conv1/BatchNorm/moving_mean:0"
    input: "import/hourglass/hg_1/depth1/depth2/low1_1/conv1/BatchNorm/moving_variance:0"
    output: "import/hourglass/hg_1/depth1/depth2/low1_1/conv1/BatchNorm/FusedBatchNorm:0"
    name: "import/hourglass/hg_1/depth1/depth2/low1_1/conv1/BatchNorm/FusedBatchNorm"
    op_type: "BatchNormalization"
    attribute {
      name: "epsilon"
      f: 0.0010000000474974513
      type: FLOAT
    }
  }
  node {
    input: "import/hourglass/hg_1/depth1/depth2/low1_1/conv1/BatchNorm/FusedBatchNorm:0"
    output: "import/hourglass/hg_1/depth1/depth2/low1_1/conv1/BatchNorm/FusedBatchNorm__82:0"
    name: "import/hourglass/hg_1/depth1/depth2/low1_1/conv1/BatchNorm/FusedBatchNorm__82"
    op_type: "Transpose"
    attribute {
      name: "perm"
      ints: 0
      ints: 2
      ints: 3
      ints: 1
      type: INTS
    }
  }
  node {
    input: "import/hourglass/hg_1/depth1/depth2/low1_1/conv1/BatchNorm/FusedBatchNorm__82:0"
    output: "import/hourglass/hg_1/depth1/depth2/low1_1/conv1/Relu:0"
    name: "import/hourglass/hg_1/depth1/depth2/low1_1/conv1/Relu"
    op_type: "Relu"
  }
  node {
    input: "import/hourglass/hg_1/depth1/depth2/low1_1/conv1/Relu:0"
    output: "import/hourglass/hg_1/depth1/depth2/low1_1/conv1/conv/Conv2D__83:0"
    name: "import/hourglass/hg_1/depth1/depth2/low1_1/conv1/conv/Conv2D__83"
    op_type: "Transpose"
    attribute {
      name: "perm"
      ints: 0
      ints: 3
      ints: 1
      ints: 2
      type: INTS
    }
  }
  node {
    input: "import/hourglass/hg_1/depth1/depth2/low1_1/conv1/conv/Conv2D__83:0"
    input: "import/hourglass/hg_1/depth1/depth2/low1_1/conv1/conv/kernel:0"
    output: "import/hourglass/hg_1/depth1/depth2/low1_1/conv1/conv/Conv2D:0"
    name: "import/hourglass/hg_1/depth1/depth2/low1_1/conv1/conv/Conv2D"
    op_type: "Conv"
    attribute {
      name: "dilations"
      ints: 1
      ints: 1
      type: INTS
    }
    attribute {
      name: "strides"
      ints: 1
      ints: 1
      type: INTS
    }
    attribute {
      name: "kernel_shape"
      ints: 1
      ints: 1
      type: INTS
    }
    attribute {
      name: "pads"
      ints: 0
      ints: 0
      ints: 0
      ints: 0
      type: INTS
    }
  }
  node {
    input: "import/hourglass/hg_1/depth1/depth2/low1_1/conv1/conv/Conv2D:0"
    output: "import/hourglass/hg_1/depth1/depth2/low1_1/conv1/conv/Conv2D__84:0"
    name: "import/hourglass/hg_1/depth1/depth2/low1_1/conv1/conv/Conv2D__84"
    op_type: "Transpose"
    attribute {
      name: "perm"
      ints: 0
      ints: 2
      ints: 3
      ints: 1
      type: INTS
    }
  }
  node {
    input: "import/hourglass/hg_1/depth1/depth2/low1_1/conv1/conv/Conv2D__84:0"
    input: "import/hourglass/hg_1/depth1/depth2/low1_1/conv1/conv/bias:0"
    output: "import/hourglass/hg_1/depth1/depth2/low1_1/conv1/conv/BiasAdd:0"
    name: "import/hourglass/hg_1/depth1/depth2/low1_1/conv1/conv/BiasAdd"
    op_type: "Add"
  }
  node {
    input: "import/hourglass/hg_1/depth1/depth2/low1_1/conv1/conv/BiasAdd:0"
    output: "import/hourglass/hg_1/depth1/depth2/low1_1/conv2/BatchNorm/FusedBatchNorm__85:0"
    name: "import/hourglass/hg_1/depth1/depth2/low1_1/conv2/BatchNorm/FusedBatchNorm__85"
    op_type: "Transpose"
    attribute {
      name: "perm"
      ints: 0
      ints: 3
      ints: 1
      ints: 2
      type: INTS
    }
  }
  node {
    input: "import/hourglass/hg_1/depth1/depth2/low1_1/conv2/BatchNorm/FusedBatchNorm__85:0"
    input: "import/hourglass/hg_1/depth1/depth2/low1_1/conv2/BatchNorm/gamma:0"
    input: "import/hourglass/hg_1/depth1/depth2/low1_1/conv2/BatchNorm/beta:0"
    input: "import/hourglass/hg_1/depth1/depth2/low1_1/conv2/BatchNorm/moving_mean:0"
    input: "import/hourglass/hg_1/depth1/depth2/low1_1/conv2/BatchNorm/moving_variance:0"
    output: "import/hourglass/hg_1/depth1/depth2/low1_1/conv2/BatchNorm/FusedBatchNorm:0"
    name: "import/hourglass/hg_1/depth1/depth2/low1_1/conv2/BatchNorm/FusedBatchNorm"
    op_type: "BatchNormalization"
    attribute {
      name: "epsilon"
      f: 0.0010000000474974513
      type: FLOAT
    }
  }
  node {
    input: "import/hourglass/hg_1/depth1/depth2/low1_1/conv2/BatchNorm/FusedBatchNorm:0"
    output: "import/hourglass/hg_1/depth1/depth2/low1_1/conv2/BatchNorm/FusedBatchNorm__86:0"
    name: "import/hourglass/hg_1/depth1/depth2/low1_1/conv2/BatchNorm/FusedBatchNorm__86"
    op_type: "Transpose"
    attribute {
      name: "perm"
      ints: 0
      ints: 2
      ints: 3
      ints: 1
      type: INTS
    }
  }
  node {
    input: "import/hourglass/hg_1/depth1/depth2/low1_1/conv2/BatchNorm/FusedBatchNorm__86:0"
    output: "import/hourglass/hg_1/depth1/depth2/low1_1/conv2/Relu:0"
    name: "import/hourglass/hg_1/depth1/depth2/low1_1/conv2/Relu"
    op_type: "Relu"
  }
  node {
    input: "import/hourglass/hg_1/depth1/depth2/low1_1/conv2/Relu:0"
    output: "import/hourglass/hg_1/depth1/depth2/low1_1/conv2/conv/Conv2D__87:0"
    name: "import/hourglass/hg_1/depth1/depth2/low1_1/conv2/conv/Conv2D__87"
    op_type: "Transpose"
    attribute {
      name: "perm"
      ints: 0
      ints: 3
      ints: 1
      ints: 2
      type: INTS
    }
  }
  node {
    input: "import/hourglass/hg_1/depth1/depth2/low1_1/conv2/conv/Conv2D__87:0"
    input: "import/hourglass/hg_1/depth1/depth2/low1_1/conv2/conv/kernel:0"
    output: "import/hourglass/hg_1/depth1/depth2/low1_1/conv2/conv/Conv2D:0"
    name: "import/hourglass/hg_1/depth1/depth2/low1_1/conv2/conv/Conv2D"
    op_type: "Conv"
    attribute {
      name: "dilations"
      ints: 1
      ints: 1
      type: INTS
    }
    attribute {
      name: "strides"
      ints: 1
      ints: 1
      type: INTS
    }
    attribute {
      name: "kernel_shape"
      ints: 3
      ints: 3
      type: INTS
    }
    attribute {
      name: "pads"
      ints: 1
      ints: 1
      ints: 1
      ints: 1
      type: INTS
    }
  }
  node {
    input: "import/hourglass/hg_1/depth1/depth2/low1_1/conv2/conv/Conv2D:0"
    output: "import/hourglass/hg_1/depth1/depth2/low1_1/conv2/conv/Conv2D__88:0"
    name: "import/hourglass/hg_1/depth1/depth2/low1_1/conv2/conv/Conv2D__88"
    op_type: "Transpose"
    attribute {
      name: "perm"
      ints: 0
      ints: 2
      ints: 3
      ints: 1
      type: INTS
    }
  }
  node {
    input: "import/hourglass/hg_1/depth1/depth2/low1_1/conv2/conv/Conv2D__88:0"
    input: "import/hourglass/hg_1/depth1/depth2/low1_1/conv2/conv/bias:0"
    output: "import/hourglass/hg_1/depth1/depth2/low1_1/conv2/conv/BiasAdd:0"
    name: "import/hourglass/hg_1/depth1/depth2/low1_1/conv2/conv/BiasAdd"
    op_type: "Add"
  }
  node {
    input: "import/hourglass/hg_1/depth1/depth2/low1_1/conv2/conv/BiasAdd:0"
    output: "import/hourglass/hg_1/depth1/depth2/low1_1/conv3/BatchNorm/FusedBatchNorm__89:0"
    name: "import/hourglass/hg_1/depth1/depth2/low1_1/conv3/BatchNorm/FusedBatchNorm__89"
    op_type: "Transpose"
    attribute {
      name: "perm"
      ints: 0
      ints: 3
      ints: 1
      ints: 2
      type: INTS
    }
  }
  node {
    input: "import/hourglass/hg_1/depth1/depth2/low1_1/conv3/BatchNorm/FusedBatchNorm__89:0"
    input: "import/hourglass/hg_1/depth1/depth2/low1_1/conv3/BatchNorm/gamma:0"
    input: "import/hourglass/hg_1/depth1/depth2/low1_1/conv3/BatchNorm/beta:0"
    input: "import/hourglass/hg_1/depth1/depth2/low1_1/conv3/BatchNorm/moving_mean:0"
    input: "import/hourglass/hg_1/depth1/depth2/low1_1/conv3/BatchNorm/moving_variance:0"
    output: "import/hourglass/hg_1/depth1/depth2/low1_1/conv3/BatchNorm/FusedBatchNorm:0"
    name: "import/hourglass/hg_1/depth1/depth2/low1_1/conv3/BatchNorm/FusedBatchNorm"
    op_type: "BatchNormalization"
    attribute {
      name: "epsilon"
      f: 0.0010000000474974513
      type: FLOAT
    }
  }
  node {
    input: "import/hourglass/hg_1/depth1/depth2/low1_1/conv3/BatchNorm/FusedBatchNorm:0"
    output: "import/hourglass/hg_1/depth1/depth2/low1_1/conv3/BatchNorm/FusedBatchNorm__90:0"
    name: "import/hourglass/hg_1/depth1/depth2/low1_1/conv3/BatchNorm/FusedBatchNorm__90"
    op_type: "Transpose"
    attribute {
      name: "perm"
      ints: 0
      ints: 2
      ints: 3
      ints: 1
      type: INTS
    }
  }
  node {
    input: "import/hourglass/hg_1/depth1/depth2/low1_1/conv3/BatchNorm/FusedBatchNorm__90:0"
    output: "import/hourglass/hg_1/depth1/depth2/low1_1/conv3/Relu:0"
    name: "import/hourglass/hg_1/depth1/depth2/low1_1/conv3/Relu"
    op_type: "Relu"
  }
  node {
    input: "import/hourglass/hg_1/depth1/depth2/low1_1/conv3/Relu:0"
    output: "import/hourglass/hg_1/depth1/depth2/low1_1/conv3/conv/Conv2D__91:0"
    name: "import/hourglass/hg_1/depth1/depth2/low1_1/conv3/conv/Conv2D__91"
    op_type: "Transpose"
    attribute {
      name: "perm"
      ints: 0
      ints: 3
      ints: 1
      ints: 2
      type: INTS
    }
  }
  node {
    input: "import/hourglass/hg_1/depth1/depth2/low1_1/conv3/conv/Conv2D__91:0"
    input: "import/hourglass/hg_1/depth1/depth2/low1_1/conv3/conv/kernel:0"
    output: "import/hourglass/hg_1/depth1/depth2/low1_1/conv3/conv/Conv2D:0"
    name: "import/hourglass/hg_1/depth1/depth2/low1_1/conv3/conv/Conv2D"
    op_type: "Conv"
    attribute {
      name: "dilations"
      ints: 1
      ints: 1
      type: INTS
    }
    attribute {
      name: "strides"
      ints: 1
      ints: 1
      type: INTS
    }
    attribute {
      name: "kernel_shape"
      ints: 1
      ints: 1
      type: INTS
    }
    attribute {
      name: "pads"
      ints: 0
      ints: 0
      ints: 0
      ints: 0
      type: INTS
    }
  }
  node {
    input: "import/hourglass/hg_1/depth1/depth2/low1_1/conv3/conv/Conv2D:0"
    output: "import/hourglass/hg_1/depth1/depth2/low1_1/conv3/conv/Conv2D__92:0"
    name: "import/hourglass/hg_1/depth1/depth2/low1_1/conv3/conv/Conv2D__92"
    op_type: "Transpose"
    attribute {
      name: "perm"
      ints: 0
      ints: 2
      ints: 3
      ints: 1
      type: INTS
    }
  }
  node {
    input: "import/hourglass/hg_1/depth1/depth2/low1_1/conv3/conv/Conv2D__92:0"
    input: "import/hourglass/hg_1/depth1/depth2/low1_1/conv3/conv/bias:0"
    output: "import/hourglass/hg_1/depth1/depth2/low1_1/conv3/conv/BiasAdd:0"
    name: "import/hourglass/hg_1/depth1/depth2/low1_1/conv3/conv/BiasAdd"
    op_type: "Add"
  }
  node {
    input: "import/hourglass/hg_1/depth1/depth2/low1_1/conv3/conv/BiasAdd:0"
    input: "import/hourglass/hg_1/depth1/depth2/low1_1/skip/Identity:0"
    output: "import/hourglass/hg_1/depth1/depth2/low1_1/add:0"
    name: "import/hourglass/hg_1/depth1/depth2/low1_1/add"
    op_type: "Add"
  }
  node {
    input: "import/hourglass/hg_1/depth1/depth2/low1_1/add:0"
    output: "import/hourglass/hg_1/depth1/depth2/depth3/up1_1/skip/Identity:0"
    name: "import/hourglass/hg_1/depth1/depth2/depth3/up1_1/skip/Identity"
    op_type: "Identity"
  }
  node {
    input: "import/hourglass/hg_1/depth1/depth2/low1_1/add:0"
    output: "import/hourglass/hg_1/depth1/depth2/depth3/up1_1/conv1/BatchNorm/FusedBatchNorm__93:0"
    name: "import/hourglass/hg_1/depth1/depth2/depth3/up1_1/conv1/BatchNorm/FusedBatchNorm__93"
    op_type: "Transpose"
    attribute {
      name: "perm"
      ints: 0
      ints: 3
      ints: 1
      ints: 2
      type: INTS
    }
  }
  node {
    input: "import/hourglass/hg_1/depth1/depth2/depth3/up1_1/conv1/BatchNorm/FusedBatchNorm__93:0"
    input: "import/hourglass/hg_1/depth1/depth2/depth3/up1_1/conv1/BatchNorm/gamma:0"
    input: "import/hourglass/hg_1/depth1/depth2/depth3/up1_1/conv1/BatchNorm/beta:0"
    input: "import/hourglass/hg_1/depth1/depth2/depth3/up1_1/conv1/BatchNorm/moving_mean:0"
    input: "import/hourglass/hg_1/depth1/depth2/depth3/up1_1/conv1/BatchNorm/moving_variance:0"
    output: "import/hourglass/hg_1/depth1/depth2/depth3/up1_1/conv1/BatchNorm/FusedBatchNorm:0"
    name: "import/hourglass/hg_1/depth1/depth2/depth3/up1_1/conv1/BatchNorm/FusedBatchNorm"
    op_type: "BatchNormalization"
    attribute {
      name: "epsilon"
      f: 0.0010000000474974513
      type: FLOAT
    }
  }
  node {
    input: "import/hourglass/hg_1/depth1/depth2/depth3/up1_1/conv1/BatchNorm/FusedBatchNorm:0"
    output: "import/hourglass/hg_1/depth1/depth2/depth3/up1_1/conv1/BatchNorm/FusedBatchNorm__94:0"
    name: "import/hourglass/hg_1/depth1/depth2/depth3/up1_1/conv1/BatchNorm/FusedBatchNorm__94"
    op_type: "Transpose"
    attribute {
      name: "perm"
      ints: 0
      ints: 2
      ints: 3
      ints: 1
      type: INTS
    }
  }
  node {
    input: "import/hourglass/hg_1/depth1/depth2/depth3/up1_1/conv1/BatchNorm/FusedBatchNorm__94:0"
    output: "import/hourglass/hg_1/depth1/depth2/depth3/up1_1/conv1/Relu:0"
    name: "import/hourglass/hg_1/depth1/depth2/depth3/up1_1/conv1/Relu"
    op_type: "Relu"
  }
  node {
    input: "import/hourglass/hg_1/depth1/depth2/depth3/up1_1/conv1/Relu:0"
    output: "import/hourglass/hg_1/depth1/depth2/depth3/up1_1/conv1/conv/Conv2D__95:0"
    name: "import/hourglass/hg_1/depth1/depth2/depth3/up1_1/conv1/conv/Conv2D__95"
    op_type: "Transpose"
    attribute {
      name: "perm"
      ints: 0
      ints: 3
      ints: 1
      ints: 2
      type: INTS
    }
  }
  node {
    input: "import/hourglass/hg_1/depth1/depth2/depth3/up1_1/conv1/conv/Conv2D__95:0"
    input: "import/hourglass/hg_1/depth1/depth2/depth3/up1_1/conv1/conv/kernel:0"
    output: "import/hourglass/hg_1/depth1/depth2/depth3/up1_1/conv1/conv/Conv2D:0"
    name: "import/hourglass/hg_1/depth1/depth2/depth3/up1_1/conv1/conv/Conv2D"
    op_type: "Conv"
    attribute {
      name: "dilations"
      ints: 1
      ints: 1
      type: INTS
    }
    attribute {
      name: "strides"
      ints: 1
      ints: 1
      type: INTS
    }
    attribute {
      name: "kernel_shape"
      ints: 1
      ints: 1
      type: INTS
    }
    attribute {
      name: "pads"
      ints: 0
      ints: 0
      ints: 0
      ints: 0
      type: INTS
    }
  }
  node {
    input: "import/hourglass/hg_1/depth1/depth2/depth3/up1_1/conv1/conv/Conv2D:0"
    output: "import/hourglass/hg_1/depth1/depth2/depth3/up1_1/conv1/conv/Conv2D__96:0"
    name: "import/hourglass/hg_1/depth1/depth2/depth3/up1_1/conv1/conv/Conv2D__96"
    op_type: "Transpose"
    attribute {
      name: "perm"
      ints: 0
      ints: 2
      ints: 3
      ints: 1
      type: INTS
    }
  }
  node {
    input: "import/hourglass/hg_1/depth1/depth2/depth3/up1_1/conv1/conv/Conv2D__96:0"
    input: "import/hourglass/hg_1/depth1/depth2/depth3/up1_1/conv1/conv/bias:0"
    output: "import/hourglass/hg_1/depth1/depth2/depth3/up1_1/conv1/conv/BiasAdd:0"
    name: "import/hourglass/hg_1/depth1/depth2/depth3/up1_1/conv1/conv/BiasAdd"
    op_type: "Add"
  }
  node {
    input: "import/hourglass/hg_1/depth1/depth2/depth3/up1_1/conv1/conv/BiasAdd:0"
    output: "import/hourglass/hg_1/depth1/depth2/depth3/up1_1/conv2/BatchNorm/FusedBatchNorm__97:0"
    name: "import/hourglass/hg_1/depth1/depth2/depth3/up1_1/conv2/BatchNorm/FusedBatchNorm__97"
    op_type: "Transpose"
    attribute {
      name: "perm"
      ints: 0
      ints: 3
      ints: 1
      ints: 2
      type: INTS
    }
  }
  node {
    input: "import/hourglass/hg_1/depth1/depth2/depth3/up1_1/conv2/BatchNorm/FusedBatchNorm__97:0"
    input: "import/hourglass/hg_1/depth1/depth2/depth3/up1_1/conv2/BatchNorm/gamma:0"
    input: "import/hourglass/hg_1/depth1/depth2/depth3/up1_1/conv2/BatchNorm/beta:0"
    input: "import/hourglass/hg_1/depth1/depth2/depth3/up1_1/conv2/BatchNorm/moving_mean:0"
    input: "import/hourglass/hg_1/depth1/depth2/depth3/up1_1/conv2/BatchNorm/moving_variance:0"
    output: "import/hourglass/hg_1/depth1/depth2/depth3/up1_1/conv2/BatchNorm/FusedBatchNorm:0"
    name: "import/hourglass/hg_1/depth1/depth2/depth3/up1_1/conv2/BatchNorm/FusedBatchNorm"
    op_type: "BatchNormalization"
    attribute {
      name: "epsilon"
      f: 0.0010000000474974513
      type: FLOAT
    }
  }
  node {
    input: "import/hourglass/hg_1/depth1/depth2/depth3/up1_1/conv2/BatchNorm/FusedBatchNorm:0"
    output: "import/hourglass/hg_1/depth1/depth2/depth3/up1_1/conv2/BatchNorm/FusedBatchNorm__98:0"
    name: "import/hourglass/hg_1/depth1/depth2/depth3/up1_1/conv2/BatchNorm/FusedBatchNorm__98"
    op_type: "Transpose"
    attribute {
      name: "perm"
      ints: 0
      ints: 2
      ints: 3
      ints: 1
      type: INTS
    }
  }
  node {
    input: "import/hourglass/hg_1/depth1/depth2/depth3/up1_1/conv2/BatchNorm/FusedBatchNorm__98:0"
    output: "import/hourglass/hg_1/depth1/depth2/depth3/up1_1/conv2/Relu:0"
    name: "import/hourglass/hg_1/depth1/depth2/depth3/up1_1/conv2/Relu"
    op_type: "Relu"
  }
  node {
    input: "import/hourglass/hg_1/depth1/depth2/depth3/up1_1/conv2/Relu:0"
    output: "import/hourglass/hg_1/depth1/depth2/depth3/up1_1/conv2/conv/Conv2D__99:0"
    name: "import/hourglass/hg_1/depth1/depth2/depth3/up1_1/conv2/conv/Conv2D__99"
    op_type: "Transpose"
    attribute {
      name: "perm"
      ints: 0
      ints: 3
      ints: 1
      ints: 2
      type: INTS
    }
  }
  node {
    input: "import/hourglass/hg_1/depth1/depth2/depth3/up1_1/conv2/conv/Conv2D__99:0"
    input: "import/hourglass/hg_1/depth1/depth2/depth3/up1_1/conv2/conv/kernel:0"
    output: "import/hourglass/hg_1/depth1/depth2/depth3/up1_1/conv2/conv/Conv2D:0"
    name: "import/hourglass/hg_1/depth1/depth2/depth3/up1_1/conv2/conv/Conv2D"
    op_type: "Conv"
    attribute {
      name: "dilations"
      ints: 1
      ints: 1
      type: INTS
    }
    attribute {
      name: "strides"
      ints: 1
      ints: 1
      type: INTS
    }
    attribute {
      name: "kernel_shape"
      ints: 3
      ints: 3
      type: INTS
    }
    attribute {
      name: "pads"
      ints: 1
      ints: 1
      ints: 1
      ints: 1
      type: INTS
    }
  }
  node {
    input: "import/hourglass/hg_1/depth1/depth2/depth3/up1_1/conv2/conv/Conv2D:0"
    output: "import/hourglass/hg_1/depth1/depth2/depth3/up1_1/conv2/conv/Conv2D__100:0"
    name: "import/hourglass/hg_1/depth1/depth2/depth3/up1_1/conv2/conv/Conv2D__100"
    op_type: "Transpose"
    attribute {
      name: "perm"
      ints: 0
      ints: 2
      ints: 3
      ints: 1
      type: INTS
    }
  }
  node {
    input: "import/hourglass/hg_1/depth1/depth2/depth3/up1_1/conv2/conv/Conv2D__100:0"
    input: "import/hourglass/hg_1/depth1/depth2/depth3/up1_1/conv2/conv/bias:0"
    output: "import/hourglass/hg_1/depth1/depth2/depth3/up1_1/conv2/conv/BiasAdd:0"
    name: "import/hourglass/hg_1/depth1/depth2/depth3/up1_1/conv2/conv/BiasAdd"
    op_type: "Add"
  }
  node {
    input: "import/hourglass/hg_1/depth1/depth2/depth3/up1_1/conv2/conv/BiasAdd:0"
    output: "import/hourglass/hg_1/depth1/depth2/depth3/up1_1/conv3/BatchNorm/FusedBatchNorm__101:0"
    name: "import/hourglass/hg_1/depth1/depth2/depth3/up1_1/conv3/BatchNorm/FusedBatchNorm__101"
    op_type: "Transpose"
    attribute {
      name: "perm"
      ints: 0
      ints: 3
      ints: 1
      ints: 2
      type: INTS
    }
  }
  node {
    input: "import/hourglass/hg_1/depth1/depth2/depth3/up1_1/conv3/BatchNorm/FusedBatchNorm__101:0"
    input: "import/hourglass/hg_1/depth1/depth2/depth3/up1_1/conv3/BatchNorm/gamma:0"
    input: "import/hourglass/hg_1/depth1/depth2/depth3/up1_1/conv3/BatchNorm/beta:0"
    input: "import/hourglass/hg_1/depth1/depth2/depth3/up1_1/conv3/BatchNorm/moving_mean:0"
    input: "import/hourglass/hg_1/depth1/depth2/depth3/up1_1/conv3/BatchNorm/moving_variance:0"
    output: "import/hourglass/hg_1/depth1/depth2/depth3/up1_1/conv3/BatchNorm/FusedBatchNorm:0"
    name: "import/hourglass/hg_1/depth1/depth2/depth3/up1_1/conv3/BatchNorm/FusedBatchNorm"
    op_type: "BatchNormalization"
    attribute {
      name: "epsilon"
      f: 0.0010000000474974513
      type: FLOAT
    }
  }
  node {
    input: "import/hourglass/hg_1/depth1/depth2/depth3/up1_1/conv3/BatchNorm/FusedBatchNorm:0"
    output: "import/hourglass/hg_1/depth1/depth2/depth3/up1_1/conv3/BatchNorm/FusedBatchNorm__102:0"
    name: "import/hourglass/hg_1/depth1/depth2/depth3/up1_1/conv3/BatchNorm/FusedBatchNorm__102"
    op_type: "Transpose"
    attribute {
      name: "perm"
      ints: 0
      ints: 2
      ints: 3
      ints: 1
      type: INTS
    }
  }
  node {
    input: "import/hourglass/hg_1/depth1/depth2/depth3/up1_1/conv3/BatchNorm/FusedBatchNorm__102:0"
    output: "import/hourglass/hg_1/depth1/depth2/depth3/up1_1/conv3/Relu:0"
    name: "import/hourglass/hg_1/depth1/depth2/depth3/up1_1/conv3/Relu"
    op_type: "Relu"
  }
  node {
    input: "import/hourglass/hg_1/depth1/depth2/depth3/up1_1/conv3/Relu:0"
    output: "import/hourglass/hg_1/depth1/depth2/depth3/up1_1/conv3/conv/Conv2D__103:0"
    name: "import/hourglass/hg_1/depth1/depth2/depth3/up1_1/conv3/conv/Conv2D__103"
    op_type: "Transpose"
    attribute {
      name: "perm"
      ints: 0
      ints: 3
      ints: 1
      ints: 2
      type: INTS
    }
  }
  node {
    input: "import/hourglass/hg_1/depth1/depth2/depth3/up1_1/conv3/conv/Conv2D__103:0"
    input: "import/hourglass/hg_1/depth1/depth2/depth3/up1_1/conv3/conv/kernel:0"
    output: "import/hourglass/hg_1/depth1/depth2/depth3/up1_1/conv3/conv/Conv2D:0"
    name: "import/hourglass/hg_1/depth1/depth2/depth3/up1_1/conv3/conv/Conv2D"
    op_type: "Conv"
    attribute {
      name: "dilations"
      ints: 1
      ints: 1
      type: INTS
    }
    attribute {
      name: "strides"
      ints: 1
      ints: 1
      type: INTS
    }
    attribute {
      name: "kernel_shape"
      ints: 1
      ints: 1
      type: INTS
    }
    attribute {
      name: "pads"
      ints: 0
      ints: 0
      ints: 0
      ints: 0
      type: INTS
    }
  }
  node {
    input: "import/hourglass/hg_1/depth1/depth2/depth3/up1_1/conv3/conv/Conv2D:0"
    output: "import/hourglass/hg_1/depth1/depth2/depth3/up1_1/conv3/conv/Conv2D__104:0"
    name: "import/hourglass/hg_1/depth1/depth2/depth3/up1_1/conv3/conv/Conv2D__104"
    op_type: "Transpose"
    attribute {
      name: "perm"
      ints: 0
      ints: 2
      ints: 3
      ints: 1
      type: INTS
    }
  }
  node {
    input: "import/hourglass/hg_1/depth1/depth2/depth3/up1_1/conv3/conv/Conv2D__104:0"
    input: "import/hourglass/hg_1/depth1/depth2/depth3/up1_1/conv3/conv/bias:0"
    output: "import/hourglass/hg_1/depth1/depth2/depth3/up1_1/conv3/conv/BiasAdd:0"
    name: "import/hourglass/hg_1/depth1/depth2/depth3/up1_1/conv3/conv/BiasAdd"
    op_type: "Add"
  }
  node {
    input: "import/hourglass/hg_1/depth1/depth2/depth3/up1_1/conv3/conv/BiasAdd:0"
    input: "import/hourglass/hg_1/depth1/depth2/depth3/up1_1/skip/Identity:0"
    output: "import/hourglass/hg_1/depth1/depth2/depth3/up1_1/add:0"
    name: "import/hourglass/hg_1/depth1/depth2/depth3/up1_1/add"
    op_type: "Add"
  }
  node {
    input: "import/hourglass/hg_1/depth1/depth2/low1_1/add:0"
    output: "import/hourglass/hg_1/depth1/depth2/depth3/pool/MaxPool__105:0"
    name: "import/hourglass/hg_1/depth1/depth2/depth3/pool/MaxPool__105"
    op_type: "Transpose"
    attribute {
      name: "perm"
      ints: 0
      ints: 3
      ints: 1
      ints: 2
      type: INTS
    }
  }
  node {
    input: "import/hourglass/hg_1/depth1/depth2/depth3/pool/MaxPool__105:0"
    output: "import/hourglass/hg_1/depth1/depth2/depth3/pool/MaxPool:0"
    name: "import/hourglass/hg_1/depth1/depth2/depth3/pool/MaxPool"
    op_type: "MaxPool"
    attribute {
      name: "strides"
      ints: 2
      ints: 2
      type: INTS
    }
    attribute {
      name: "kernel_shape"
      ints: 2
      ints: 2
      type: INTS
    }
    attribute {
      name: "pads"
      ints: 0
      ints: 0
      ints: 1
      ints: 1
      type: INTS
    }
  }
  node {
    input: "import/hourglass/hg_1/depth1/depth2/depth3/pool/MaxPool:0"
    output: "import/hourglass/hg_1/depth1/depth2/depth3/pool/MaxPool__106:0"
    name: "import/hourglass/hg_1/depth1/depth2/depth3/pool/MaxPool__106"
    op_type: "Transpose"
    attribute {
      name: "perm"
      ints: 0
      ints: 2
      ints: 3
      ints: 1
      type: INTS
    }
  }
  node {
    input: "import/hourglass/hg_1/depth1/depth2/depth3/pool/MaxPool__106:0"
    output: "import/hourglass/hg_1/depth1/depth2/depth3/low1_1/skip/Identity:0"
    name: "import/hourglass/hg_1/depth1/depth2/depth3/low1_1/skip/Identity"
    op_type: "Identity"
  }
  node {
    input: "import/hourglass/hg_1/depth1/depth2/depth3/pool/MaxPool__106:0"
    output: "import/hourglass/hg_1/depth1/depth2/depth3/low1_1/conv1/BatchNorm/FusedBatchNorm__107:0"
    name: "import/hourglass/hg_1/depth1/depth2/depth3/low1_1/conv1/BatchNorm/FusedBatchNorm__107"
    op_type: "Transpose"
    attribute {
      name: "perm"
      ints: 0
      ints: 3
      ints: 1
      ints: 2
      type: INTS
    }
  }
  node {
    input: "import/hourglass/hg_1/depth1/depth2/depth3/low1_1/conv1/BatchNorm/FusedBatchNorm__107:0"
    input: "import/hourglass/hg_1/depth1/depth2/depth3/low1_1/conv1/BatchNorm/gamma:0"
    input: "import/hourglass/hg_1/depth1/depth2/depth3/low1_1/conv1/BatchNorm/beta:0"
    input: "import/hourglass/hg_1/depth1/depth2/depth3/low1_1/conv1/BatchNorm/moving_mean:0"
    input: "import/hourglass/hg_1/depth1/depth2/depth3/low1_1/conv1/BatchNorm/moving_variance:0"
    output: "import/hourglass/hg_1/depth1/depth2/depth3/low1_1/conv1/BatchNorm/FusedBatchNorm:0"
    name: "import/hourglass/hg_1/depth1/depth2/depth3/low1_1/conv1/BatchNorm/FusedBatchNorm"
    op_type: "BatchNormalization"
    attribute {
      name: "epsilon"
      f: 0.0010000000474974513
      type: FLOAT
    }
  }
  node {
    input: "import/hourglass/hg_1/depth1/depth2/depth3/low1_1/conv1/BatchNorm/FusedBatchNorm:0"
    output: "import/hourglass/hg_1/depth1/depth2/depth3/low1_1/conv1/BatchNorm/FusedBatchNorm__108:0"
    name: "import/hourglass/hg_1/depth1/depth2/depth3/low1_1/conv1/BatchNorm/FusedBatchNorm__108"
    op_type: "Transpose"
    attribute {
      name: "perm"
      ints: 0
      ints: 2
      ints: 3
      ints: 1
      type: INTS
    }
  }
  node {
    input: "import/hourglass/hg_1/depth1/depth2/depth3/low1_1/conv1/BatchNorm/FusedBatchNorm__108:0"
    output: "import/hourglass/hg_1/depth1/depth2/depth3/low1_1/conv1/Relu:0"
    name: "import/hourglass/hg_1/depth1/depth2/depth3/low1_1/conv1/Relu"
    op_type: "Relu"
  }
  node {
    input: "import/hourglass/hg_1/depth1/depth2/depth3/low1_1/conv1/Relu:0"
    output: "import/hourglass/hg_1/depth1/depth2/depth3/low1_1/conv1/conv/Conv2D__109:0"
    name: "import/hourglass/hg_1/depth1/depth2/depth3/low1_1/conv1/conv/Conv2D__109"
    op_type: "Transpose"
    attribute {
      name: "perm"
      ints: 0
      ints: 3
      ints: 1
      ints: 2
      type: INTS
    }
  }
  node {
    input: "import/hourglass/hg_1/depth1/depth2/depth3/low1_1/conv1/conv/Conv2D__109:0"
    input: "import/hourglass/hg_1/depth1/depth2/depth3/low1_1/conv1/conv/kernel:0"
    output: "import/hourglass/hg_1/depth1/depth2/depth3/low1_1/conv1/conv/Conv2D:0"
    name: "import/hourglass/hg_1/depth1/depth2/depth3/low1_1/conv1/conv/Conv2D"
    op_type: "Conv"
    attribute {
      name: "dilations"
      ints: 1
      ints: 1
      type: INTS
    }
    attribute {
      name: "strides"
      ints: 1
      ints: 1
      type: INTS
    }
    attribute {
      name: "kernel_shape"
      ints: 1
      ints: 1
      type: INTS
    }
    attribute {
      name: "pads"
      ints: 0
      ints: 0
      ints: 0
      ints: 0
      type: INTS
    }
  }
  node {
    input: "import/hourglass/hg_1/depth1/depth2/depth3/low1_1/conv1/conv/Conv2D:0"
    output: "import/hourglass/hg_1/depth1/depth2/depth3/low1_1/conv1/conv/Conv2D__110:0"
    name: "import/hourglass/hg_1/depth1/depth2/depth3/low1_1/conv1/conv/Conv2D__110"
    op_type: "Transpose"
    attribute {
      name: "perm"
      ints: 0
      ints: 2
      ints: 3
      ints: 1
      type: INTS
    }
  }
  node {
    input: "import/hourglass/hg_1/depth1/depth2/depth3/low1_1/conv1/conv/Conv2D__110:0"
    input: "import/hourglass/hg_1/depth1/depth2/depth3/low1_1/conv1/conv/bias:0"
    output: "import/hourglass/hg_1/depth1/depth2/depth3/low1_1/conv1/conv/BiasAdd:0"
    name: "import/hourglass/hg_1/depth1/depth2/depth3/low1_1/conv1/conv/BiasAdd"
    op_type: "Add"
  }
  node {
    input: "import/hourglass/hg_1/depth1/depth2/depth3/low1_1/conv1/conv/BiasAdd:0"
    output: "import/hourglass/hg_1/depth1/depth2/depth3/low1_1/conv2/BatchNorm/FusedBatchNorm__111:0"
    name: "import/hourglass/hg_1/depth1/depth2/depth3/low1_1/conv2/BatchNorm/FusedBatchNorm__111"
    op_type: "Transpose"
    attribute {
      name: "perm"
      ints: 0
      ints: 3
      ints: 1
      ints: 2
      type: INTS
    }
  }
  node {
    input: "import/hourglass/hg_1/depth1/depth2/depth3/low1_1/conv2/BatchNorm/FusedBatchNorm__111:0"
    input: "import/hourglass/hg_1/depth1/depth2/depth3/low1_1/conv2/BatchNorm/gamma:0"
    input: "import/hourglass/hg_1/depth1/depth2/depth3/low1_1/conv2/BatchNorm/beta:0"
    input: "import/hourglass/hg_1/depth1/depth2/depth3/low1_1/conv2/BatchNorm/moving_mean:0"
    input: "import/hourglass/hg_1/depth1/depth2/depth3/low1_1/conv2/BatchNorm/moving_variance:0"
    output: "import/hourglass/hg_1/depth1/depth2/depth3/low1_1/conv2/BatchNorm/FusedBatchNorm:0"
    name: "import/hourglass/hg_1/depth1/depth2/depth3/low1_1/conv2/BatchNorm/FusedBatchNorm"
    op_type: "BatchNormalization"
    attribute {
      name: "epsilon"
      f: 0.0010000000474974513
      type: FLOAT
    }
  }
  node {
    input: "import/hourglass/hg_1/depth1/depth2/depth3/low1_1/conv2/BatchNorm/FusedBatchNorm:0"
    output: "import/hourglass/hg_1/depth1/depth2/depth3/low1_1/conv2/BatchNorm/FusedBatchNorm__112:0"
    name: "import/hourglass/hg_1/depth1/depth2/depth3/low1_1/conv2/BatchNorm/FusedBatchNorm__112"
    op_type: "Transpose"
    attribute {
      name: "perm"
      ints: 0
      ints: 2
      ints: 3
      ints: 1
      type: INTS
    }
  }
  node {
    input: "import/hourglass/hg_1/depth1/depth2/depth3/low1_1/conv2/BatchNorm/FusedBatchNorm__112:0"
    output: "import/hourglass/hg_1/depth1/depth2/depth3/low1_1/conv2/Relu:0"
    name: "import/hourglass/hg_1/depth1/depth2/depth3/low1_1/conv2/Relu"
    op_type: "Relu"
  }
  node {
    input: "import/hourglass/hg_1/depth1/depth2/depth3/low1_1/conv2/Relu:0"
    output: "import/hourglass/hg_1/depth1/depth2/depth3/low1_1/conv2/conv/Conv2D__113:0"
    name: "import/hourglass/hg_1/depth1/depth2/depth3/low1_1/conv2/conv/Conv2D__113"
    op_type: "Transpose"
    attribute {
      name: "perm"
      ints: 0
      ints: 3
      ints: 1
      ints: 2
      type: INTS
    }
  }
  node {
    input: "import/hourglass/hg_1/depth1/depth2/depth3/low1_1/conv2/conv/Conv2D__113:0"
    input: "import/hourglass/hg_1/depth1/depth2/depth3/low1_1/conv2/conv/kernel:0"
    output: "import/hourglass/hg_1/depth1/depth2/depth3/low1_1/conv2/conv/Conv2D:0"
    name: "import/hourglass/hg_1/depth1/depth2/depth3/low1_1/conv2/conv/Conv2D"
    op_type: "Conv"
    attribute {
      name: "dilations"
      ints: 1
      ints: 1
      type: INTS
    }
    attribute {
      name: "strides"
      ints: 1
      ints: 1
      type: INTS
    }
    attribute {
      name: "kernel_shape"
      ints: 3
      ints: 3
      type: INTS
    }
    attribute {
      name: "pads"
      ints: 1
      ints: 1
      ints: 1
      ints: 1
      type: INTS
    }
  }
  node {
    input: "import/hourglass/hg_1/depth1/depth2/depth3/low1_1/conv2/conv/Conv2D:0"
    output: "import/hourglass/hg_1/depth1/depth2/depth3/low1_1/conv2/conv/Conv2D__114:0"
    name: "import/hourglass/hg_1/depth1/depth2/depth3/low1_1/conv2/conv/Conv2D__114"
    op_type: "Transpose"
    attribute {
      name: "perm"
      ints: 0
      ints: 2
      ints: 3
      ints: 1
      type: INTS
    }
  }
  node {
    input: "import/hourglass/hg_1/depth1/depth2/depth3/low1_1/conv2/conv/Conv2D__114:0"
    input: "import/hourglass/hg_1/depth1/depth2/depth3/low1_1/conv2/conv/bias:0"
    output: "import/hourglass/hg_1/depth1/depth2/depth3/low1_1/conv2/conv/BiasAdd:0"
    name: "import/hourglass/hg_1/depth1/depth2/depth3/low1_1/conv2/conv/BiasAdd"
    op_type: "Add"
  }
  node {
    input: "import/hourglass/hg_1/depth1/depth2/depth3/low1_1/conv2/conv/BiasAdd:0"
    output: "import/hourglass/hg_1/depth1/depth2/depth3/low1_1/conv3/BatchNorm/FusedBatchNorm__115:0"
    name: "import/hourglass/hg_1/depth1/depth2/depth3/low1_1/conv3/BatchNorm/FusedBatchNorm__115"
    op_type: "Transpose"
    attribute {
      name: "perm"
      ints: 0
      ints: 3
      ints: 1
      ints: 2
      type: INTS
    }
  }
  node {
    input: "import/hourglass/hg_1/depth1/depth2/depth3/low1_1/conv3/BatchNorm/FusedBatchNorm__115:0"
    input: "import/hourglass/hg_1/depth1/depth2/depth3/low1_1/conv3/BatchNorm/gamma:0"
    input: "import/hourglass/hg_1/depth1/depth2/depth3/low1_1/conv3/BatchNorm/beta:0"
    input: "import/hourglass/hg_1/depth1/depth2/depth3/low1_1/conv3/BatchNorm/moving_mean:0"
    input: "import/hourglass/hg_1/depth1/depth2/depth3/low1_1/conv3/BatchNorm/moving_variance:0"
    output: "import/hourglass/hg_1/depth1/depth2/depth3/low1_1/conv3/BatchNorm/FusedBatchNorm:0"
    name: "import/hourglass/hg_1/depth1/depth2/depth3/low1_1/conv3/BatchNorm/FusedBatchNorm"
    op_type: "BatchNormalization"
    attribute {
      name: "epsilon"
      f: 0.0010000000474974513
      type: FLOAT
    }
  }
  node {
    input: "import/hourglass/hg_1/depth1/depth2/depth3/low1_1/conv3/BatchNorm/FusedBatchNorm:0"
    output: "import/hourglass/hg_1/depth1/depth2/depth3/low1_1/conv3/BatchNorm/FusedBatchNorm__116:0"
    name: "import/hourglass/hg_1/depth1/depth2/depth3/low1_1/conv3/BatchNorm/FusedBatchNorm__116"
    op_type: "Transpose"
    attribute {
      name: "perm"
      ints: 0
      ints: 2
      ints: 3
      ints: 1
      type: INTS
    }
  }
  node {
    input: "import/hourglass/hg_1/depth1/depth2/depth3/low1_1/conv3/BatchNorm/FusedBatchNorm__116:0"
    output: "import/hourglass/hg_1/depth1/depth2/depth3/low1_1/conv3/Relu:0"
    name: "import/hourglass/hg_1/depth1/depth2/depth3/low1_1/conv3/Relu"
    op_type: "Relu"
  }
  node {
    input: "import/hourglass/hg_1/depth1/depth2/depth3/low1_1/conv3/Relu:0"
    output: "import/hourglass/hg_1/depth1/depth2/depth3/low1_1/conv3/conv/Conv2D__117:0"
    name: "import/hourglass/hg_1/depth1/depth2/depth3/low1_1/conv3/conv/Conv2D__117"
    op_type: "Transpose"
    attribute {
      name: "perm"
      ints: 0
      ints: 3
      ints: 1
      ints: 2
      type: INTS
    }
  }
  node {
    input: "import/hourglass/hg_1/depth1/depth2/depth3/low1_1/conv3/conv/Conv2D__117:0"
    input: "import/hourglass/hg_1/depth1/depth2/depth3/low1_1/conv3/conv/kernel:0"
    output: "import/hourglass/hg_1/depth1/depth2/depth3/low1_1/conv3/conv/Conv2D:0"
    name: "import/hourglass/hg_1/depth1/depth2/depth3/low1_1/conv3/conv/Conv2D"
    op_type: "Conv"
    attribute {
      name: "dilations"
      ints: 1
      ints: 1
      type: INTS
    }
    attribute {
      name: "strides"
      ints: 1
      ints: 1
      type: INTS
    }
    attribute {
      name: "kernel_shape"
      ints: 1
      ints: 1
      type: INTS
    }
    attribute {
      name: "pads"
      ints: 0
      ints: 0
      ints: 0
      ints: 0
      type: INTS
    }
  }
  node {
    input: "import/hourglass/hg_1/depth1/depth2/depth3/low1_1/conv3/conv/Conv2D:0"
    output: "import/hourglass/hg_1/depth1/depth2/depth3/low1_1/conv3/conv/Conv2D__118:0"
    name: "import/hourglass/hg_1/depth1/depth2/depth3/low1_1/conv3/conv/Conv2D__118"
    op_type: "Transpose"
    attribute {
      name: "perm"
      ints: 0
      ints: 2
      ints: 3
      ints: 1
      type: INTS
    }
  }
  node {
    input: "import/hourglass/hg_1/depth1/depth2/depth3/low1_1/conv3/conv/Conv2D__118:0"
    input: "import/hourglass/hg_1/depth1/depth2/depth3/low1_1/conv3/conv/bias:0"
    output: "import/hourglass/hg_1/depth1/depth2/depth3/low1_1/conv3/conv/BiasAdd:0"
    name: "import/hourglass/hg_1/depth1/depth2/depth3/low1_1/conv3/conv/BiasAdd"
    op_type: "Add"
  }
  node {
    input: "import/hourglass/hg_1/depth1/depth2/depth3/low1_1/conv3/conv/BiasAdd:0"
    input: "import/hourglass/hg_1/depth1/depth2/depth3/low1_1/skip/Identity:0"
    output: "import/hourglass/hg_1/depth1/depth2/depth3/low1_1/add:0"
    name: "import/hourglass/hg_1/depth1/depth2/depth3/low1_1/add"
    op_type: "Add"
  }
  node {
    input: "import/hourglass/hg_1/depth1/depth2/depth3/low1_1/add:0"
    output: "import/hourglass/hg_1/depth1/depth2/depth3/depth4/up1_1/skip/Identity:0"
    name: "import/hourglass/hg_1/depth1/depth2/depth3/depth4/up1_1/skip/Identity"
    op_type: "Identity"
  }
  node {
    input: "import/hourglass/hg_1/depth1/depth2/depth3/low1_1/add:0"
    output: "import/hourglass/hg_1/depth1/depth2/depth3/depth4/up1_1/conv1/BatchNorm/FusedBatchNorm__119:0"
    name: "import/hourglass/hg_1/depth1/depth2/depth3/depth4/up1_1/conv1/BatchNorm/FusedBatchNorm__119"
    op_type: "Transpose"
    attribute {
      name: "perm"
      ints: 0
      ints: 3
      ints: 1
      ints: 2
      type: INTS
    }
  }
  node {
    input: "import/hourglass/hg_1/depth1/depth2/depth3/depth4/up1_1/conv1/BatchNorm/FusedBatchNorm__119:0"
    input: "import/hourglass/hg_1/depth1/depth2/depth3/depth4/up1_1/conv1/BatchNorm/gamma:0"
    input: "import/hourglass/hg_1/depth1/depth2/depth3/depth4/up1_1/conv1/BatchNorm/beta:0"
    input: "import/hourglass/hg_1/depth1/depth2/depth3/depth4/up1_1/conv1/BatchNorm/moving_mean:0"
    input: "import/hourglass/hg_1/depth1/depth2/depth3/depth4/up1_1/conv1/BatchNorm/moving_variance:0"
    output: "import/hourglass/hg_1/depth1/depth2/depth3/depth4/up1_1/conv1/BatchNorm/FusedBatchNorm:0"
    name: "import/hourglass/hg_1/depth1/depth2/depth3/depth4/up1_1/conv1/BatchNorm/FusedBatchNorm"
    op_type: "BatchNormalization"
    attribute {
      name: "epsilon"
      f: 0.0010000000474974513
      type: FLOAT
    }
  }
  node {
    input: "import/hourglass/hg_1/depth1/depth2/depth3/depth4/up1_1/conv1/BatchNorm/FusedBatchNorm:0"
    output: "import/hourglass/hg_1/depth1/depth2/depth3/depth4/up1_1/conv1/BatchNorm/FusedBatchNorm__120:0"
    name: "import/hourglass/hg_1/depth1/depth2/depth3/depth4/up1_1/conv1/BatchNorm/FusedBatchNorm__120"
    op_type: "Transpose"
    attribute {
      name: "perm"
      ints: 0
      ints: 2
      ints: 3
      ints: 1
      type: INTS
    }
  }
  node {
    input: "import/hourglass/hg_1/depth1/depth2/depth3/depth4/up1_1/conv1/BatchNorm/FusedBatchNorm__120:0"
    output: "import/hourglass/hg_1/depth1/depth2/depth3/depth4/up1_1/conv1/Relu:0"
    name: "import/hourglass/hg_1/depth1/depth2/depth3/depth4/up1_1/conv1/Relu"
    op_type: "Relu"
  }
  node {
    input: "import/hourglass/hg_1/depth1/depth2/depth3/depth4/up1_1/conv1/Relu:0"
    output: "import/hourglass/hg_1/depth1/depth2/depth3/depth4/up1_1/conv1/conv/Conv2D__121:0"
    name: "import/hourglass/hg_1/depth1/depth2/depth3/depth4/up1_1/conv1/conv/Conv2D__121"
    op_type: "Transpose"
    attribute {
      name: "perm"
      ints: 0
      ints: 3
      ints: 1
      ints: 2
      type: INTS
    }
  }
  node {
    input: "import/hourglass/hg_1/depth1/depth2/depth3/depth4/up1_1/conv1/conv/Conv2D__121:0"
    input: "import/hourglass/hg_1/depth1/depth2/depth3/depth4/up1_1/conv1/conv/kernel:0"
    output: "import/hourglass/hg_1/depth1/depth2/depth3/depth4/up1_1/conv1/conv/Conv2D:0"
    name: "import/hourglass/hg_1/depth1/depth2/depth3/depth4/up1_1/conv1/conv/Conv2D"
    op_type: "Conv"
    attribute {
      name: "dilations"
      ints: 1
      ints: 1
      type: INTS
    }
    attribute {
      name: "strides"
      ints: 1
      ints: 1
      type: INTS
    }
    attribute {
      name: "kernel_shape"
      ints: 1
      ints: 1
      type: INTS
    }
    attribute {
      name: "pads"
      ints: 0
      ints: 0
      ints: 0
      ints: 0
      type: INTS
    }
  }
  node {
    input: "import/hourglass/hg_1/depth1/depth2/depth3/depth4/up1_1/conv1/conv/Conv2D:0"
    output: "import/hourglass/hg_1/depth1/depth2/depth3/depth4/up1_1/conv1/conv/Conv2D__122:0"
    name: "import/hourglass/hg_1/depth1/depth2/depth3/depth4/up1_1/conv1/conv/Conv2D__122"
    op_type: "Transpose"
    attribute {
      name: "perm"
      ints: 0
      ints: 2
      ints: 3
      ints: 1
      type: INTS
    }
  }
  node {
    input: "import/hourglass/hg_1/depth1/depth2/depth3/depth4/up1_1/conv1/conv/Conv2D__122:0"
    input: "import/hourglass/hg_1/depth1/depth2/depth3/depth4/up1_1/conv1/conv/bias:0"
    output: "import/hourglass/hg_1/depth1/depth2/depth3/depth4/up1_1/conv1/conv/BiasAdd:0"
    name: "import/hourglass/hg_1/depth1/depth2/depth3/depth4/up1_1/conv1/conv/BiasAdd"
    op_type: "Add"
  }
  node {
    input: "import/hourglass/hg_1/depth1/depth2/depth3/depth4/up1_1/conv1/conv/BiasAdd:0"
    output: "import/hourglass/hg_1/depth1/depth2/depth3/depth4/up1_1/conv2/BatchNorm/FusedBatchNorm__123:0"
    name: "import/hourglass/hg_1/depth1/depth2/depth3/depth4/up1_1/conv2/BatchNorm/FusedBatchNorm__123"
    op_type: "Transpose"
    attribute {
      name: "perm"
      ints: 0
      ints: 3
      ints: 1
      ints: 2
      type: INTS
    }
  }
  node {
    input: "import/hourglass/hg_1/depth1/depth2/depth3/depth4/up1_1/conv2/BatchNorm/FusedBatchNorm__123:0"
    input: "import/hourglass/hg_1/depth1/depth2/depth3/depth4/up1_1/conv2/BatchNorm/gamma:0"
    input: "import/hourglass/hg_1/depth1/depth2/depth3/depth4/up1_1/conv2/BatchNorm/beta:0"
    input: "import/hourglass/hg_1/depth1/depth2/depth3/depth4/up1_1/conv2/BatchNorm/moving_mean:0"
    input: "import/hourglass/hg_1/depth1/depth2/depth3/depth4/up1_1/conv2/BatchNorm/moving_variance:0"
    output: "import/hourglass/hg_1/depth1/depth2/depth3/depth4/up1_1/conv2/BatchNorm/FusedBatchNorm:0"
    name: "import/hourglass/hg_1/depth1/depth2/depth3/depth4/up1_1/conv2/BatchNorm/FusedBatchNorm"
    op_type: "BatchNormalization"
    attribute {
      name: "epsilon"
      f: 0.0010000000474974513
      type: FLOAT
    }
  }
  node {
    input: "import/hourglass/hg_1/depth1/depth2/depth3/depth4/up1_1/conv2/BatchNorm/FusedBatchNorm:0"
    output: "import/hourglass/hg_1/depth1/depth2/depth3/depth4/up1_1/conv2/BatchNorm/FusedBatchNorm__124:0"
    name: "import/hourglass/hg_1/depth1/depth2/depth3/depth4/up1_1/conv2/BatchNorm/FusedBatchNorm__124"
    op_type: "Transpose"
    attribute {
      name: "perm"
      ints: 0
      ints: 2
      ints: 3
      ints: 1
      type: INTS
    }
  }
  node {
    input: "import/hourglass/hg_1/depth1/depth2/depth3/depth4/up1_1/conv2/BatchNorm/FusedBatchNorm__124:0"
    output: "import/hourglass/hg_1/depth1/depth2/depth3/depth4/up1_1/conv2/Relu:0"
    name: "import/hourglass/hg_1/depth1/depth2/depth3/depth4/up1_1/conv2/Relu"
    op_type: "Relu"
  }
  node {
    input: "import/hourglass/hg_1/depth1/depth2/depth3/depth4/up1_1/conv2/Relu:0"
    output: "import/hourglass/hg_1/depth1/depth2/depth3/depth4/up1_1/conv2/conv/Conv2D__125:0"
    name: "import/hourglass/hg_1/depth1/depth2/depth3/depth4/up1_1/conv2/conv/Conv2D__125"
    op_type: "Transpose"
    attribute {
      name: "perm"
      ints: 0
      ints: 3
      ints: 1
      ints: 2
      type: INTS
    }
  }
  node {
    input: "import/hourglass/hg_1/depth1/depth2/depth3/depth4/up1_1/conv2/conv/Conv2D__125:0"
    input: "import/hourglass/hg_1/depth1/depth2/depth3/depth4/up1_1/conv2/conv/kernel:0"
    output: "import/hourglass/hg_1/depth1/depth2/depth3/depth4/up1_1/conv2/conv/Conv2D:0"
    name: "import/hourglass/hg_1/depth1/depth2/depth3/depth4/up1_1/conv2/conv/Conv2D"
    op_type: "Conv"
    attribute {
      name: "dilations"
      ints: 1
      ints: 1
      type: INTS
    }
    attribute {
      name: "strides"
      ints: 1
      ints: 1
      type: INTS
    }
    attribute {
      name: "kernel_shape"
      ints: 3
      ints: 3
      type: INTS
    }
    attribute {
      name: "pads"
      ints: 1
      ints: 1
      ints: 1
      ints: 1
      type: INTS
    }
  }
  node {
    input: "import/hourglass/hg_1/depth1/depth2/depth3/depth4/up1_1/conv2/conv/Conv2D:0"
    output: "import/hourglass/hg_1/depth1/depth2/depth3/depth4/up1_1/conv2/conv/Conv2D__126:0"
    name: "import/hourglass/hg_1/depth1/depth2/depth3/depth4/up1_1/conv2/conv/Conv2D__126"
    op_type: "Transpose"
    attribute {
      name: "perm"
      ints: 0
      ints: 2
      ints: 3
      ints: 1
      type: INTS
    }
  }
  node {
    input: "import/hourglass/hg_1/depth1/depth2/depth3/depth4/up1_1/conv2/conv/Conv2D__126:0"
    input: "import/hourglass/hg_1/depth1/depth2/depth3/depth4/up1_1/conv2/conv/bias:0"
    output: "import/hourglass/hg_1/depth1/depth2/depth3/depth4/up1_1/conv2/conv/BiasAdd:0"
    name: "import/hourglass/hg_1/depth1/depth2/depth3/depth4/up1_1/conv2/conv/BiasAdd"
    op_type: "Add"
  }
  node {
    input: "import/hourglass/hg_1/depth1/depth2/depth3/depth4/up1_1/conv2/conv/BiasAdd:0"
    output: "import/hourglass/hg_1/depth1/depth2/depth3/depth4/up1_1/conv3/BatchNorm/FusedBatchNorm__127:0"
    name: "import/hourglass/hg_1/depth1/depth2/depth3/depth4/up1_1/conv3/BatchNorm/FusedBatchNorm__127"
    op_type: "Transpose"
    attribute {
      name: "perm"
      ints: 0
      ints: 3
      ints: 1
      ints: 2
      type: INTS
    }
  }
  node {
    input: "import/hourglass/hg_1/depth1/depth2/depth3/depth4/up1_1/conv3/BatchNorm/FusedBatchNorm__127:0"
    input: "import/hourglass/hg_1/depth1/depth2/depth3/depth4/up1_1/conv3/BatchNorm/gamma:0"
    input: "import/hourglass/hg_1/depth1/depth2/depth3/depth4/up1_1/conv3/BatchNorm/beta:0"
    input: "import/hourglass/hg_1/depth1/depth2/depth3/depth4/up1_1/conv3/BatchNorm/moving_mean:0"
    input: "import/hourglass/hg_1/depth1/depth2/depth3/depth4/up1_1/conv3/BatchNorm/moving_variance:0"
    output: "import/hourglass/hg_1/depth1/depth2/depth3/depth4/up1_1/conv3/BatchNorm/FusedBatchNorm:0"
    name: "import/hourglass/hg_1/depth1/depth2/depth3/depth4/up1_1/conv3/BatchNorm/FusedBatchNorm"
    op_type: "BatchNormalization"
    attribute {
      name: "epsilon"
      f: 0.0010000000474974513
      type: FLOAT
    }
  }
  node {
    input: "import/hourglass/hg_1/depth1/depth2/depth3/depth4/up1_1/conv3/BatchNorm/FusedBatchNorm:0"
    output: "import/hourglass/hg_1/depth1/depth2/depth3/depth4/up1_1/conv3/BatchNorm/FusedBatchNorm__128:0"
    name: "import/hourglass/hg_1/depth1/depth2/depth3/depth4/up1_1/conv3/BatchNorm/FusedBatchNorm__128"
    op_type: "Transpose"
    attribute {
      name: "perm"
      ints: 0
      ints: 2
      ints: 3
      ints: 1
      type: INTS
    }
  }
  node {
    input: "import/hourglass/hg_1/depth1/depth2/depth3/depth4/up1_1/conv3/BatchNorm/FusedBatchNorm__128:0"
    output: "import/hourglass/hg_1/depth1/depth2/depth3/depth4/up1_1/conv3/Relu:0"
    name: "import/hourglass/hg_1/depth1/depth2/depth3/depth4/up1_1/conv3/Relu"
    op_type: "Relu"
  }
  node {
    input: "import/hourglass/hg_1/depth1/depth2/depth3/depth4/up1_1/conv3/Relu:0"
    output: "import/hourglass/hg_1/depth1/depth2/depth3/depth4/up1_1/conv3/conv/Conv2D__129:0"
    name: "import/hourglass/hg_1/depth1/depth2/depth3/depth4/up1_1/conv3/conv/Conv2D__129"
    op_type: "Transpose"
    attribute {
      name: "perm"
      ints: 0
      ints: 3
      ints: 1
      ints: 2
      type: INTS
    }
  }
  node {
    input: "import/hourglass/hg_1/depth1/depth2/depth3/depth4/up1_1/conv3/conv/Conv2D__129:0"
    input: "import/hourglass/hg_1/depth1/depth2/depth3/depth4/up1_1/conv3/conv/kernel:0"
    output: "import/hourglass/hg_1/depth1/depth2/depth3/depth4/up1_1/conv3/conv/Conv2D:0"
    name: "import/hourglass/hg_1/depth1/depth2/depth3/depth4/up1_1/conv3/conv/Conv2D"
    op_type: "Conv"
    attribute {
      name: "dilations"
      ints: 1
      ints: 1
      type: INTS
    }
    attribute {
      name: "strides"
      ints: 1
      ints: 1
      type: INTS
    }
    attribute {
      name: "kernel_shape"
      ints: 1
      ints: 1
      type: INTS
    }
    attribute {
      name: "pads"
      ints: 0
      ints: 0
      ints: 0
      ints: 0
      type: INTS
    }
  }
  node {
    input: "import/hourglass/hg_1/depth1/depth2/depth3/depth4/up1_1/conv3/conv/Conv2D:0"
    output: "import/hourglass/hg_1/depth1/depth2/depth3/depth4/up1_1/conv3/conv/Conv2D__130:0"
    name: "import/hourglass/hg_1/depth1/depth2/depth3/depth4/up1_1/conv3/conv/Conv2D__130"
    op_type: "Transpose"
    attribute {
      name: "perm"
      ints: 0
      ints: 2
      ints: 3
      ints: 1
      type: INTS
    }
  }
  node {
    input: "import/hourglass/hg_1/depth1/depth2/depth3/depth4/up1_1/conv3/conv/Conv2D__130:0"
    input: "import/hourglass/hg_1/depth1/depth2/depth3/depth4/up1_1/conv3/conv/bias:0"
    output: "import/hourglass/hg_1/depth1/depth2/depth3/depth4/up1_1/conv3/conv/BiasAdd:0"
    name: "import/hourglass/hg_1/depth1/depth2/depth3/depth4/up1_1/conv3/conv/BiasAdd"
    op_type: "Add"
  }
  node {
    input: "import/hourglass/hg_1/depth1/depth2/depth3/depth4/up1_1/conv3/conv/BiasAdd:0"
    input: "import/hourglass/hg_1/depth1/depth2/depth3/depth4/up1_1/skip/Identity:0"
    output: "import/hourglass/hg_1/depth1/depth2/depth3/depth4/up1_1/add:0"
    name: "import/hourglass/hg_1/depth1/depth2/depth3/depth4/up1_1/add"
    op_type: "Add"
  }
  node {
    input: "import/hourglass/hg_1/depth1/depth2/depth3/low1_1/add:0"
    output: "import/hourglass/hg_1/depth1/depth2/depth3/depth4/pool/MaxPool__131:0"
    name: "import/hourglass/hg_1/depth1/depth2/depth3/depth4/pool/MaxPool__131"
    op_type: "Transpose"
    attribute {
      name: "perm"
      ints: 0
      ints: 3
      ints: 1
      ints: 2
      type: INTS
    }
  }
  node {
    input: "import/hourglass/hg_1/depth1/depth2/depth3/depth4/pool/MaxPool__131:0"
    output: "import/hourglass/hg_1/depth1/depth2/depth3/depth4/pool/MaxPool:0"
    name: "import/hourglass/hg_1/depth1/depth2/depth3/depth4/pool/MaxPool"
    op_type: "MaxPool"
    attribute {
      name: "strides"
      ints: 2
      ints: 2
      type: INTS
    }
    attribute {
      name: "kernel_shape"
      ints: 2
      ints: 2
      type: INTS
    }
    attribute {
      name: "pads"
      ints: 0
      ints: 0
      ints: 1
      ints: 0
      type: INTS
    }
  }
  node {
    input: "import/hourglass/hg_1/depth1/depth2/depth3/depth4/pool/MaxPool:0"
    output: "import/hourglass/hg_1/depth1/depth2/depth3/depth4/pool/MaxPool__132:0"
    name: "import/hourglass/hg_1/depth1/depth2/depth3/depth4/pool/MaxPool__132"
    op_type: "Transpose"
    attribute {
      name: "perm"
      ints: 0
      ints: 2
      ints: 3
      ints: 1
      type: INTS
    }
  }
  node {
    input: "import/hourglass/hg_1/depth1/depth2/depth3/depth4/pool/MaxPool__132:0"
    output: "import/hourglass/hg_1/depth1/depth2/depth3/depth4/low1_1/skip/Identity:0"
    name: "import/hourglass/hg_1/depth1/depth2/depth3/depth4/low1_1/skip/Identity"
    op_type: "Identity"
  }
  node {
    input: "import/hourglass/hg_1/depth1/depth2/depth3/depth4/pool/MaxPool__132:0"
    output: "import/hourglass/hg_1/depth1/depth2/depth3/depth4/low1_1/conv1/BatchNorm/FusedBatchNorm__133:0"
    name: "import/hourglass/hg_1/depth1/depth2/depth3/depth4/low1_1/conv1/BatchNorm/FusedBatchNorm__133"
    op_type: "Transpose"
    attribute {
      name: "perm"
      ints: 0
      ints: 3
      ints: 1
      ints: 2
      type: INTS
    }
  }
  node {
    input: "import/hourglass/hg_1/depth1/depth2/depth3/depth4/low1_1/conv1/BatchNorm/FusedBatchNorm__133:0"
    input: "import/hourglass/hg_1/depth1/depth2/depth3/depth4/low1_1/conv1/BatchNorm/gamma:0"
    input: "import/hourglass/hg_1/depth1/depth2/depth3/depth4/low1_1/conv1/BatchNorm/beta:0"
    input: "import/hourglass/hg_1/depth1/depth2/depth3/depth4/low1_1/conv1/BatchNorm/moving_mean:0"
    input: "import/hourglass/hg_1/depth1/depth2/depth3/depth4/low1_1/conv1/BatchNorm/moving_variance:0"
    output: "import/hourglass/hg_1/depth1/depth2/depth3/depth4/low1_1/conv1/BatchNorm/FusedBatchNorm:0"
    name: "import/hourglass/hg_1/depth1/depth2/depth3/depth4/low1_1/conv1/BatchNorm/FusedBatchNorm"
    op_type: "BatchNormalization"
    attribute {
      name: "epsilon"
      f: 0.0010000000474974513
      type: FLOAT
    }
  }
  node {
    input: "import/hourglass/hg_1/depth1/depth2/depth3/depth4/low1_1/conv1/BatchNorm/FusedBatchNorm:0"
    output: "import/hourglass/hg_1/depth1/depth2/depth3/depth4/low1_1/conv1/BatchNorm/FusedBatchNorm__134:0"
    name: "import/hourglass/hg_1/depth1/depth2/depth3/depth4/low1_1/conv1/BatchNorm/FusedBatchNorm__134"
    op_type: "Transpose"
    attribute {
      name: "perm"
      ints: 0
      ints: 2
      ints: 3
      ints: 1
      type: INTS
    }
  }
  node {
    input: "import/hourglass/hg_1/depth1/depth2/depth3/depth4/low1_1/conv1/BatchNorm/FusedBatchNorm__134:0"
    output: "import/hourglass/hg_1/depth1/depth2/depth3/depth4/low1_1/conv1/Relu:0"
    name: "import/hourglass/hg_1/depth1/depth2/depth3/depth4/low1_1/conv1/Relu"
    op_type: "Relu"
  }
  node {
    input: "import/hourglass/hg_1/depth1/depth2/depth3/depth4/low1_1/conv1/Relu:0"
    output: "import/hourglass/hg_1/depth1/depth2/depth3/depth4/low1_1/conv1/conv/Conv2D__135:0"
    name: "import/hourglass/hg_1/depth1/depth2/depth3/depth4/low1_1/conv1/conv/Conv2D__135"
    op_type: "Transpose"
    attribute {
      name: "perm"
      ints: 0
      ints: 3
      ints: 1
      ints: 2
      type: INTS
    }
  }
  node {
    input: "import/hourglass/hg_1/depth1/depth2/depth3/depth4/low1_1/conv1/conv/Conv2D__135:0"
    input: "import/hourglass/hg_1/depth1/depth2/depth3/depth4/low1_1/conv1/conv/kernel:0"
    output: "import/hourglass/hg_1/depth1/depth2/depth3/depth4/low1_1/conv1/conv/Conv2D:0"
    name: "import/hourglass/hg_1/depth1/depth2/depth3/depth4/low1_1/conv1/conv/Conv2D"
    op_type: "Conv"
    attribute {
      name: "dilations"
      ints: 1
      ints: 1
      type: INTS
    }
    attribute {
      name: "strides"
      ints: 1
      ints: 1
      type: INTS
    }
    attribute {
      name: "kernel_shape"
      ints: 1
      ints: 1
      type: INTS
    }
    attribute {
      name: "pads"
      ints: 0
      ints: 0
      ints: 0
      ints: 0
      type: INTS
    }
  }
  node {
    input: "import/hourglass/hg_1/depth1/depth2/depth3/depth4/low1_1/conv1/conv/Conv2D:0"
    output: "import/hourglass/hg_1/depth1/depth2/depth3/depth4/low1_1/conv1/conv/Conv2D__136:0"
    name: "import/hourglass/hg_1/depth1/depth2/depth3/depth4/low1_1/conv1/conv/Conv2D__136"
    op_type: "Transpose"
    attribute {
      name: "perm"
      ints: 0
      ints: 2
      ints: 3
      ints: 1
      type: INTS
    }
  }
  node {
    input: "import/hourglass/hg_1/depth1/depth2/depth3/depth4/low1_1/conv1/conv/Conv2D__136:0"
    input: "import/hourglass/hg_1/depth1/depth2/depth3/depth4/low1_1/conv1/conv/bias:0"
    output: "import/hourglass/hg_1/depth1/depth2/depth3/depth4/low1_1/conv1/conv/BiasAdd:0"
    name: "import/hourglass/hg_1/depth1/depth2/depth3/depth4/low1_1/conv1/conv/BiasAdd"
    op_type: "Add"
  }
  node {
    input: "import/hourglass/hg_1/depth1/depth2/depth3/depth4/low1_1/conv1/conv/BiasAdd:0"
    output: "import/hourglass/hg_1/depth1/depth2/depth3/depth4/low1_1/conv2/BatchNorm/FusedBatchNorm__137:0"
    name: "import/hourglass/hg_1/depth1/depth2/depth3/depth4/low1_1/conv2/BatchNorm/FusedBatchNorm__137"
    op_type: "Transpose"
    attribute {
      name: "perm"
      ints: 0
      ints: 3
      ints: 1
      ints: 2
      type: INTS
    }
  }
  node {
    input: "import/hourglass/hg_1/depth1/depth2/depth3/depth4/low1_1/conv2/BatchNorm/FusedBatchNorm__137:0"
    input: "import/hourglass/hg_1/depth1/depth2/depth3/depth4/low1_1/conv2/BatchNorm/gamma:0"
    input: "import/hourglass/hg_1/depth1/depth2/depth3/depth4/low1_1/conv2/BatchNorm/beta:0"
    input: "import/hourglass/hg_1/depth1/depth2/depth3/depth4/low1_1/conv2/BatchNorm/moving_mean:0"
    input: "import/hourglass/hg_1/depth1/depth2/depth3/depth4/low1_1/conv2/BatchNorm/moving_variance:0"
    output: "import/hourglass/hg_1/depth1/depth2/depth3/depth4/low1_1/conv2/BatchNorm/FusedBatchNorm:0"
    name: "import/hourglass/hg_1/depth1/depth2/depth3/depth4/low1_1/conv2/BatchNorm/FusedBatchNorm"
    op_type: "BatchNormalization"
    attribute {
      name: "epsilon"
      f: 0.0010000000474974513
      type: FLOAT
    }
  }
  node {
    input: "import/hourglass/hg_1/depth1/depth2/depth3/depth4/low1_1/conv2/BatchNorm/FusedBatchNorm:0"
    output: "import/hourglass/hg_1/depth1/depth2/depth3/depth4/low1_1/conv2/BatchNorm/FusedBatchNorm__138:0"
    name: "import/hourglass/hg_1/depth1/depth2/depth3/depth4/low1_1/conv2/BatchNorm/FusedBatchNorm__138"
    op_type: "Transpose"
    attribute {
      name: "perm"
      ints: 0
      ints: 2
      ints: 3
      ints: 1
      type: INTS
    }
  }
  node {
    input: "import/hourglass/hg_1/depth1/depth2/depth3/depth4/low1_1/conv2/BatchNorm/FusedBatchNorm__138:0"
    output: "import/hourglass/hg_1/depth1/depth2/depth3/depth4/low1_1/conv2/Relu:0"
    name: "import/hourglass/hg_1/depth1/depth2/depth3/depth4/low1_1/conv2/Relu"
    op_type: "Relu"
  }
  node {
    input: "import/hourglass/hg_1/depth1/depth2/depth3/depth4/low1_1/conv2/Relu:0"
    output: "import/hourglass/hg_1/depth1/depth2/depth3/depth4/low1_1/conv2/conv/Conv2D__139:0"
    name: "import/hourglass/hg_1/depth1/depth2/depth3/depth4/low1_1/conv2/conv/Conv2D__139"
    op_type: "Transpose"
    attribute {
      name: "perm"
      ints: 0
      ints: 3
      ints: 1
      ints: 2
      type: INTS
    }
  }
  node {
    input: "import/hourglass/hg_1/depth1/depth2/depth3/depth4/low1_1/conv2/conv/Conv2D__139:0"
    input: "import/hourglass/hg_1/depth1/depth2/depth3/depth4/low1_1/conv2/conv/kernel:0"
    output: "import/hourglass/hg_1/depth1/depth2/depth3/depth4/low1_1/conv2/conv/Conv2D:0"
    name: "import/hourglass/hg_1/depth1/depth2/depth3/depth4/low1_1/conv2/conv/Conv2D"
    op_type: "Conv"
    attribute {
      name: "dilations"
      ints: 1
      ints: 1
      type: INTS
    }
    attribute {
      name: "strides"
      ints: 1
      ints: 1
      type: INTS
    }
    attribute {
      name: "kernel_shape"
      ints: 3
      ints: 3
      type: INTS
    }
    attribute {
      name: "pads"
      ints: 1
      ints: 1
      ints: 1
      ints: 1
      type: INTS
    }
  }
  node {
    input: "import/hourglass/hg_1/depth1/depth2/depth3/depth4/low1_1/conv2/conv/Conv2D:0"
    output: "import/hourglass/hg_1/depth1/depth2/depth3/depth4/low1_1/conv2/conv/Conv2D__140:0"
    name: "import/hourglass/hg_1/depth1/depth2/depth3/depth4/low1_1/conv2/conv/Conv2D__140"
    op_type: "Transpose"
    attribute {
      name: "perm"
      ints: 0
      ints: 2
      ints: 3
      ints: 1
      type: INTS
    }
  }
  node {
    input: "import/hourglass/hg_1/depth1/depth2/depth3/depth4/low1_1/conv2/conv/Conv2D__140:0"
    input: "import/hourglass/hg_1/depth1/depth2/depth3/depth4/low1_1/conv2/conv/bias:0"
    output: "import/hourglass/hg_1/depth1/depth2/depth3/depth4/low1_1/conv2/conv/BiasAdd:0"
    name: "import/hourglass/hg_1/depth1/depth2/depth3/depth4/low1_1/conv2/conv/BiasAdd"
    op_type: "Add"
  }
  node {
    input: "import/hourglass/hg_1/depth1/depth2/depth3/depth4/low1_1/conv2/conv/BiasAdd:0"
    output: "import/hourglass/hg_1/depth1/depth2/depth3/depth4/low1_1/conv3/BatchNorm/FusedBatchNorm__141:0"
    name: "import/hourglass/hg_1/depth1/depth2/depth3/depth4/low1_1/conv3/BatchNorm/FusedBatchNorm__141"
    op_type: "Transpose"
    attribute {
      name: "perm"
      ints: 0
      ints: 3
      ints: 1
      ints: 2
      type: INTS
    }
  }
  node {
    input: "import/hourglass/hg_1/depth1/depth2/depth3/depth4/low1_1/conv3/BatchNorm/FusedBatchNorm__141:0"
    input: "import/hourglass/hg_1/depth1/depth2/depth3/depth4/low1_1/conv3/BatchNorm/gamma:0"
    input: "import/hourglass/hg_1/depth1/depth2/depth3/depth4/low1_1/conv3/BatchNorm/beta:0"
    input: "import/hourglass/hg_1/depth1/depth2/depth3/depth4/low1_1/conv3/BatchNorm/moving_mean:0"
    input: "import/hourglass/hg_1/depth1/depth2/depth3/depth4/low1_1/conv3/BatchNorm/moving_variance:0"
    output: "import/hourglass/hg_1/depth1/depth2/depth3/depth4/low1_1/conv3/BatchNorm/FusedBatchNorm:0"
    name: "import/hourglass/hg_1/depth1/depth2/depth3/depth4/low1_1/conv3/BatchNorm/FusedBatchNorm"
    op_type: "BatchNormalization"
    attribute {
      name: "epsilon"
      f: 0.0010000000474974513
      type: FLOAT
    }
  }
  node {
    input: "import/hourglass/hg_1/depth1/depth2/depth3/depth4/low1_1/conv3/BatchNorm/FusedBatchNorm:0"
    output: "import/hourglass/hg_1/depth1/depth2/depth3/depth4/low1_1/conv3/BatchNorm/FusedBatchNorm__142:0"
    name: "import/hourglass/hg_1/depth1/depth2/depth3/depth4/low1_1/conv3/BatchNorm/FusedBatchNorm__142"
    op_type: "Transpose"
    attribute {
      name: "perm"
      ints: 0
      ints: 2
      ints: 3
      ints: 1
      type: INTS
    }
  }
  node {
    input: "import/hourglass/hg_1/depth1/depth2/depth3/depth4/low1_1/conv3/BatchNorm/FusedBatchNorm__142:0"
    output: "import/hourglass/hg_1/depth1/depth2/depth3/depth4/low1_1/conv3/Relu:0"
    name: "import/hourglass/hg_1/depth1/depth2/depth3/depth4/low1_1/conv3/Relu"
    op_type: "Relu"
  }
  node {
    input: "import/hourglass/hg_1/depth1/depth2/depth3/depth4/low1_1/conv3/Relu:0"
    output: "import/hourglass/hg_1/depth1/depth2/depth3/depth4/low1_1/conv3/conv/Conv2D__143:0"
    name: "import/hourglass/hg_1/depth1/depth2/depth3/depth4/low1_1/conv3/conv/Conv2D__143"
    op_type: "Transpose"
    attribute {
      name: "perm"
      ints: 0
      ints: 3
      ints: 1
      ints: 2
      type: INTS
    }
  }
  node {
    input: "import/hourglass/hg_1/depth1/depth2/depth3/depth4/low1_1/conv3/conv/Conv2D__143:0"
    input: "import/hourglass/hg_1/depth1/depth2/depth3/depth4/low1_1/conv3/conv/kernel:0"
    output: "import/hourglass/hg_1/depth1/depth2/depth3/depth4/low1_1/conv3/conv/Conv2D:0"
    name: "import/hourglass/hg_1/depth1/depth2/depth3/depth4/low1_1/conv3/conv/Conv2D"
    op_type: "Conv"
    attribute {
      name: "dilations"
      ints: 1
      ints: 1
      type: INTS
    }
    attribute {
      name: "strides"
      ints: 1
      ints: 1
      type: INTS
    }
    attribute {
      name: "kernel_shape"
      ints: 1
      ints: 1
      type: INTS
    }
    attribute {
      name: "pads"
      ints: 0
      ints: 0
      ints: 0
      ints: 0
      type: INTS
    }
  }
  node {
    input: "import/hourglass/hg_1/depth1/depth2/depth3/depth4/low1_1/conv3/conv/Conv2D:0"
    output: "import/hourglass/hg_1/depth1/depth2/depth3/depth4/low1_1/conv3/conv/Conv2D__144:0"
    name: "import/hourglass/hg_1/depth1/depth2/depth3/depth4/low1_1/conv3/conv/Conv2D__144"
    op_type: "Transpose"
    attribute {
      name: "perm"
      ints: 0
      ints: 2
      ints: 3
      ints: 1
      type: INTS
    }
  }
  node {
    input: "import/hourglass/hg_1/depth1/depth2/depth3/depth4/low1_1/conv3/conv/Conv2D__144:0"
    input: "import/hourglass/hg_1/depth1/depth2/depth3/depth4/low1_1/conv3/conv/bias:0"
    output: "import/hourglass/hg_1/depth1/depth2/depth3/depth4/low1_1/conv3/conv/BiasAdd:0"
    name: "import/hourglass/hg_1/depth1/depth2/depth3/depth4/low1_1/conv3/conv/BiasAdd"
    op_type: "Add"
  }
  node {
    input: "import/hourglass/hg_1/depth1/depth2/depth3/depth4/low1_1/conv3/conv/BiasAdd:0"
    input: "import/hourglass/hg_1/depth1/depth2/depth3/depth4/low1_1/skip/Identity:0"
    output: "import/hourglass/hg_1/depth1/depth2/depth3/depth4/low1_1/add:0"
    name: "import/hourglass/hg_1/depth1/depth2/depth3/depth4/low1_1/add"
    op_type: "Add"
  }
  node {
    input: "import/hourglass/hg_1/depth1/depth2/depth3/depth4/low1_1/add:0"
    output: "import/hourglass/hg_1/depth1/depth2/depth3/depth4/low2_1/skip/Identity:0"
    name: "import/hourglass/hg_1/depth1/depth2/depth3/depth4/low2_1/skip/Identity"
    op_type: "Identity"
  }
  node {
    input: "import/hourglass/hg_1/depth1/depth2/depth3/depth4/low1_1/add:0"
    output: "import/hourglass/hg_1/depth1/depth2/depth3/depth4/low2_1/conv1/BatchNorm/FusedBatchNorm__145:0"
    name: "import/hourglass/hg_1/depth1/depth2/depth3/depth4/low2_1/conv1/BatchNorm/FusedBatchNorm__145"
    op_type: "Transpose"
    attribute {
      name: "perm"
      ints: 0
      ints: 3
      ints: 1
      ints: 2
      type: INTS
    }
  }
  node {
    input: "import/hourglass/hg_1/depth1/depth2/depth3/depth4/low2_1/conv1/BatchNorm/FusedBatchNorm__145:0"
    input: "import/hourglass/hg_1/depth1/depth2/depth3/depth4/low2_1/conv1/BatchNorm/gamma:0"
    input: "import/hourglass/hg_1/depth1/depth2/depth3/depth4/low2_1/conv1/BatchNorm/beta:0"
    input: "import/hourglass/hg_1/depth1/depth2/depth3/depth4/low2_1/conv1/BatchNorm/moving_mean:0"
    input: "import/hourglass/hg_1/depth1/depth2/depth3/depth4/low2_1/conv1/BatchNorm/moving_variance:0"
    output: "import/hourglass/hg_1/depth1/depth2/depth3/depth4/low2_1/conv1/BatchNorm/FusedBatchNorm:0"
    name: "import/hourglass/hg_1/depth1/depth2/depth3/depth4/low2_1/conv1/BatchNorm/FusedBatchNorm"
    op_type: "BatchNormalization"
    attribute {
      name: "epsilon"
      f: 0.0010000000474974513
      type: FLOAT
    }
  }
  node {
    input: "import/hourglass/hg_1/depth1/depth2/depth3/depth4/low2_1/conv1/BatchNorm/FusedBatchNorm:0"
    output: "import/hourglass/hg_1/depth1/depth2/depth3/depth4/low2_1/conv1/BatchNorm/FusedBatchNorm__146:0"
    name: "import/hourglass/hg_1/depth1/depth2/depth3/depth4/low2_1/conv1/BatchNorm/FusedBatchNorm__146"
    op_type: "Transpose"
    attribute {
      name: "perm"
      ints: 0
      ints: 2
      ints: 3
      ints: 1
      type: INTS
    }
  }
  node {
    input: "import/hourglass/hg_1/depth1/depth2/depth3/depth4/low2_1/conv1/BatchNorm/FusedBatchNorm__146:0"
    output: "import/hourglass/hg_1/depth1/depth2/depth3/depth4/low2_1/conv1/Relu:0"
    name: "import/hourglass/hg_1/depth1/depth2/depth3/depth4/low2_1/conv1/Relu"
    op_type: "Relu"
  }
  node {
    input: "import/hourglass/hg_1/depth1/depth2/depth3/depth4/low2_1/conv1/Relu:0"
    output: "import/hourglass/hg_1/depth1/depth2/depth3/depth4/low2_1/conv1/conv/Conv2D__147:0"
    name: "import/hourglass/hg_1/depth1/depth2/depth3/depth4/low2_1/conv1/conv/Conv2D__147"
    op_type: "Transpose"
    attribute {
      name: "perm"
      ints: 0
      ints: 3
      ints: 1
      ints: 2
      type: INTS
    }
  }
  node {
    input: "import/hourglass/hg_1/depth1/depth2/depth3/depth4/low2_1/conv1/conv/Conv2D__147:0"
    input: "import/hourglass/hg_1/depth1/depth2/depth3/depth4/low2_1/conv1/conv/kernel:0"
    output: "import/hourglass/hg_1/depth1/depth2/depth3/depth4/low2_1/conv1/conv/Conv2D:0"
    name: "import/hourglass/hg_1/depth1/depth2/depth3/depth4/low2_1/conv1/conv/Conv2D"
    op_type: "Conv"
    attribute {
      name: "dilations"
      ints: 1
      ints: 1
      type: INTS
    }
    attribute {
      name: "strides"
      ints: 1
      ints: 1
      type: INTS
    }
    attribute {
      name: "kernel_shape"
      ints: 1
      ints: 1
      type: INTS
    }
    attribute {
      name: "pads"
      ints: 0
      ints: 0
      ints: 0
      ints: 0
      type: INTS
    }
  }
  node {
    input: "import/hourglass/hg_1/depth1/depth2/depth3/depth4/low2_1/conv1/conv/Conv2D:0"
    output: "import/hourglass/hg_1/depth1/depth2/depth3/depth4/low2_1/conv1/conv/Conv2D__148:0"
    name: "import/hourglass/hg_1/depth1/depth2/depth3/depth4/low2_1/conv1/conv/Conv2D__148"
    op_type: "Transpose"
    attribute {
      name: "perm"
      ints: 0
      ints: 2
      ints: 3
      ints: 1
      type: INTS
    }
  }
  node {
    input: "import/hourglass/hg_1/depth1/depth2/depth3/depth4/low2_1/conv1/conv/Conv2D__148:0"
    input: "import/hourglass/hg_1/depth1/depth2/depth3/depth4/low2_1/conv1/conv/bias:0"
    output: "import/hourglass/hg_1/depth1/depth2/depth3/depth4/low2_1/conv1/conv/BiasAdd:0"
    name: "import/hourglass/hg_1/depth1/depth2/depth3/depth4/low2_1/conv1/conv/BiasAdd"
    op_type: "Add"
  }
  node {
    input: "import/hourglass/hg_1/depth1/depth2/depth3/depth4/low2_1/conv1/conv/BiasAdd:0"
    output: "import/hourglass/hg_1/depth1/depth2/depth3/depth4/low2_1/conv2/BatchNorm/FusedBatchNorm__149:0"
    name: "import/hourglass/hg_1/depth1/depth2/depth3/depth4/low2_1/conv2/BatchNorm/FusedBatchNorm__149"
    op_type: "Transpose"
    attribute {
      name: "perm"
      ints: 0
      ints: 3
      ints: 1
      ints: 2
      type: INTS
    }
  }
  node {
    input: "import/hourglass/hg_1/depth1/depth2/depth3/depth4/low2_1/conv2/BatchNorm/FusedBatchNorm__149:0"
    input: "import/hourglass/hg_1/depth1/depth2/depth3/depth4/low2_1/conv2/BatchNorm/gamma:0"
    input: "import/hourglass/hg_1/depth1/depth2/depth3/depth4/low2_1/conv2/BatchNorm/beta:0"
    input: "import/hourglass/hg_1/depth1/depth2/depth3/depth4/low2_1/conv2/BatchNorm/moving_mean:0"
    input: "import/hourglass/hg_1/depth1/depth2/depth3/depth4/low2_1/conv2/BatchNorm/moving_variance:0"
    output: "import/hourglass/hg_1/depth1/depth2/depth3/depth4/low2_1/conv2/BatchNorm/FusedBatchNorm:0"
    name: "import/hourglass/hg_1/depth1/depth2/depth3/depth4/low2_1/conv2/BatchNorm/FusedBatchNorm"
    op_type: "BatchNormalization"
    attribute {
      name: "epsilon"
      f: 0.0010000000474974513
      type: FLOAT
    }
  }
  node {
    input: "import/hourglass/hg_1/depth1/depth2/depth3/depth4/low2_1/conv2/BatchNorm/FusedBatchNorm:0"
    output: "import/hourglass/hg_1/depth1/depth2/depth3/depth4/low2_1/conv2/BatchNorm/FusedBatchNorm__150:0"
    name: "import/hourglass/hg_1/depth1/depth2/depth3/depth4/low2_1/conv2/BatchNorm/FusedBatchNorm__150"
    op_type: "Transpose"
    attribute {
      name: "perm"
      ints: 0
      ints: 2
      ints: 3
      ints: 1
      type: INTS
    }
  }
  node {
    input: "import/hourglass/hg_1/depth1/depth2/depth3/depth4/low2_1/conv2/BatchNorm/FusedBatchNorm__150:0"
    output: "import/hourglass/hg_1/depth1/depth2/depth3/depth4/low2_1/conv2/Relu:0"
    name: "import/hourglass/hg_1/depth1/depth2/depth3/depth4/low2_1/conv2/Relu"
    op_type: "Relu"
  }
  node {
    input: "import/hourglass/hg_1/depth1/depth2/depth3/depth4/low2_1/conv2/Relu:0"
    output: "import/hourglass/hg_1/depth1/depth2/depth3/depth4/low2_1/conv2/conv/Conv2D__151:0"
    name: "import/hourglass/hg_1/depth1/depth2/depth3/depth4/low2_1/conv2/conv/Conv2D__151"
    op_type: "Transpose"
    attribute {
      name: "perm"
      ints: 0
      ints: 3
      ints: 1
      ints: 2
      type: INTS
    }
  }
  node {
    input: "import/hourglass/hg_1/depth1/depth2/depth3/depth4/low2_1/conv2/conv/Conv2D__151:0"
    input: "import/hourglass/hg_1/depth1/depth2/depth3/depth4/low2_1/conv2/conv/kernel:0"
    output: "import/hourglass/hg_1/depth1/depth2/depth3/depth4/low2_1/conv2/conv/Conv2D:0"
    name: "import/hourglass/hg_1/depth1/depth2/depth3/depth4/low2_1/conv2/conv/Conv2D"
    op_type: "Conv"
    attribute {
      name: "dilations"
      ints: 1
      ints: 1
      type: INTS
    }
    attribute {
      name: "strides"
      ints: 1
      ints: 1
      type: INTS
    }
    attribute {
      name: "kernel_shape"
      ints: 3
      ints: 3
      type: INTS
    }
    attribute {
      name: "pads"
      ints: 1
      ints: 1
      ints: 1
      ints: 1
      type: INTS
    }
  }
  node {
    input: "import/hourglass/hg_1/depth1/depth2/depth3/depth4/low2_1/conv2/conv/Conv2D:0"
    output: "import/hourglass/hg_1/depth1/depth2/depth3/depth4/low2_1/conv2/conv/Conv2D__152:0"
    name: "import/hourglass/hg_1/depth1/depth2/depth3/depth4/low2_1/conv2/conv/Conv2D__152"
    op_type: "Transpose"
    attribute {
      name: "perm"
      ints: 0
      ints: 2
      ints: 3
      ints: 1
      type: INTS
    }
  }
  node {
    input: "import/hourglass/hg_1/depth1/depth2/depth3/depth4/low2_1/conv2/conv/Conv2D__152:0"
    input: "import/hourglass/hg_1/depth1/depth2/depth3/depth4/low2_1/conv2/conv/bias:0"
    output: "import/hourglass/hg_1/depth1/depth2/depth3/depth4/low2_1/conv2/conv/BiasAdd:0"
    name: "import/hourglass/hg_1/depth1/depth2/depth3/depth4/low2_1/conv2/conv/BiasAdd"
    op_type: "Add"
  }
  node {
    input: "import/hourglass/hg_1/depth1/depth2/depth3/depth4/low2_1/conv2/conv/BiasAdd:0"
    output: "import/hourglass/hg_1/depth1/depth2/depth3/depth4/low2_1/conv3/BatchNorm/FusedBatchNorm__153:0"
    name: "import/hourglass/hg_1/depth1/depth2/depth3/depth4/low2_1/conv3/BatchNorm/FusedBatchNorm__153"
    op_type: "Transpose"
    attribute {
      name: "perm"
      ints: 0
      ints: 3
      ints: 1
      ints: 2
      type: INTS
    }
  }
  node {
    input: "import/hourglass/hg_1/depth1/depth2/depth3/depth4/low2_1/conv3/BatchNorm/FusedBatchNorm__153:0"
    input: "import/hourglass/hg_1/depth1/depth2/depth3/depth4/low2_1/conv3/BatchNorm/gamma:0"
    input: "import/hourglass/hg_1/depth1/depth2/depth3/depth4/low2_1/conv3/BatchNorm/beta:0"
    input: "import/hourglass/hg_1/depth1/depth2/depth3/depth4/low2_1/conv3/BatchNorm/moving_mean:0"
    input: "import/hourglass/hg_1/depth1/depth2/depth3/depth4/low2_1/conv3/BatchNorm/moving_variance:0"
    output: "import/hourglass/hg_1/depth1/depth2/depth3/depth4/low2_1/conv3/BatchNorm/FusedBatchNorm:0"
    name: "import/hourglass/hg_1/depth1/depth2/depth3/depth4/low2_1/conv3/BatchNorm/FusedBatchNorm"
    op_type: "BatchNormalization"
    attribute {
      name: "epsilon"
      f: 0.0010000000474974513
      type: FLOAT
    }
  }
  node {
    input: "import/hourglass/hg_1/depth1/depth2/depth3/depth4/low2_1/conv3/BatchNorm/FusedBatchNorm:0"
    output: "import/hourglass/hg_1/depth1/depth2/depth3/depth4/low2_1/conv3/BatchNorm/FusedBatchNorm__154:0"
    name: "import/hourglass/hg_1/depth1/depth2/depth3/depth4/low2_1/conv3/BatchNorm/FusedBatchNorm__154"
    op_type: "Transpose"
    attribute {
      name: "perm"
      ints: 0
      ints: 2
      ints: 3
      ints: 1
      type: INTS
    }
  }
  node {
    input: "import/hourglass/hg_1/depth1/depth2/depth3/depth4/low2_1/conv3/BatchNorm/FusedBatchNorm__154:0"
    output: "import/hourglass/hg_1/depth1/depth2/depth3/depth4/low2_1/conv3/Relu:0"
    name: "import/hourglass/hg_1/depth1/depth2/depth3/depth4/low2_1/conv3/Relu"
    op_type: "Relu"
  }
  node {
    input: "import/hourglass/hg_1/depth1/depth2/depth3/depth4/low2_1/conv3/Relu:0"
    output: "import/hourglass/hg_1/depth1/depth2/depth3/depth4/low2_1/conv3/conv/Conv2D__155:0"
    name: "import/hourglass/hg_1/depth1/depth2/depth3/depth4/low2_1/conv3/conv/Conv2D__155"
    op_type: "Transpose"
    attribute {
      name: "perm"
      ints: 0
      ints: 3
      ints: 1
      ints: 2
      type: INTS
    }
  }
  node {
    input: "import/hourglass/hg_1/depth1/depth2/depth3/depth4/low2_1/conv3/conv/Conv2D__155:0"
    input: "import/hourglass/hg_1/depth1/depth2/depth3/depth4/low2_1/conv3/conv/kernel:0"
    output: "import/hourglass/hg_1/depth1/depth2/depth3/depth4/low2_1/conv3/conv/Conv2D:0"
    name: "import/hourglass/hg_1/depth1/depth2/depth3/depth4/low2_1/conv3/conv/Conv2D"
    op_type: "Conv"
    attribute {
      name: "dilations"
      ints: 1
      ints: 1
      type: INTS
    }
    attribute {
      name: "strides"
      ints: 1
      ints: 1
      type: INTS
    }
    attribute {
      name: "kernel_shape"
      ints: 1
      ints: 1
      type: INTS
    }
    attribute {
      name: "pads"
      ints: 0
      ints: 0
      ints: 0
      ints: 0
      type: INTS
    }
  }
  node {
    input: "import/hourglass/hg_1/depth1/depth2/depth3/depth4/low2_1/conv3/conv/Conv2D:0"
    output: "import/hourglass/hg_1/depth1/depth2/depth3/depth4/low2_1/conv3/conv/Conv2D__156:0"
    name: "import/hourglass/hg_1/depth1/depth2/depth3/depth4/low2_1/conv3/conv/Conv2D__156"
    op_type: "Transpose"
    attribute {
      name: "perm"
      ints: 0
      ints: 2
      ints: 3
      ints: 1
      type: INTS
    }
  }
  node {
    input: "import/hourglass/hg_1/depth1/depth2/depth3/depth4/low2_1/conv3/conv/Conv2D__156:0"
    input: "import/hourglass/hg_1/depth1/depth2/depth3/depth4/low2_1/conv3/conv/bias:0"
    output: "import/hourglass/hg_1/depth1/depth2/depth3/depth4/low2_1/conv3/conv/BiasAdd:0"
    name: "import/hourglass/hg_1/depth1/depth2/depth3/depth4/low2_1/conv3/conv/BiasAdd"
    op_type: "Add"
  }
  node {
    input: "import/hourglass/hg_1/depth1/depth2/depth3/depth4/low2_1/conv3/conv/BiasAdd:0"
    input: "import/hourglass/hg_1/depth1/depth2/depth3/depth4/low2_1/skip/Identity:0"
    output: "import/hourglass/hg_1/depth1/depth2/depth3/depth4/low2_1/add:0"
    name: "import/hourglass/hg_1/depth1/depth2/depth3/depth4/low2_1/add"
    op_type: "Add"
  }
  node {
    input: "import/hourglass/hg_1/depth1/depth2/depth3/depth4/low2_1/add:0"
    output: "import/hourglass/hg_1/depth1/depth2/depth3/depth4/low3_1/skip/Identity:0"
    name: "import/hourglass/hg_1/depth1/depth2/depth3/depth4/low3_1/skip/Identity"
    op_type: "Identity"
  }
  node {
    input: "import/hourglass/hg_1/depth1/depth2/depth3/depth4/low2_1/add:0"
    output: "import/hourglass/hg_1/depth1/depth2/depth3/depth4/low3_1/conv1/BatchNorm/FusedBatchNorm__157:0"
    name: "import/hourglass/hg_1/depth1/depth2/depth3/depth4/low3_1/conv1/BatchNorm/FusedBatchNorm__157"
    op_type: "Transpose"
    attribute {
      name: "perm"
      ints: 0
      ints: 3
      ints: 1
      ints: 2
      type: INTS
    }
  }
  node {
    input: "import/hourglass/hg_1/depth1/depth2/depth3/depth4/low3_1/conv1/BatchNorm/FusedBatchNorm__157:0"
    input: "import/hourglass/hg_1/depth1/depth2/depth3/depth4/low3_1/conv1/BatchNorm/gamma:0"
    input: "import/hourglass/hg_1/depth1/depth2/depth3/depth4/low3_1/conv1/BatchNorm/beta:0"
    input: "import/hourglass/hg_1/depth1/depth2/depth3/depth4/low3_1/conv1/BatchNorm/moving_mean:0"
    input: "import/hourglass/hg_1/depth1/depth2/depth3/depth4/low3_1/conv1/BatchNorm/moving_variance:0"
    output: "import/hourglass/hg_1/depth1/depth2/depth3/depth4/low3_1/conv1/BatchNorm/FusedBatchNorm:0"
    name: "import/hourglass/hg_1/depth1/depth2/depth3/depth4/low3_1/conv1/BatchNorm/FusedBatchNorm"
    op_type: "BatchNormalization"
    attribute {
      name: "epsilon"
      f: 0.0010000000474974513
      type: FLOAT
    }
  }
  node {
    input: "import/hourglass/hg_1/depth1/depth2/depth3/depth4/low3_1/conv1/BatchNorm/FusedBatchNorm:0"
    output: "import/hourglass/hg_1/depth1/depth2/depth3/depth4/low3_1/conv1/BatchNorm/FusedBatchNorm__158:0"
    name: "import/hourglass/hg_1/depth1/depth2/depth3/depth4/low3_1/conv1/BatchNorm/FusedBatchNorm__158"
    op_type: "Transpose"
    attribute {
      name: "perm"
      ints: 0
      ints: 2
      ints: 3
      ints: 1
      type: INTS
    }
  }
  node {
    input: "import/hourglass/hg_1/depth1/depth2/depth3/depth4/low3_1/conv1/BatchNorm/FusedBatchNorm__158:0"
    output: "import/hourglass/hg_1/depth1/depth2/depth3/depth4/low3_1/conv1/Relu:0"
    name: "import/hourglass/hg_1/depth1/depth2/depth3/depth4/low3_1/conv1/Relu"
    op_type: "Relu"
  }
  node {
    input: "import/hourglass/hg_1/depth1/depth2/depth3/depth4/low3_1/conv1/Relu:0"
    output: "import/hourglass/hg_1/depth1/depth2/depth3/depth4/low3_1/conv1/conv/Conv2D__159:0"
    name: "import/hourglass/hg_1/depth1/depth2/depth3/depth4/low3_1/conv1/conv/Conv2D__159"
    op_type: "Transpose"
    attribute {
      name: "perm"
      ints: 0
      ints: 3
      ints: 1
      ints: 2
      type: INTS
    }
  }
  node {
    input: "import/hourglass/hg_1/depth1/depth2/depth3/depth4/low3_1/conv1/conv/Conv2D__159:0"
    input: "import/hourglass/hg_1/depth1/depth2/depth3/depth4/low3_1/conv1/conv/kernel:0"
    output: "import/hourglass/hg_1/depth1/depth2/depth3/depth4/low3_1/conv1/conv/Conv2D:0"
    name: "import/hourglass/hg_1/depth1/depth2/depth3/depth4/low3_1/conv1/conv/Conv2D"
    op_type: "Conv"
    attribute {
      name: "dilations"
      ints: 1
      ints: 1
      type: INTS
    }
    attribute {
      name: "strides"
      ints: 1
      ints: 1
      type: INTS
    }
    attribute {
      name: "kernel_shape"
      ints: 1
      ints: 1
      type: INTS
    }
    attribute {
      name: "pads"
      ints: 0
      ints: 0
      ints: 0
      ints: 0
      type: INTS
    }
  }
  node {
    input: "import/hourglass/hg_1/depth1/depth2/depth3/depth4/low3_1/conv1/conv/Conv2D:0"
    output: "import/hourglass/hg_1/depth1/depth2/depth3/depth4/low3_1/conv1/conv/Conv2D__160:0"
    name: "import/hourglass/hg_1/depth1/depth2/depth3/depth4/low3_1/conv1/conv/Conv2D__160"
    op_type: "Transpose"
    attribute {
      name: "perm"
      ints: 0
      ints: 2
      ints: 3
      ints: 1
      type: INTS
    }
  }
  node {
    input: "import/hourglass/hg_1/depth1/depth2/depth3/depth4/low3_1/conv1/conv/Conv2D__160:0"
    input: "import/hourglass/hg_1/depth1/depth2/depth3/depth4/low3_1/conv1/conv/bias:0"
    output: "import/hourglass/hg_1/depth1/depth2/depth3/depth4/low3_1/conv1/conv/BiasAdd:0"
    name: "import/hourglass/hg_1/depth1/depth2/depth3/depth4/low3_1/conv1/conv/BiasAdd"
    op_type: "Add"
  }
  node {
    input: "import/hourglass/hg_1/depth1/depth2/depth3/depth4/low3_1/conv1/conv/BiasAdd:0"
    output: "import/hourglass/hg_1/depth1/depth2/depth3/depth4/low3_1/conv2/BatchNorm/FusedBatchNorm__161:0"
    name: "import/hourglass/hg_1/depth1/depth2/depth3/depth4/low3_1/conv2/BatchNorm/FusedBatchNorm__161"
    op_type: "Transpose"
    attribute {
      name: "perm"
      ints: 0
      ints: 3
      ints: 1
      ints: 2
      type: INTS
    }
  }
  node {
    input: "import/hourglass/hg_1/depth1/depth2/depth3/depth4/low3_1/conv2/BatchNorm/FusedBatchNorm__161:0"
    input: "import/hourglass/hg_1/depth1/depth2/depth3/depth4/low3_1/conv2/BatchNorm/gamma:0"
    input: "import/hourglass/hg_1/depth1/depth2/depth3/depth4/low3_1/conv2/BatchNorm/beta:0"
    input: "import/hourglass/hg_1/depth1/depth2/depth3/depth4/low3_1/conv2/BatchNorm/moving_mean:0"
    input: "import/hourglass/hg_1/depth1/depth2/depth3/depth4/low3_1/conv2/BatchNorm/moving_variance:0"
    output: "import/hourglass/hg_1/depth1/depth2/depth3/depth4/low3_1/conv2/BatchNorm/FusedBatchNorm:0"
    name: "import/hourglass/hg_1/depth1/depth2/depth3/depth4/low3_1/conv2/BatchNorm/FusedBatchNorm"
    op_type: "BatchNormalization"
    attribute {
      name: "epsilon"
      f: 0.0010000000474974513
      type: FLOAT
    }
  }
  node {
    input: "import/hourglass/hg_1/depth1/depth2/depth3/depth4/low3_1/conv2/BatchNorm/FusedBatchNorm:0"
    output: "import/hourglass/hg_1/depth1/depth2/depth3/depth4/low3_1/conv2/BatchNorm/FusedBatchNorm__162:0"
    name: "import/hourglass/hg_1/depth1/depth2/depth3/depth4/low3_1/conv2/BatchNorm/FusedBatchNorm__162"
    op_type: "Transpose"
    attribute {
      name: "perm"
      ints: 0
      ints: 2
      ints: 3
      ints: 1
      type: INTS
    }
  }
  node {
    input: "import/hourglass/hg_1/depth1/depth2/depth3/depth4/low3_1/conv2/BatchNorm/FusedBatchNorm__162:0"
    output: "import/hourglass/hg_1/depth1/depth2/depth3/depth4/low3_1/conv2/Relu:0"
    name: "import/hourglass/hg_1/depth1/depth2/depth3/depth4/low3_1/conv2/Relu"
    op_type: "Relu"
  }
  node {
    input: "import/hourglass/hg_1/depth1/depth2/depth3/depth4/low3_1/conv2/Relu:0"
    output: "import/hourglass/hg_1/depth1/depth2/depth3/depth4/low3_1/conv2/conv/Conv2D__163:0"
    name: "import/hourglass/hg_1/depth1/depth2/depth3/depth4/low3_1/conv2/conv/Conv2D__163"
    op_type: "Transpose"
    attribute {
      name: "perm"
      ints: 0
      ints: 3
      ints: 1
      ints: 2
      type: INTS
    }
  }
  node {
    input: "import/hourglass/hg_1/depth1/depth2/depth3/depth4/low3_1/conv2/conv/Conv2D__163:0"
    input: "import/hourglass/hg_1/depth1/depth2/depth3/depth4/low3_1/conv2/conv/kernel:0"
    output: "import/hourglass/hg_1/depth1/depth2/depth3/depth4/low3_1/conv2/conv/Conv2D:0"
    name: "import/hourglass/hg_1/depth1/depth2/depth3/depth4/low3_1/conv2/conv/Conv2D"
    op_type: "Conv"
    attribute {
      name: "dilations"
      ints: 1
      ints: 1
      type: INTS
    }
    attribute {
      name: "strides"
      ints: 1
      ints: 1
      type: INTS
    }
    attribute {
      name: "kernel_shape"
      ints: 3
      ints: 3
      type: INTS
    }
    attribute {
      name: "pads"
      ints: 1
      ints: 1
      ints: 1
      ints: 1
      type: INTS
    }
  }
  node {
    input: "import/hourglass/hg_1/depth1/depth2/depth3/depth4/low3_1/conv2/conv/Conv2D:0"
    output: "import/hourglass/hg_1/depth1/depth2/depth3/depth4/low3_1/conv2/conv/Conv2D__164:0"
    name: "import/hourglass/hg_1/depth1/depth2/depth3/depth4/low3_1/conv2/conv/Conv2D__164"
    op_type: "Transpose"
    attribute {
      name: "perm"
      ints: 0
      ints: 2
      ints: 3
      ints: 1
      type: INTS
    }
  }
  node {
    input: "import/hourglass/hg_1/depth1/depth2/depth3/depth4/low3_1/conv2/conv/Conv2D__164:0"
    input: "import/hourglass/hg_1/depth1/depth2/depth3/depth4/low3_1/conv2/conv/bias:0"
    output: "import/hourglass/hg_1/depth1/depth2/depth3/depth4/low3_1/conv2/conv/BiasAdd:0"
    name: "import/hourglass/hg_1/depth1/depth2/depth3/depth4/low3_1/conv2/conv/BiasAdd"
    op_type: "Add"
  }
  node {
    input: "import/hourglass/hg_1/depth1/depth2/depth3/depth4/low3_1/conv2/conv/BiasAdd:0"
    output: "import/hourglass/hg_1/depth1/depth2/depth3/depth4/low3_1/conv3/BatchNorm/FusedBatchNorm__165:0"
    name: "import/hourglass/hg_1/depth1/depth2/depth3/depth4/low3_1/conv3/BatchNorm/FusedBatchNorm__165"
    op_type: "Transpose"
    attribute {
      name: "perm"
      ints: 0
      ints: 3
      ints: 1
      ints: 2
      type: INTS
    }
  }
  node {
    input: "import/hourglass/hg_1/depth1/depth2/depth3/depth4/low3_1/conv3/BatchNorm/FusedBatchNorm__165:0"
    input: "import/hourglass/hg_1/depth1/depth2/depth3/depth4/low3_1/conv3/BatchNorm/gamma:0"
    input: "import/hourglass/hg_1/depth1/depth2/depth3/depth4/low3_1/conv3/BatchNorm/beta:0"
    input: "import/hourglass/hg_1/depth1/depth2/depth3/depth4/low3_1/conv3/BatchNorm/moving_mean:0"
    input: "import/hourglass/hg_1/depth1/depth2/depth3/depth4/low3_1/conv3/BatchNorm/moving_variance:0"
    output: "import/hourglass/hg_1/depth1/depth2/depth3/depth4/low3_1/conv3/BatchNorm/FusedBatchNorm:0"
    name: "import/hourglass/hg_1/depth1/depth2/depth3/depth4/low3_1/conv3/BatchNorm/FusedBatchNorm"
    op_type: "BatchNormalization"
    attribute {
      name: "epsilon"
      f: 0.0010000000474974513
      type: FLOAT
    }
  }
  node {
…
    name: "import/hourglass/hg_2/depth1/depth2/depth3/depth4/low2_1/conv2/BatchNorm/moving_mean:0"
    raw_data: "…"
  }
  initializer {
    dims: 32
    data_type: 1
    name: "import/hourglass/hg_2/depth1/depth2/depth3/depth4/low2_1/conv2/BatchNorm/gamma:0"
    raw_data: "…"
  }
  initializer {
    dims: 32
    data_type: 1
    name: "import/hourglass/hg_2/depth1/depth2/depth3/depth4/low2_1/conv2/BatchNorm/beta:0"
    raw_data: "…"
  }
  initializer {
      dims: 32
      dims: 64
      dims: 1
      dims: 1
      data_type: 1
      name: "import/hourglass/hg_2/depth1/depth2/depth3/depth4/low2_1/conv1/conv/kernel:0"
  }
  initializer {
    dims: 32
    data_type: 1
    name: "import/hourglass/hg_2/depth1/depth2/depth3/depth4/low2_1/conv1/conv/bias:0"
    raw_data: "…"
  }
  initializer {
      dims: 64
      data_type: 1
      name: "import/hourglass/hg_2/depth1/depth2/depth3/depth4/low2_1/conv1/BatchNorm/moving_variance:0"
  }
  initializer {
      dims: 64
      data_type: 1
      name: "import/hourglass/hg_2/depth1/depth2/depth3/depth4/low2_1/conv1/BatchNorm/moving_mean:0"
  }
  initializer {
      dims: 64
      data_type: 1
      name: "import/hourglass/hg_2/depth1/depth2/depth3/depth4/low2_1/conv1/BatchNorm/gamma:0"
  }
  initializer {
      dims: 64
      data_type: 1
      name: "import/hourglass/hg_2/depth1/depth2/depth3/depth4/low2_1/conv1/BatchNorm/beta:0"
  }
  initializer {
      dims: 64
      dims: 32
      dims: 1
      dims: 1
      data_type: 1
      name: "import/hourglass/hg_2/depth1/depth2/depth3/depth4/low1_1/conv3/conv/kernel:0"
  }
  initializer {
      dims: 64
      data_type: 1
      name: "import/hourglass/hg_2/depth1/depth2/depth3/depth4/low1_1/conv3/conv/bias:0"
  }
  initializer {
    dims: 32
    data_type: 1
    name: "import/hourglass/hg_2/depth1/depth2/depth3/depth4/low1_1/conv3/BatchNorm/moving_variance:0"
    raw_data: "…"
  }
  initializer {
    dims: 32
    data_type: 1
    name: "import/hourglass/hg_2/depth1/depth2/depth3/depth4/low1_1/conv3/BatchNorm/moving_mean:0"
    raw_data: "…"
  }
  initializer {
    dims: 32
    data_type: 1
    name: "import/hourglass/hg_2/depth1/depth2/depth3/depth4/low1_1/conv3/BatchNorm/gamma:0"
    raw_data: "…"
  }
  initializer {
    dims: 32
    data_type: 1
    name: "import/hourglass/hg_2/depth1/depth2/depth3/depth4/low1_1/conv3/BatchNorm/beta:0"
    raw_data: "…"
  }
  initializer {
      dims: 32
      dims: 32
      dims: 3
      dims: 3
      data_type: 1
      name: "import/hourglass/hg_2/depth1/depth2/depth3/depth4/low1_1/conv2/conv/kernel:0"
  }
  initializer {
    dims: 32
    data_type: 1
    name: "import/hourglass/hg_2/depth1/depth2/depth3/depth4/low1_1/conv2/conv/bias:0"
    raw_data: "…"
  }
  initializer {
    dims: 32
    data_type: 1
    name: "import/hourglass/hg_2/depth1/depth2/depth3/depth4/low1_1/conv2/BatchNorm/moving_variance:0"
    raw_data: "…"
  }
  initializer {
    dims: 32
    data_type: 1
    name: "import/hourglass/hg_2/depth1/depth2/depth3/depth4/low1_1/conv2/BatchNorm/moving_mean:0"
    raw_data: "…"
  }
  initializer {
    dims: 32
    data_type: 1
    name: "import/hourglass/hg_2/depth1/depth2/depth3/depth4/low1_1/conv2/BatchNorm/gamma:0"
    raw_data: "…"
  }
  initializer {
    dims: 32
    data_type: 1
    name: "import/hourglass/hg_2/depth1/depth2/depth3/depth4/low1_1/conv2/BatchNorm/beta:0"
    raw_data: "…"
  }
  initializer {
      dims: 32
      dims: 64
      dims: 1
      dims: 1
      data_type: 1
      name: "import/hourglass/hg_2/depth1/depth2/depth3/depth4/low1_1/conv1/conv/kernel:0"
  }
  initializer {
    dims: 32
    data_type: 1
    name: "import/hourglass/hg_2/depth1/depth2/depth3/depth4/low1_1/conv1/conv/bias:0"
    raw_data: "…"
  }
  initializer {
      dims: 64
      data_type: 1
      name: "import/hourglass/hg_2/depth1/depth2/depth3/depth4/low1_1/conv1/BatchNorm/moving_variance:0"
  }
  initializer {
      dims: 64
      data_type: 1
      name: "import/hourglass/hg_2/depth1/depth2/depth3/depth4/low1_1/conv1/BatchNorm/moving_mean:0"
  }
  initializer {
      dims: 64
      data_type: 1
      name: "import/hourglass/hg_2/depth1/depth2/depth3/depth4/low1_1/conv1/BatchNorm/gamma:0"
  }
  initializer {
      dims: 64
      data_type: 1
      name: "import/hourglass/hg_2/depth1/depth2/depth3/depth4/low1_1/conv1/BatchNorm/beta:0"
  }
  initializer {
      dims: 18
      dims: 64
      dims: 1
      dims: 1
      data_type: 1
      name: "import/hourglass/hg_2/after/hmap/conv/kernel:0"
  }
  initializer {
    dims: 18
    data_type: 1
    name: "import/hourglass/hg_2/after/hmap/conv/bias:0"
    raw_data: "…"
  }
  initializer {
      dims: 64
      dims: 64
      dims: 1
      dims: 1
      data_type: 1
      name: "import/hourglass/hg_2/after/conv/kernel:0"
  }
  initializer {
      dims: 64
      data_type: 1
      name: "import/hourglass/hg_2/after/conv/bias:0"
  }
  initializer {
      dims: 64
      dims: 32
      dims: 1
      dims: 1
      data_type: 1
      name: "import/hourglass/hg_2/after/after_hg_1/conv3/conv/kernel:0"
  }
  initializer {
      dims: 64
      data_type: 1
      name: "import/hourglass/hg_2/after/after_hg_1/conv3/conv/bias:0"
  }
  initializer {
    dims: 32
    data_type: 1
    name: "import/hourglass/hg_2/after/after_hg_1/conv3/BatchNorm/moving_variance:0"
    raw_data: "…"
  }
  initializer {
    dims: 32
    data_type: 1
    name: "import/hourglass/hg_2/after/after_hg_1/conv3/BatchNorm/moving_mean:0"
    raw_data: "…"
  }
  initializer {
    dims: 32
    data_type: 1
    name: "import/hourglass/hg_2/after/after_hg_1/conv3/BatchNorm/gamma:0"
    raw_data: "…"
  }
  initializer {
    dims: 32
    data_type: 1
    name: "import/hourglass/hg_2/after/after_hg_1/conv3/BatchNorm/beta:0"
    raw_data: "…"
  }
  initializer {
      dims: 32
      dims: 32
      dims: 3
      dims: 3
      data_type: 1
      name: "import/hourglass/hg_2/after/after_hg_1/conv2/conv/kernel:0"
  }
  initializer {
    dims: 32
    data_type: 1
    name: "import/hourglass/hg_2/after/after_hg_1/conv2/conv/bias:0"
    raw_data: "…"
  }
  initializer {
    dims: 32
    data_type: 1
    name: "import/hourglass/hg_2/after/after_hg_1/conv2/BatchNorm/moving_variance:0"
    raw_data: "…"
  }
  initializer {
    dims: 32
    data_type: 1
    name: "import/hourglass/hg_2/after/after_hg_1/conv2/BatchNorm/moving_mean:0"
    raw_data: "…"
  }
  initializer {
    dims: 32
    data_type: 1
    name: "import/hourglass/hg_2/after/after_hg_1/conv2/BatchNorm/gamma:0"
    raw_data: "…"
  }
  initializer {
    dims: 32
    data_type: 1
    name: "import/hourglass/hg_2/after/after_hg_1/conv2/BatchNorm/beta:0"
    raw_data: "…"
  }
  initializer {
      dims: 32
      dims: 64
      dims: 1
      dims: 1
      data_type: 1
      name: "import/hourglass/hg_2/after/after_hg_1/conv1/conv/kernel:0"
  }
  initializer {
    dims: 32
    data_type: 1
    name: "import/hourglass/hg_2/after/after_hg_1/conv1/conv/bias:0"
    raw_data: "…"
  }
  initializer {
      dims: 64
      data_type: 1
      name: "import/hourglass/hg_2/after/after_hg_1/conv1/BatchNorm/moving_variance:0"
  }
  initializer {
      dims: 64
      data_type: 1
      name: "import/hourglass/hg_2/after/after_hg_1/conv1/BatchNorm/moving_mean:0"
  }
  initializer {
      dims: 64
      data_type: 1
      name: "import/hourglass/hg_2/after/after_hg_1/conv1/BatchNorm/gamma:0"
  }
  initializer {
      dims: 64
      data_type: 1
      name: "import/hourglass/hg_2/after/after_hg_1/conv1/BatchNorm/beta:0"
  }
  initializer {
      dims: 64
      data_type: 1
      name: "import/hourglass/hg_2/after/BatchNorm/moving_variance:0"
  }
  initializer {
      dims: 64
      data_type: 1
      name: "import/hourglass/hg_2/after/BatchNorm/moving_mean:0"
  }
  initializer {
      dims: 64
      data_type: 1
      name: "import/hourglass/hg_2/after/BatchNorm/gamma:0"
  }
  initializer {
      dims: 64
      data_type: 1
      name: "import/hourglass/hg_2/after/BatchNorm/beta:0"
  }
  initializer {
      dims: 64
      dims: 18
      dims: 1
      dims: 1
      data_type: 1
      name: "import/hourglass/hg_1/merge/h/conv/kernel:0"
  }
  initializer {
      dims: 64
      data_type: 1
      name: "import/hourglass/hg_1/merge/h/conv/bias:0"
  }
  initializer {
      dims: 64
      dims: 32
      dims: 1
      dims: 1
      data_type: 1
      name: "import/hourglass/hg_1/depth1/up1_1/conv3/conv/kernel:0"
  }
  initializer {
      dims: 64
      data_type: 1
      name: "import/hourglass/hg_1/depth1/up1_1/conv3/conv/bias:0"
  }
  initializer {
    dims: 32
    data_type: 1
    name: "import/hourglass/hg_1/depth1/up1_1/conv3/BatchNorm/moving_variance:0"
    raw_data: "…"
  }
  initializer {
    dims: 32
    data_type: 1
    name: "import/hourglass/hg_1/depth1/up1_1/conv3/BatchNorm/moving_mean:0"
    raw_data: "…"
  }
  initializer {
    dims: 32
    data_type: 1
    name: "import/hourglass/hg_1/depth1/up1_1/conv3/BatchNorm/gamma:0"
    raw_data: "…"
  }
  initializer {
    dims: 32
    data_type: 1
    name: "import/hourglass/hg_1/depth1/up1_1/conv3/BatchNorm/beta:0"
    raw_data: "…"
  }
  initializer {
      dims: 32
      dims: 32
      dims: 3
      dims: 3
      data_type: 1
      name: "import/hourglass/hg_1/depth1/up1_1/conv2/conv/kernel:0"
  }
  initializer {
    dims: 32
    data_type: 1
    name: "import/hourglass/hg_1/depth1/up1_1/conv2/conv/bias:0"
    raw_data: "…"
  }
  initializer {
    dims: 32
    data_type: 1
    name: "import/hourglass/hg_1/depth1/up1_1/conv2/BatchNorm/moving_variance:0"
    raw_data: "…"
  }
  initializer {
    dims: 32
    data_type: 1
    name: "import/hourglass/hg_1/depth1/up1_1/conv2/BatchNorm/moving_mean:0"
    raw_data: "…"
  }
  initializer {
    dims: 32
    data_type: 1
    name: "import/hourglass/hg_1/depth1/up1_1/conv2/BatchNorm/gamma:0"
    raw_data: "…"
  }
  initializer {
    dims: 32
    data_type: 1
    name: "import/hourglass/hg_1/depth1/up1_1/conv2/BatchNorm/beta:0"
    raw_data: "…"
  }
  initializer {
      dims: 32
      dims: 64
      dims: 1
      dims: 1
      data_type: 1
      name: "import/hourglass/hg_1/depth1/up1_1/conv1/conv/kernel:0"
  }
  initializer {
    dims: 32
    data_type: 1
    name: "import/hourglass/hg_1/depth1/up1_1/conv1/conv/bias:0"
    raw_data: "…"
  }
  initializer {
      dims: 64
      data_type: 1
      name: "import/hourglass/hg_1/depth1/up1_1/conv1/BatchNorm/moving_variance:0"
  }
  initializer {
      dims: 64
      data_type: 1
      name: "import/hourglass/hg_1/depth1/up1_1/conv1/BatchNorm/moving_mean:0"
  }
  initializer {
      dims: 64
      data_type: 1
      name: "import/hourglass/hg_1/depth1/up1_1/conv1/BatchNorm/gamma:0"
  }
  initializer {
      dims: 64
      data_type: 1
      name: "import/hourglass/hg_1/depth1/up1_1/conv1/BatchNorm/beta:0"
  }
  initializer {
      dims: 64
      dims: 32
      dims: 1
      dims: 1
      data_type: 1
      name: "import/hourglass/hg_1/depth1/low3_1/conv3/conv/kernel:0"
  }
  initializer {
      dims: 64
      data_type: 1
      name: "import/hourglass/hg_1/depth1/low3_1/conv3/conv/bias:0"
  }
  initializer {
    dims: 32
    data_type: 1
    name: "import/hourglass/hg_1/depth1/low3_1/conv3/BatchNorm/moving_variance:0"
    raw_data: "…"
  }
  initializer {
    dims: 32
    data_type: 1
    name: "import/hourglass/hg_1/depth1/low3_1/conv3/BatchNorm/moving_mean:0"
    raw_data: "…"
  }
  initializer {
    dims: 32
    data_type: 1
    name: "import/hourglass/hg_1/depth1/low3_1/conv3/BatchNorm/gamma:0"
    raw_data: "…"
  }
  initializer {
    dims: 32
    data_type: 1
    name: "import/hourglass/hg_1/depth1/low3_1/conv3/BatchNorm/beta:0"
    raw_data: "…"
  }
  initializer {
      dims: 32
      dims: 32
      dims: 3
      dims: 3
      data_type: 1
      name: "import/hourglass/hg_1/depth1/low3_1/conv2/conv/kernel:0"
  }
  initializer {
    dims: 32
    data_type: 1
    name: "import/hourglass/hg_1/depth1/low3_1/conv2/conv/bias:0"
    raw_data: "…"
  }
  initializer {
    dims: 32
    data_type: 1
    name: "import/hourglass/hg_1/depth1/low3_1/conv2/BatchNorm/moving_variance:0"
    raw_data: "…"
  }
  initializer {
    dims: 32
    data_type: 1
    name: "import/hourglass/hg_1/depth1/low3_1/conv2/BatchNorm/moving_mean:0"
    raw_data: "…"
  }
  initializer {
    dims: 32
    data_type: 1
    name: "import/hourglass/hg_1/depth1/low3_1/conv2/BatchNorm/gamma:0"
    raw_data: "…"
  }
  initializer {
    dims: 32
    data_type: 1
    name: "import/hourglass/hg_1/depth1/low3_1/conv2/BatchNorm/beta:0"
    raw_data: "…"
  }
  initializer {
      dims: 32
      dims: 64
      dims: 1
      dims: 1
      data_type: 1
      name: "import/hourglass/hg_1/depth1/low3_1/conv1/conv/kernel:0"
  }
  initializer {
    dims: 32
    data_type: 1
    name: "import/hourglass/hg_1/depth1/low3_1/conv1/conv/bias:0"
    raw_data: "…"
  }
  initializer {
      dims: 64
      data_type: 1
      name: "import/hourglass/hg_1/depth1/low3_1/conv1/BatchNorm/moving_variance:0"
  }
  initializer {
      dims: 64
      data_type: 1
      name: "import/hourglass/hg_1/depth1/low3_1/conv1/BatchNorm/moving_mean:0"
  }
  initializer {
      dims: 64
      data_type: 1
      name: "import/hourglass/hg_1/depth1/low3_1/conv1/BatchNorm/gamma:0"
  }
  initializer {
      dims: 64
      data_type: 1
      name: "import/hourglass/hg_1/depth1/low3_1/conv1/BatchNorm/beta:0"
  }
  initializer {
      dims: 64
      dims: 32
      dims: 1
      dims: 1
      data_type: 1
      name: "import/hourglass/hg_1/depth1/low1_1/conv3/conv/kernel:0"
  }
  initializer {
      dims: 64
      data_type: 1
      name: "import/hourglass/hg_1/depth1/low1_1/conv3/conv/bias:0"
  }
  initializer {
    dims: 32
    data_type: 1
    name: "import/hourglass/hg_1/depth1/low1_1/conv3/BatchNorm/moving_variance:0"
    raw_data: "…"
  }
  initializer {
    dims: 32
    data_type: 1
    name: "import/hourglass/hg_1/depth1/low1_1/conv3/BatchNorm/moving_mean:0"
    raw_data: "…"
  }
  initializer {
    dims: 32
    data_type: 1
    name: "import/hourglass/hg_1/depth1/low1_1/conv3/BatchNorm/gamma:0"
    raw_data: "…"
  }
  initializer {
    dims: 32
    data_type: 1
    name: "import/hourglass/hg_1/depth1/low1_1/conv3/BatchNorm/beta:0"
    raw_data: "…"
  }
  initializer {
      dims: 32
      dims: 32
      dims: 3
      dims: 3
      data_type: 1
      name: "import/hourglass/hg_1/depth1/low1_1/conv2/conv/kernel:0"
  }
  initializer {
    dims: 32
    data_type: 1
    name: "import/hourglass/hg_1/depth1/low1_1/conv2/conv/bias:0"
    raw_data: "…"
  }
  initializer {
    dims: 32
    data_type: 1
    name: "import/hourglass/hg_1/depth1/low1_1/conv2/BatchNorm/moving_variance:0"
    raw_data: "…"
  }
  initializer {
    dims: 32
    data_type: 1
    name: "import/hourglass/hg_1/depth1/low1_1/conv2/BatchNorm/moving_mean:0"
    raw_data: "…"
  }
  initializer {
    dims: 32
    data_type: 1
    name: "import/hourglass/hg_1/depth1/low1_1/conv2/BatchNorm/gamma:0"
    raw_data: "…"
  }
  initializer {
    dims: 32
    data_type: 1
    name: "import/hourglass/hg_1/depth1/low1_1/conv2/BatchNorm/beta:0"
    raw_data: "…"
  }
  initializer {
      dims: 32
      dims: 64
      dims: 1
      dims: 1
      data_type: 1
      name: "import/hourglass/hg_1/depth1/low1_1/conv1/conv/kernel:0"
  }
  initializer {
    dims: 32
    data_type: 1
    name: "import/hourglass/hg_1/depth1/low1_1/conv1/conv/bias:0"
    raw_data: "…"
  }
  initializer {
      dims: 64
      data_type: 1
      name: "import/hourglass/hg_1/depth1/low1_1/conv1/BatchNorm/moving_variance:0"
  }
  initializer {
      dims: 64
      data_type: 1
      name: "import/hourglass/hg_1/depth1/low1_1/conv1/BatchNorm/moving_mean:0"
  }
  initializer {
      dims: 64
      data_type: 1
      name: "import/hourglass/hg_1/depth1/low1_1/conv1/BatchNorm/gamma:0"
  }
  initializer {
      dims: 64
      data_type: 1
      name: "import/hourglass/hg_1/depth1/low1_1/conv1/BatchNorm/beta:0"
  }
  initializer {
      dims: 64
      dims: 32
      dims: 1
      dims: 1
      data_type: 1
      name: "import/hourglass/hg_1/depth1/depth2/up1_1/conv3/conv/kernel:0"
  }
  initializer {
      dims: 64
      data_type: 1
      name: "import/hourglass/hg_1/depth1/depth2/up1_1/conv3/conv/bias:0"
  }
  initializer {
    dims: 32
    data_type: 1
    name: "import/hourglass/hg_1/depth1/depth2/up1_1/conv3/BatchNorm/moving_variance:0"
    raw_data: "…"
  }
  initializer {
    dims: 32
    data_type: 1
    name: "import/hourglass/hg_1/depth1/depth2/up1_1/conv3/BatchNorm/moving_mean:0"
    raw_data: "…"
  }
  initializer {
    dims: 32
    data_type: 1
    name: "import/hourglass/hg_1/depth1/depth2/up1_1/conv3/BatchNorm/gamma:0"
    raw_data: "…"
  }
  initializer {
    dims: 32
    data_type: 1
    name: "import/hourglass/hg_1/depth1/depth2/up1_1/conv3/BatchNorm/beta:0"
    raw_data: "…"
  }
  initializer {
      dims: 32
      dims: 32
      dims: 3
      dims: 3
      data_type: 1
      name: "import/hourglass/hg_1/depth1/depth2/up1_1/conv2/conv/kernel:0"
  }
  initializer {
    dims: 32
    data_type: 1
    name: "import/hourglass/hg_1/depth1/depth2/up1_1/conv2/conv/bias:0"
    raw_data: "…"
  }
  initializer {
    dims: 32
    data_type: 1
    name: "import/hourglass/hg_1/depth1/depth2/up1_1/conv2/BatchNorm/moving_variance:0"
    raw_data: "…"
  }
  initializer {
    dims: 32
    data_type: 1
    name: "import/hourglass/hg_1/depth1/depth2/up1_1/conv2/BatchNorm/moving_mean:0"
    raw_data: "…"
  }
  initializer {
    dims: 32
    data_type: 1
    name: "import/hourglass/hg_1/depth1/depth2/up1_1/conv2/BatchNorm/gamma:0"
    raw_data: "…"
  }
  initializer {
    dims: 32
    data_type: 1
    name: "import/hourglass/hg_1/depth1/depth2/up1_1/conv2/BatchNorm/beta:0"
    raw_data: "…"
  }
  initializer {
      dims: 32
      dims: 64
      dims: 1
      dims: 1
      data_type: 1
      name: "import/hourglass/hg_1/depth1/depth2/up1_1/conv1/conv/kernel:0"
  }
  initializer {
    dims: 32
    data_type: 1
    name: "import/hourglass/hg_1/depth1/depth2/up1_1/conv1/conv/bias:0"
    raw_data: "…"
  }
  initializer {
      dims: 64
      data_type: 1
      name: "import/hourglass/hg_1/depth1/depth2/up1_1/conv1/BatchNorm/moving_variance:0"
  }
  initializer {
      dims: 64
      data_type: 1
      name: "import/hourglass/hg_1/depth1/depth2/up1_1/conv1/BatchNorm/moving_mean:0"
  }
  initializer {
      dims: 64
      data_type: 1
      name: "import/hourglass/hg_1/depth1/depth2/up1_1/conv1/BatchNorm/gamma:0"
  }
  initializer {
      dims: 64
      data_type: 1
      name: "import/hourglass/hg_1/depth1/depth2/up1_1/conv1/BatchNorm/beta:0"
  }
  initializer {
      dims: 64
      dims: 32
      dims: 1
      dims: 1
      data_type: 1
      name: "import/hourglass/hg_1/depth1/depth2/low3_1/conv3/conv/kernel:0"
  }
  initializer {
      dims: 64
      data_type: 1
      name: "import/hourglass/hg_1/depth1/depth2/low3_1/conv3/conv/bias:0"
  }
  initializer {
    dims: 32
    data_type: 1
    name: "import/hourglass/hg_1/depth1/depth2/low3_1/conv3/BatchNorm/moving_variance:0"
    raw_data: "…"
  }
  initializer {
    dims: 32
    data_type: 1
    name: "import/hourglass/hg_1/depth1/depth2/low3_1/conv3/BatchNorm/moving_mean:0"
    raw_data: "…"
  }
  initializer {
    dims: 32
    data_type: 1
    name: "import/hourglass/hg_1/depth1/depth2/low3_1/conv3/BatchNorm/gamma:0"
    raw_data: "…"
  }
  initializer {
    dims: 32
    data_type: 1
    name: "import/hourglass/hg_1/depth1/depth2/low3_1/conv3/BatchNorm/beta:0"
    raw_data: "…"
  }
  initializer {
      dims: 32
      dims: 32
      dims: 3
      dims: 3
      data_type: 1
      name: "import/hourglass/hg_1/depth1/depth2/low3_1/conv2/conv/kernel:0"
  }
  initializer {
    dims: 32
    data_type: 1
    name: "import/hourglass/hg_1/depth1/depth2/low3_1/conv2/conv/bias:0"
    raw_data: "…"
  }
  initializer {
    dims: 32
    data_type: 1
    name: "import/hourglass/hg_1/depth1/depth2/low3_1/conv2/BatchNorm/moving_variance:0"
    raw_data: "…"
  }
  initializer {
    dims: 32
    data_type: 1
    name: "import/hourglass/hg_1/depth1/depth2/low3_1/conv2/BatchNorm/moving_mean:0"
    raw_data: "…"
  }
  initializer {
    dims: 32
    data_type: 1
    name: "import/hourglass/hg_1/depth1/depth2/low3_1/conv2/BatchNorm/gamma:0"
    raw_data: "…"
  }
  initializer {
    dims: 32
    data_type: 1
    name: "import/hourglass/hg_1/depth1/depth2/low3_1/conv2/BatchNorm/beta:0"
    raw_data: "…"
  }
  initializer {
      dims: 32
      dims: 64
      dims: 1
      dims: 1
      data_type: 1
      name: "import/hourglass/hg_1/depth1/depth2/low3_1/conv1/conv/kernel:0"
  }
  initializer {
    dims: 32
    data_type: 1
    name: "import/hourglass/hg_1/depth1/depth2/low3_1/conv1/conv/bias:0"
    raw_data: "…"
  }
  initializer {
      dims: 64
      data_type: 1
      name: "import/hourglass/hg_1/depth1/depth2/low3_1/conv1/BatchNorm/moving_variance:0"
  }
  initializer {
      dims: 64
      data_type: 1
      name: "import/hourglass/hg_1/depth1/depth2/low3_1/conv1/BatchNorm/moving_mean:0"
  }
  initializer {
      dims: 64
      data_type: 1
      name: "import/hourglass/hg_1/depth1/depth2/low3_1/conv1/BatchNorm/gamma:0"
  }
  initializer {
      dims: 64
      data_type: 1
      name: "import/hourglass/hg_1/depth1/depth2/low3_1/conv1/BatchNorm/beta:0"
  }
  initializer {
      dims: 64
      dims: 32
      dims: 1
      dims: 1
      data_type: 1
      name: "import/hourglass/hg_1/depth1/depth2/low1_1/conv3/conv/kernel:0"
  }
  initializer {
      dims: 64
      data_type: 1
      name: "import/hourglass/hg_1/depth1/depth2/low1_1/conv3/conv/bias:0"
  }
  initializer {
    dims: 32
    data_type: 1
    name: "import/hourglass/hg_1/depth1/depth2/low1_1/conv3/BatchNorm/moving_variance:0"
    raw_data: "…"
  }
  initializer {
    dims: 32
    data_type: 1
    name: "import/hourglass/hg_1/depth1/depth2/low1_1/conv3/BatchNorm/moving_mean:0"
    raw_data: "…"
  }
  initializer {
    dims: 32
    data_type: 1
    name: "import/hourglass/hg_1/depth1/depth2/low1_1/conv3/BatchNorm/gamma:0"
    raw_data: "…"
  }
  initializer {
    dims: 32
    data_type: 1
    name: "import/hourglass/hg_1/depth1/depth2/low1_1/conv3/BatchNorm/beta:0"
    raw_data: "…"
  }
  initializer {
      dims: 32
      dims: 32
      dims: 3
      dims: 3
      data_type: 1
      name: "import/hourglass/hg_1/depth1/depth2/low1_1/conv2/conv/kernel:0"
  }
  initializer {
    dims: 32
    data_type: 1
    name: "import/hourglass/hg_1/depth1/depth2/low1_1/conv2/conv/bias:0"
    raw_data: "…"
  }
  initializer {
    dims: 32
    data_type: 1
    name: "import/hourglass/hg_1/depth1/depth2/low1_1/conv2/BatchNorm/moving_variance:0"
    raw_data: "…"
  }
  initializer {
    dims: 32
    data_type: 1
    name: "import/hourglass/hg_1/depth1/depth2/low1_1/conv2/BatchNorm/moving_mean:0"
    raw_data: "…"
  }
  initializer {
    dims: 32
    data_type: 1
    name: "import/hourglass/hg_1/depth1/depth2/low1_1/conv2/BatchNorm/gamma:0"
    raw_data: "…"
  }
  initializer {
    dims: 32
    data_type: 1
    name: "import/hourglass/hg_1/depth1/depth2/low1_1/conv2/BatchNorm/beta:0"
    raw_data: "…"
  }
  initializer {
      dims: 32
      dims: 64
      dims: 1
      dims: 1
      data_type: 1
      name: "import/hourglass/hg_1/depth1/depth2/low1_1/conv1/conv/kernel:0"
  }
  initializer {
    dims: 32
    data_type: 1
    name: "import/hourglass/hg_1/depth1/depth2/low1_1/conv1/conv/bias:0"
    raw_data: "…"
  }
  initializer {
      dims: 64
      data_type: 1
      name: "import/hourglass/hg_1/depth1/depth2/low1_1/conv1/BatchNorm/moving_variance:0"
  }
  initializer {
      dims: 64
      data_type: 1
      name: "import/hourglass/hg_1/depth1/depth2/low1_1/conv1/BatchNorm/moving_mean:0"
  }
  initializer {
      dims: 64
      data_type: 1
      name: "import/hourglass/hg_1/depth1/depth2/low1_1/conv1/BatchNorm/gamma:0"
  }
  initializer {
      dims: 64
      data_type: 1
      name: "import/hourglass/hg_1/depth1/depth2/low1_1/conv1/BatchNorm/beta:0"
  }
  initializer {
      dims: 64
      dims: 32
      dims: 1
      dims: 1
      data_type: 1
      name: "import/hourglass/hg_1/depth1/depth2/depth3/up1_1/conv3/conv/kernel:0"
  }
  initializer {
      dims: 64
      data_type: 1
      name: "import/hourglass/hg_1/depth1/depth2/depth3/up1_1/conv3/conv/bias:0"
  }
  initializer {
    dims: 32
    data_type: 1
    name: "import/hourglass/hg_1/depth1/depth2/depth3/up1_1/conv3/BatchNorm/moving_variance:0"
    raw_data: "…"
  }
  initializer {
    dims: 32
    data_type: 1
    name: "import/hourglass/hg_1/depth1/depth2/depth3/up1_1/conv3/BatchNorm/moving_mean:0"
    raw_data: "…"
  }
  initializer {
    dims: 32
    data_type: 1
    name: "import/hourglass/hg_1/depth1/depth2/depth3/up1_1/conv3/BatchNorm/gamma:0"
    raw_data: "…"
  }
  initializer {
    dims: 32
    data_type: 1
    name: "import/hourglass/hg_1/depth1/depth2/depth3/up1_1/conv3/BatchNorm/beta:0"
    raw_data: "…"
  }
  initializer {
      dims: 32
      dims: 32
      dims: 3
      dims: 3
      data_type: 1
      name: "import/hourglass/hg_1/depth1/depth2/depth3/up1_1/conv2/conv/kernel:0"
  }
  initializer {
    dims: 32
    data_type: 1
    name: "import/hourglass/hg_1/depth1/depth2/depth3/up1_1/conv2/conv/bias:0"
    raw_data: "…"
  }
  initializer {
    dims: 32
    data_type: 1
    name: "import/hourglass/hg_1/depth1/depth2/depth3/up1_1/conv2/BatchNorm/moving_variance:0"
    raw_data: "…"
  }
  initializer {
    dims: 32
    data_type: 1
    name: "import/hourglass/hg_1/depth1/depth2/depth3/up1_1/conv2/BatchNorm/moving_mean:0"
    raw_data: "…"
  }
  initializer {
    dims: 32
    data_type: 1
    name: "import/hourglass/hg_1/depth1/depth2/depth3/up1_1/conv2/BatchNorm/gamma:0"
    raw_data: "…"
  }
  initializer {
    dims: 32
    data_type: 1
    name: "import/hourglass/hg_1/depth1/depth2/depth3/up1_1/conv2/BatchNorm/beta:0"
    raw_data: "…"
  }
  initializer {
      dims: 32
      dims: 64
      dims: 1
      dims: 1
      data_type: 1
      name: "import/hourglass/hg_1/depth1/depth2/depth3/up1_1/conv1/conv/kernel:0"
  }
  initializer {
    dims: 32
    data_type: 1
    name: "import/hourglass/hg_1/depth1/depth2/depth3/up1_1/conv1/conv/bias:0"
    raw_data: "…"
  }
  initializer {
      dims: 64
      data_type: 1
      name: "import/hourglass/hg_1/depth1/depth2/depth3/up1_1/conv1/BatchNorm/moving_variance:0"
  }
  initializer {
      dims: 64
      data_type: 1
      name: "import/hourglass/hg_1/depth1/depth2/depth3/up1_1/conv1/BatchNorm/moving_mean:0"
  }
  initializer {
      dims: 64
      data_type: 1
      name: "import/hourglass/hg_1/depth1/depth2/depth3/up1_1/conv1/BatchNorm/gamma:0"
  }
  initializer {
      dims: 64
      data_type: 1
      name: "import/hourglass/hg_1/depth1/depth2/depth3/up1_1/conv1/BatchNorm/beta:0"
  }
  initializer {
      dims: 64
      dims: 32
      dims: 1
      dims: 1
      data_type: 1
      name: "import/hourglass/hg_1/depth1/depth2/depth3/low3_1/conv3/conv/kernel:0"
  }
  initializer {
      dims: 64
      data_type: 1
      name: "import/hourglass/hg_1/depth1/depth2/depth3/low3_1/conv3/conv/bias:0"
  }
  initializer {
    dims: 32
    data_type: 1
    name: "import/hourglass/hg_1/depth1/depth2/depth3/low3_1/conv3/BatchNorm/moving_variance:0"
    raw_data: "…"
  }
  initializer {
    dims: 32
    data_type: 1
    name: "import/hourglass/hg_1/depth1/depth2/depth3/low3_1/conv3/BatchNorm/moving_mean:0"
    raw_data: "…"
  }
  initializer {
    dims: 32
    data_type: 1
    name: "import/hourglass/hg_1/depth1/depth2/depth3/low3_1/conv3/BatchNorm/gamma:0"
    raw_data: "…"
  }
  initializer {
    dims: 32
    data_type: 1
    name: "import/hourglass/hg_1/depth1/depth2/depth3/low3_1/conv3/BatchNorm/beta:0"
    raw_data: "…"
  }
  initializer {
      dims: 32
      dims: 32
      dims: 3
      dims: 3
      data_type: 1
      name: "import/hourglass/hg_1/depth1/depth2/depth3/low3_1/conv2/conv/kernel:0"
  }
  initializer {
    dims: 32
    data_type: 1
    name: "import/hourglass/hg_1/depth1/depth2/depth3/low3_1/conv2/conv/bias:0"
    raw_data: "…"
  }
  initializer {
    dims: 32
    data_type: 1
    name: "import/hourglass/hg_1/depth1/depth2/depth3/low3_1/conv2/BatchNorm/moving_variance:0"
    raw_data: "…"
  }
  initializer {
    dims: 32
    data_type: 1
    name: "import/hourglass/hg_1/depth1/depth2/depth3/low3_1/conv2/BatchNorm/moving_mean:0"
    raw_data: "…"
  }
  initializer {
    dims: 32
    data_type: 1
    name: "import/hourglass/hg_1/depth1/depth2/depth3/low3_1/conv2/BatchNorm/gamma:0"
    raw_data: "…"
  }
  initializer {
    dims: 32
    data_type: 1
    name: "import/hourglass/hg_1/depth1/depth2/depth3/low3_1/conv2/BatchNorm/beta:0"
    raw_data: "…"
  }
  initializer {
      dims: 32
      dims: 64
      dims: 1
      dims: 1
      data_type: 1
      name: "import/hourglass/hg_1/depth1/depth2/depth3/low3_1/conv1/conv/kernel:0"
  }
  initializer {
    dims: 32
    data_type: 1
    name: "import/hourglass/hg_1/depth1/depth2/depth3/low3_1/conv1/conv/bias:0"
    raw_data: "…"
  }
  initializer {
      dims: 64
      data_type: 1
      name: "import/hourglass/hg_1/depth1/depth2/depth3/low3_1/conv1/BatchNorm/moving_variance:0"
  }
  initializer {
      dims: 64
      data_type: 1
      name: "import/hourglass/hg_1/depth1/depth2/depth3/low3_1/conv1/BatchNorm/moving_mean:0"
  }
  initializer {
      dims: 64
      data_type: 1
      name: "import/hourglass/hg_1/depth1/depth2/depth3/low3_1/conv1/BatchNorm/gamma:0"
  }
  initializer {
      dims: 64
      data_type: 1
      name: "import/hourglass/hg_1/depth1/depth2/depth3/low3_1/conv1/BatchNorm/beta:0"
  }
  initializer {
      dims: 64
      dims: 32
      dims: 1
      dims: 1
      data_type: 1
      name: "import/hourglass/hg_1/depth1/depth2/depth3/low1_1/conv3/conv/kernel:0"
  }
  initializer {
      dims: 64
      data_type: 1
      name: "import/hourglass/hg_1/depth1/depth2/depth3/low1_1/conv3/conv/bias:0"
  }
  initializer {
    dims: 32
    data_type: 1
    name: "import/hourglass/hg_1/depth1/depth2/depth3/low1_1/conv3/BatchNorm/moving_variance:0"
    raw_data: "…"
  }
  initializer {
    dims: 32
    data_type: 1
    name: "import/hourglass/hg_1/depth1/depth2/depth3/low1_1/conv3/BatchNorm/moving_mean:0"
    raw_data: "…"
  }
  initializer {
    dims: 32
    data_type: 1
    name: "import/hourglass/hg_1/depth1/depth2/depth3/low1_1/conv3/BatchNorm/gamma:0"
    raw_data: "…"
  }
  initializer {
    dims: 32
    data_type: 1
    name: "import/hourglass/hg_1/depth1/depth2/depth3/low1_1/conv3/BatchNorm/beta:0"
    raw_data: "…"
  }
  initializer {
      dims: 32
      dims: 32
      dims: 3
      dims: 3
      data_type: 1
      name: "import/hourglass/hg_1/depth1/depth2/depth3/low1_1/conv2/conv/kernel:0"
  }
  initializer {
    dims: 32
    data_type: 1
    name: "import/hourglass/hg_1/depth1/depth2/depth3/low1_1/conv2/conv/bias:0"
    raw_data: "…"
  }
  initializer {
    dims: 32
    data_type: 1
    name: "import/hourglass/hg_1/depth1/depth2/depth3/low1_1/conv2/BatchNorm/moving_variance:0"
    raw_data: "…"
  }
  initializer {
    dims: 32
    data_type: 1
    name: "import/hourglass/hg_1/depth1/depth2/depth3/low1_1/conv2/BatchNorm/moving_mean:0"
    raw_data: "…"
  }
  initializer {
    dims: 32
    data_type: 1
    name: "import/hourglass/hg_1/depth1/depth2/depth3/low1_1/conv2/BatchNorm/gamma:0"
    raw_data: "…"
  }
  initializer {
    dims: 32
    data_type: 1
    name: "import/hourglass/hg_1/depth1/depth2/depth3/low1_1/conv2/BatchNorm/beta:0"
    raw_data: "…"
  }
  initializer {
      dims: 32
      dims: 64
      dims: 1
      dims: 1
      data_type: 1
      name: "import/hourglass/hg_1/depth1/depth2/depth3/low1_1/conv1/conv/kernel:0"
  }
  initializer {
    dims: 32
    data_type: 1
    name: "import/hourglass/hg_1/depth1/depth2/depth3/low1_1/conv1/conv/bias:0"
    raw_data: "…"
  }
  initializer {
      dims: 64
      data_type: 1
      name: "import/hourglass/hg_1/depth1/depth2/depth3/low1_1/conv1/BatchNorm/moving_variance:0"
  }
  initializer {
      dims: 64
      data_type: 1
      name: "import/hourglass/hg_1/depth1/depth2/depth3/low1_1/conv1/BatchNorm/moving_mean:0"
  }
  initializer {
      dims: 64
      data_type: 1
      name: "import/hourglass/hg_1/depth1/depth2/depth3/low1_1/conv1/BatchNorm/gamma:0"
  }
  initializer {
      dims: 64
      data_type: 1
      name: "import/hourglass/hg_1/depth1/depth2/depth3/low1_1/conv1/BatchNorm/beta:0"
  }
  initializer {
      dims: 64
      dims: 32
      dims: 1
      dims: 1
      data_type: 1
      name: "import/hourglass/hg_1/depth1/depth2/depth3/depth4/up1_1/conv3/conv/kernel:0"
  }
  initializer {
      dims: 64
      data_type: 1
      name: "import/hourglass/hg_1/depth1/depth2/depth3/depth4/up1_1/conv3/conv/bias:0"
  }
  initializer {
    dims: 32
    data_type: 1
    name: "import/hourglass/hg_1/depth1/depth2/depth3/depth4/up1_1/conv3/BatchNorm/moving_variance:0"
    raw_data: "…"
  }
  initializer {
    dims: 32
    data_type: 1
    name: "import/hourglass/hg_1/depth1/depth2/depth3/depth4/up1_1/conv3/BatchNorm/moving_mean:0"
    raw_data: "…"
  }
  initializer {
    dims: 32
    data_type: 1
    name: "import/hourglass/hg_1/depth1/depth2/depth3/depth4/up1_1/conv3/BatchNorm/gamma:0"
    raw_data: "…"
  }
  initializer {
    dims: 32
    data_type: 1
    name: "import/hourglass/hg_1/depth1/depth2/depth3/depth4/up1_1/conv3/BatchNorm/beta:0"
    raw_data: "…"
  }
  initializer {
      dims: 32
      dims: 32
      dims: 3
      dims: 3
      data_type: 1
      name: "import/hourglass/hg_1/depth1/depth2/depth3/depth4/up1_1/conv2/conv/kernel:0"
  }
  initializer {
    dims: 32
    data_type: 1
    name: "import/hourglass/hg_1/depth1/depth2/depth3/depth4/up1_1/conv2/conv/bias:0"
    raw_data: "…"
  }
  initializer {
    dims: 32
    data_type: 1
    name: "import/hourglass/hg_1/depth1/depth2/depth3/depth4/up1_1/conv2/BatchNorm/moving_variance:0"
    raw_data: "…"
  }
  initializer {
    dims: 32
    data_type: 1
    name: "import/hourglass/hg_1/depth1/depth2/depth3/depth4/up1_1/conv2/BatchNorm/moving_mean:0"
    raw_data: "…"
  }
  initializer {
    dims: 32
    data_type: 1
    name: "import/hourglass/hg_1/depth1/depth2/depth3/depth4/up1_1/conv2/BatchNorm/gamma:0"
    raw_data: "…"
  }
  initializer {
    dims: 32
    data_type: 1
    name: "import/hourglass/hg_1/depth1/depth2/depth3/depth4/up1_1/conv2/BatchNorm/beta:0"
    raw_data: "…"
  }
  initializer {
      dims: 32
      dims: 64
      dims: 1
      dims: 1
      data_type: 1
      name: "import/hourglass/hg_1/depth1/depth2/depth3/depth4/up1_1/conv1/conv/kernel:0"
  }
  initializer {
    dims: 32
    data_type: 1
    name: "import/hourglass/hg_1/depth1/depth2/depth3/depth4/up1_1/conv1/conv/bias:0"
    raw_data: "…"
  }
  initializer {
      dims: 64
      data_type: 1
      name: "import/hourglass/hg_1/depth1/depth2/depth3/depth4/up1_1/conv1/BatchNorm/moving_variance:0"
  }
  initializer {
      dims: 64
      data_type: 1
      name: "import/hourglass/hg_1/depth1/depth2/depth3/depth4/up1_1/conv1/BatchNorm/moving_mean:0"
  }
  initializer {
      dims: 64
      data_type: 1
      name: "import/hourglass/hg_1/depth1/depth2/depth3/depth4/up1_1/conv1/BatchNorm/gamma:0"
  }
  initializer {
      dims: 64
      data_type: 1
      name: "import/hourglass/hg_1/depth1/depth2/depth3/depth4/up1_1/conv1/BatchNorm/beta:0"
  }
  initializer {
      dims: 64
      dims: 32
      dims: 1
      dims: 1
      data_type: 1
      name: "import/hourglass/hg_1/depth1/depth2/depth3/depth4/low3_1/conv3/conv/kernel:0"
  }
  initializer {
      dims: 64
      data_type: 1
      name: "import/hourglass/hg_1/depth1/depth2/depth3/depth4/low3_1/conv3/conv/bias:0"
  }
  initializer {
    dims: 32
    data_type: 1
    name: "import/hourglass/hg_1/depth1/depth2/depth3/depth4/low3_1/conv3/BatchNorm/moving_variance:0"
    raw_data: "…"
  }
  initializer {
    dims: 32
    data_type: 1
    name: "import/hourglass/hg_1/depth1/depth2/depth3/depth4/low3_1/conv3/BatchNorm/moving_mean:0"
    raw_data: "…"
  }
  initializer {
    dims: 32
    data_type: 1
    name: "import/hourglass/hg_1/depth1/depth2/depth3/depth4/low3_1/conv3/BatchNorm/gamma:0"
    raw_data: "…"
  }
  initializer {
    dims: 32
    data_type: 1
    name: "import/hourglass/hg_1/depth1/depth2/depth3/depth4/low3_1/conv3/BatchNorm/beta:0"
    raw_data: "…"
  }
  initializer {
      dims: 32
      dims: 32
      dims: 3
      dims: 3
      data_type: 1
      name: "import/hourglass/hg_1/depth1/depth2/depth3/depth4/low3_1/conv2/conv/kernel:0"
  }
  initializer {
    dims: 32
    data_type: 1
    name: "import/hourglass/hg_1/depth1/depth2/depth3/depth4/low3_1/conv2/conv/bias:0"
    raw_data: "…"
  }
  initializer {
    dims: 32
    data_type: 1
    name: "import/hourglass/hg_1/depth1/depth2/depth3/depth4/low3_1/conv2/BatchNorm/moving_variance:0"
    raw_data: "…"
  }
  initializer {
    dims: 32
    data_type: 1
    name: "import/hourglass/hg_1/depth1/depth2/depth3/depth4/low3_1/conv2/BatchNorm/moving_mean:0"
    raw_data: "…"
  }
  initializer {
    dims: 32
    data_type: 1
    name: "import/hourglass/hg_1/depth1/depth2/depth3/depth4/low3_1/conv2/BatchNorm/gamma:0"
    raw_data: "…"
  }
  initializer {
    dims: 32
    data_type: 1
    name: "import/hourglass/hg_1/depth1/depth2/depth3/depth4/low3_1/conv2/BatchNorm/beta:0"
    raw_data: "…"
  }
  initializer {
      dims: 32
      dims: 64
      dims: 1
      dims: 1
      data_type: 1
      name: "import/hourglass/hg_1/depth1/depth2/depth3/depth4/low3_1/conv1/conv/kernel:0"
  }
  initializer {
    dims: 32
    data_type: 1
    name: "import/hourglass/hg_1/depth1/depth2/depth3/depth4/low3_1/conv1/conv/bias:0"
    raw_data: "…"
  }
  initializer {
      dims: 64
      data_type: 1
      name: "import/hourglass/hg_1/depth1/depth2/depth3/depth4/low3_1/conv1/BatchNorm/moving_variance:0"
  }
  initializer {
      dims: 64
      data_type: 1
      name: "import/hourglass/hg_1/depth1/depth2/depth3/depth4/low3_1/conv1/BatchNorm/moving_mean:0"
  }
  initializer {
      dims: 64
      data_type: 1
      name: "import/hourglass/hg_1/depth1/depth2/depth3/depth4/low3_1/conv1/BatchNorm/gamma:0"
  }
  initializer {
      dims: 64
      data_type: 1
      name: "import/hourglass/hg_1/depth1/depth2/depth3/depth4/low3_1/conv1/BatchNorm/beta:0"
  }
  initializer {
      dims: 64
      dims: 32
      dims: 1
      dims: 1
      data_type: 1
      name: "import/hourglass/hg_1/depth1/depth2/depth3/depth4/low2_1/conv3/conv/kernel:0"
  }
  initializer {
      dims: 64
      data_type: 1
      name: "import/hourglass/hg_1/depth1/depth2/depth3/depth4/low2_1/conv3/conv/bias:0"
  }
  initializer {
    dims: 32
    data_type: 1
    name: "import/hourglass/hg_1/depth1/depth2/depth3/depth4/low2_1/conv3/BatchNorm/moving_variance:0"
    raw_data: "…"
  }
  initializer {
    dims: 32
    data_type: 1
    name: "import/hourglass/hg_1/depth1/depth2/depth3/depth4/low2_1/conv3/BatchNorm/moving_mean:0"
    raw_data: "…"
  }
  initializer {
    dims: 32
    data_type: 1
    name: "import/hourglass/hg_1/depth1/depth2/depth3/depth4/low2_1/conv3/BatchNorm/gamma:0"
    raw_data: "…"
  }
  initializer {
    dims: 32
    data_type: 1
    name: "import/hourglass/hg_1/depth1/depth2/depth3/depth4/low2_1/conv3/BatchNorm/beta:0"
    raw_data: "…"
  }
  initializer {
      dims: 32
      dims: 32
      dims: 3
      dims: 3
      data_type: 1
      name: "import/hourglass/hg_1/depth1/depth2/depth3/depth4/low2_1/conv2/conv/kernel:0"
  }
  initializer {
    dims: 32
    data_type: 1
    name: "import/hourglass/hg_1/depth1/depth2/depth3/depth4/low2_1/conv2/conv/bias:0"
    raw_data: "…"
  }
  initializer {
    dims: 32
    data_type: 1
    name: "import/hourglass/hg_1/depth1/depth2/depth3/depth4/low2_1/conv2/BatchNorm/moving_variance:0"
    raw_data: "…"
  }
  initializer {
    dims: 32
    data_type: 1
    name: "import/hourglass/hg_1/depth1/depth2/depth3/depth4/low2_1/conv2/BatchNorm/moving_mean:0"
    raw_data: "…"
  }
  initializer {
    dims: 32
    data_type: 1
    name: "import/hourglass/hg_1/depth1/depth2/depth3/depth4/low2_1/conv2/BatchNorm/gamma:0"
    raw_data: "…"
  }
  initializer {
    dims: 32
    data_type: 1
    name: "import/hourglass/hg_1/depth1/depth2/depth3/depth4/low2_1/conv2/BatchNorm/beta:0"
    raw_data: "…"
  }
  initializer {
      dims: 32
      dims: 64
      dims: 1
      dims: 1
      data_type: 1
      name: "import/hourglass/hg_1/depth1/depth2/depth3/depth4/low2_1/conv1/conv/kernel:0"
  }
  initializer {
    dims: 32
    data_type: 1
    name: "import/hourglass/hg_1/depth1/depth2/depth3/depth4/low2_1/conv1/conv/bias:0"
    raw_data: "…"
  }
  initializer {
      dims: 64
      data_type: 1
      name: "import/hourglass/hg_1/depth1/depth2/depth3/depth4/low2_1/conv1/BatchNorm/moving_variance:0"
  }
  initializer {
      dims: 64
      data_type: 1
      name: "import/hourglass/hg_1/depth1/depth2/depth3/depth4/low2_1/conv1/BatchNorm/moving_mean:0"
  }
  initializer {
      dims: 64
      data_type: 1
      name: "import/hourglass/hg_1/depth1/depth2/depth3/depth4/low2_1/conv1/BatchNorm/gamma:0"
  }
  initializer {
      dims: 64
      data_type: 1
      name: "import/hourglass/hg_1/depth1/depth2/depth3/depth4/low2_1/conv1/BatchNorm/beta:0"
  }
  initializer {
      dims: 64
      dims: 32
      dims: 1
      dims: 1
      data_type: 1
      name: "import/hourglass/hg_1/depth1/depth2/depth3/depth4/low1_1/conv3/conv/kernel:0"
  }
  initializer {
      dims: 64
      data_type: 1
      name: "import/hourglass/hg_1/depth1/depth2/depth3/depth4/low1_1/conv3/conv/bias:0"
  }
  initializer {
    dims: 32
    data_type: 1
    name: "import/hourglass/hg_1/depth1/depth2/depth3/depth4/low1_1/conv3/BatchNorm/moving_variance:0"
    raw_data: "…"
  }
  initializer {
    dims: 32
    data_type: 1
    name: "import/hourglass/hg_1/depth1/depth2/depth3/depth4/low1_1/conv3/BatchNorm/moving_mean:0"
    raw_data: "…"
  }
  initializer {
    dims: 32
    data_type: 1
    name: "import/hourglass/hg_1/depth1/depth2/depth3/depth4/low1_1/conv3/BatchNorm/gamma:0"
    raw_data: "…"
  }
  initializer {
    dims: 32
    data_type: 1
    name: "import/hourglass/hg_1/depth1/depth2/depth3/depth4/low1_1/conv3/BatchNorm/beta:0"
    raw_data: "…"
  }
  initializer {
      dims: 32
      dims: 32
      dims: 3
      dims: 3
      data_type: 1
      name: "import/hourglass/hg_1/depth1/depth2/depth3/depth4/low1_1/conv2/conv/kernel:0"
  }
  initializer {
    dims: 32
    data_type: 1
    name: "import/hourglass/hg_1/depth1/depth2/depth3/depth4/low1_1/conv2/conv/bias:0"
    raw_data: "…"
  }
  initializer {
    dims: 32
    data_type: 1
    name: "import/hourglass/hg_1/depth1/depth2/depth3/depth4/low1_1/conv2/BatchNorm/moving_variance:0"
    raw_data: "…"
  }
  initializer {
    dims: 32
    data_type: 1
    name: "import/hourglass/hg_1/depth1/depth2/depth3/depth4/low1_1/conv2/BatchNorm/moving_mean:0"
    raw_data: "…"
  }
  initializer {
    dims: 32
    data_type: 1
    name: "import/hourglass/hg_1/depth1/depth2/depth3/depth4/low1_1/conv2/BatchNorm/gamma:0"
    raw_data: "…"
  }
  initializer {
    dims: 32
    data_type: 1
    name: "import/hourglass/hg_1/depth1/depth2/depth3/depth4/low1_1/conv2/BatchNorm/beta:0"
    raw_data: "…"
  }
  initializer {
      dims: 32
      dims: 64
      dims: 1
      dims: 1
      data_type: 1
      name: "import/hourglass/hg_1/depth1/depth2/depth3/depth4/low1_1/conv1/conv/kernel:0"
  }
  initializer {
    dims: 32
    data_type: 1
    name: "import/hourglass/hg_1/depth1/depth2/depth3/depth4/low1_1/conv1/conv/bias:0"
    raw_data: "…"
  }
  initializer {
      dims: 64
      data_type: 1
      name: "import/hourglass/hg_1/depth1/depth2/depth3/depth4/low1_1/conv1/BatchNorm/moving_variance:0"
  }
  initializer {
      dims: 64
      data_type: 1
      name: "import/hourglass/hg_1/depth1/depth2/depth3/depth4/low1_1/conv1/BatchNorm/moving_mean:0"
  }
  initializer {
      dims: 64
      data_type: 1
      name: "import/hourglass/hg_1/depth1/depth2/depth3/depth4/low1_1/conv1/BatchNorm/gamma:0"
  }
  initializer {
      dims: 64
      data_type: 1
      name: "import/hourglass/hg_1/depth1/depth2/depth3/depth4/low1_1/conv1/BatchNorm/beta:0"
  }
  initializer {
      dims: 18
      dims: 64
      dims: 1
      dims: 1
      data_type: 1
      name: "import/hourglass/hg_1/after/hmap/conv/kernel:0"
  }
  initializer {
    dims: 18
    data_type: 1
    name: "import/hourglass/hg_1/after/hmap/conv/bias:0"
    raw_data: "…"
  }
  initializer {
      dims: 64
      dims: 64
      dims: 1
      dims: 1
      data_type: 1
      name: "import/hourglass/hg_1/after/conv/kernel:0"
  }
  initializer {
      dims: 64
      data_type: 1
      name: "import/hourglass/hg_1/after/conv/bias:0"
  }
  initializer {
      dims: 64
      dims: 32
      dims: 1
      dims: 1
      data_type: 1
      name: "import/hourglass/hg_1/after/after_hg_1/conv3/conv/kernel:0"
  }
  initializer {
      dims: 64
      data_type: 1
      name: "import/hourglass/hg_1/after/after_hg_1/conv3/conv/bias:0"
  }
  initializer {
    dims: 32
    data_type: 1
    name: "import/hourglass/hg_1/after/after_hg_1/conv3/BatchNorm/moving_variance:0"
    raw_data: "…"
  }
  initializer {
    dims: 32
    data_type: 1
    name: "import/hourglass/hg_1/after/after_hg_1/conv3/BatchNorm/moving_mean:0"
    raw_data: "…"
  }
  initializer {
    dims: 32
    data_type: 1
    name: "import/hourglass/hg_1/after/after_hg_1/conv3/BatchNorm/gamma:0"
    raw_data: "…"
  }
  initializer {
    dims: 32
    data_type: 1
    name: "import/hourglass/hg_1/after/after_hg_1/conv3/BatchNorm/beta:0"
    raw_data: "…"
  }
  initializer {
      dims: 32
      dims: 32
      dims: 3
      dims: 3
      data_type: 1
      name: "import/hourglass/hg_1/after/after_hg_1/conv2/conv/kernel:0"
  }
  initializer {
    dims: 32
    data_type: 1
    name: "import/hourglass/hg_1/after/after_hg_1/conv2/conv/bias:0"
    raw_data: "…"
  }
  initializer {
    dims: 32
    data_type: 1
    name: "import/hourglass/hg_1/after/after_hg_1/conv2/BatchNorm/moving_variance:0"
    raw_data: "…"
  }
  initializer {
    dims: 32
    data_type: 1
    name: "import/hourglass/hg_1/after/after_hg_1/conv2/BatchNorm/moving_mean:0"
    raw_data: "…"
  }
  initializer {
    dims: 32
    data_type: 1
    name: "import/hourglass/hg_1/after/after_hg_1/conv2/BatchNorm/gamma:0"
    raw_data: "…"
  }
  initializer {
    dims: 32
    data_type: 1
    name: "import/hourglass/hg_1/after/after_hg_1/conv2/BatchNorm/beta:0"
    raw_data: "…"
  }
  initializer {
      dims: 32
      dims: 64
      dims: 1
      dims: 1
      data_type: 1
      name: "import/hourglass/hg_1/after/after_hg_1/conv1/conv/kernel:0"
  }
  initializer {
    dims: 32
    data_type: 1
    name: "import/hourglass/hg_1/after/after_hg_1/conv1/conv/bias:0"
    raw_data: "…"
  }
  initializer {
      dims: 64
      data_type: 1
      name: "import/hourglass/hg_1/after/after_hg_1/conv1/BatchNorm/moving_variance:0"
  }
  initializer {
      dims: 64
      data_type: 1
      name: "import/hourglass/hg_1/after/after_hg_1/conv1/BatchNorm/moving_mean:0"
  }
  initializer {
      dims: 64
      data_type: 1
      name: "import/hourglass/hg_1/after/after_hg_1/conv1/BatchNorm/gamma:0"
  }
  initializer {
      dims: 64
      data_type: 1
      name: "import/hourglass/hg_1/after/after_hg_1/conv1/BatchNorm/beta:0"
  }
  initializer {
      dims: 64
      data_type: 1
      name: "import/hourglass/hg_1/after/BatchNorm/moving_variance:0"
  }
  initializer {
      dims: 64
      data_type: 1
      name: "import/hourglass/hg_1/after/BatchNorm/moving_mean:0"
  }
  initializer {
      dims: 64
      data_type: 1
      name: "import/hourglass/hg_1/after/BatchNorm/gamma:0"
  }
  initializer {
      dims: 64
      data_type: 1
      name: "import/hourglass/hg_1/after/BatchNorm/beta:0"
  }
  initializer {
    data_type: 1
    name: "import/argsoftmax/mul_4/y:0"
    raw_data: "\000\000\014B"
  }
  initializer {
    data_type: 1
    name: "import/argsoftmax/mul_3/y:0"
    raw_data: "\000\000lB"
  }
  initializer {
    data_type: 1
    name: "import/argsoftmax/mul/x:0"
    raw_data: "\000\000\310B"
  }
  initializer {
    data_type: 1
    name: "import/argsoftmax/add_1/y:0"
    raw_data: "\000\000\000?"
  }
  initializer {
    data_type: 1
    name: "import/argsoftmax/add/y:0"
    raw_data: "\000\000\000?"
  }
  initializer {
    dims: 3
    data_type: 6
    name: "import/argsoftmax/Reshape/shape:0"
    raw_data: "\377\377\377\377\022\000\000\000p\010\000\000"
  }
  initializer {
      dims: 1
      dims: 2160
      data_type: 1
      name: "import/argsoftmax/Const_1:0"
  }
  initializer {
      dims: 1
      dims: 2160
      data_type: 1
      name: "import/argsoftmax/Const:0"
  }
  input {
    name: "import/eye:0"
    type {
      tensor_type {
        elem_type: 1
        shape {
          dim {
            dim_value: 2
          }
          dim {
            dim_value: 108
          }
          dim {
            dim_value: 180
          }
          dim {
            dim_value: 1
          }
        }
      }
    }
  }
  output {
    name: "import/upscale/mul:0"
    type {
      tensor_type {
        elem_type: 1
        shape {
          dim {
            dim_value: 2
          }
          dim {
            dim_value: 18
          }
          dim {
            dim_value: 2
          }
        }
      }
    }
  }
  output {
    name: "import/hourglass/hg_2/after/hmap/conv/BiasAdd:0"
    type {
      tensor_type {
        elem_type: 1
        shape {
          dim {
            dim_value: 2
          }
          dim {
            dim_value: 36
          }
          dim {
            dim_value: 60
          }
          dim {
            dim_value: 18
          }
        }
      }
    }
  }
  output {
    name: "import/radius/out/fc/BiasAdd:0"
    type {
      tensor_type {
        elem_type: 1
        shape {
          dim {
            dim_value: 2
          }
          dim {
            dim_value: 1
          }
        }
      }
    }
  }
}
opset_import {
  version: 10
}
