ir_version: 4
producer_name: "pytorch"
producer_version: "1.1"
model_version: 0
graph {
  name: "torch-jit-export"
  node {
    output: "1201"
    op_type: "Constant"
    attribute {
      name: "value"
      t {
        data_type: 7
        raw_data: "\000\000\000\000\000\000\000\000"
      }
      type: TENSOR
    }
  }
  node {
    input: "input.1"
    output: "1202"
    op_type: "Shape"
  }
  node {
    input: "1202"
    input: "1201"
    output: "1203"
    op_type: "Gather"
    attribute {
      name: "axis"
      i: 0
      type: INT
    }
  }
  node {
    input: "input.1"
    output: "1204"
    op_type: "Pad"
    attribute {
      name: "mode"
      s: "constant"
      type: STRING
    }
    attribute {
      name: "pads"
      ints: 0
      ints: 0
      ints: 0
      ints: 0
      ints: 0
      ints: 0
      ints: 1
      ints: 1
      type: INTS
    }
    attribute {
      name: "value"
      f: 0.0
      type: FLOAT
    }
  }
  node {
    input: "1204"
    input: "_conv_stem.weight"
    output: "1205"
    op_type: "Conv"
    attribute {
      name: "dilations"
      ints: 1
      ints: 1
      type: INTS
    }
    attribute {
      name: "group"
      i: 1
      type: INT
    }
    attribute {
      name: "kernel_shape"
      ints: 3
      ints: 3
      type: INTS
    }
    attribute {
      name: "pads"
      ints: 0
      ints: 0
      ints: 0
      ints: 0
      type: INTS
    }
    attribute {
      name: "strides"
      ints: 2
      ints: 2
      type: INTS
    }
  }
  node {
    input: "1205"
    input: "_bn0.weight"
    input: "_bn0.bias"
    input: "_bn0.running_mean"
    input: "_bn0.running_var"
    output: "1206"
    op_type: "BatchNormalization"
    attribute {
      name: "epsilon"
      f: 0.0010000000474974513
      type: FLOAT
    }
    attribute {
      name: "momentum"
      f: 0.9900000095367432
      type: FLOAT
    }
  }
  node {
    input: "1206"
    output: "1207"
    op_type: "Sigmoid"
  }
  node {
    input: "1206"
    input: "1207"
    output: "1208"
    op_type: "Mul"
  }
  node {
    input: "1208"
    output: "1209"
    op_type: "Pad"
    attribute {
      name: "mode"
      s: "constant"
      type: STRING
    }
    attribute {
      name: "pads"
      ints: 0
      ints: 0
      ints: 1
      ints: 1
      ints: 0
      ints: 0
      ints: 1
      ints: 1
      type: INTS
    }
    attribute {
      name: "value"
      f: 0.0
      type: FLOAT
    }
  }
  node {
    input: "1209"
    input: "_blocks.0._depthwise_conv.weight"
    output: "1210"
    op_type: "Conv"
    attribute {
      name: "dilations"
      ints: 1
      ints: 1
      type: INTS
    }
    attribute {
      name: "group"
      i: 64
      type: INT
    }
    attribute {
      name: "kernel_shape"
      ints: 3
      ints: 3
      type: INTS
    }
    attribute {
      name: "pads"
      ints: 0
      ints: 0
      ints: 0
      ints: 0
      type: INTS
    }
    attribute {
      name: "strides"
      ints: 1
      ints: 1
      type: INTS
    }
  }
  node {
    input: "1210"
    input: "_blocks.0._bn1.weight"
    input: "_blocks.0._bn1.bias"
    input: "_blocks.0._bn1.running_mean"
    input: "_blocks.0._bn1.running_var"
    output: "1211"
    op_type: "BatchNormalization"
    attribute {
      name: "epsilon"
      f: 0.0010000000474974513
      type: FLOAT
    }
    attribute {
      name: "momentum"
      f: 0.9900000095367432
      type: FLOAT
    }
  }
  node {
    input: "1211"
    output: "1212"
    op_type: "Sigmoid"
  }
  node {
    input: "1211"
    input: "1212"
    output: "1213"
    op_type: "Mul"
  }
  node {
    input: "1213"
    output: "1214"
    op_type: "GlobalAveragePool"
  }
  node {
    input: "1214"
    input: "_blocks.0._se_reduce.weight"
    input: "_blocks.0._se_reduce.bias"
    output: "1215"
    op_type: "Conv"
    attribute {
      name: "dilations"
      ints: 1
      ints: 1
      type: INTS
    }
    attribute {
      name: "group"
      i: 1
      type: INT
    }
    attribute {
      name: "kernel_shape"
      ints: 1
      ints: 1
      type: INTS
    }
    attribute {
      name: "pads"
      ints: 0
      ints: 0
      ints: 0
      ints: 0
      type: INTS
    }
    attribute {
      name: "strides"
      ints: 1
      ints: 1
      type: INTS
    }
  }
  node {
    input: "1215"
    output: "1216"
    op_type: "Sigmoid"
  }
  node {
    input: "1215"
    input: "1216"
    output: "1217"
    op_type: "Mul"
  }
  node {
    input: "1217"
    input: "_blocks.0._se_expand.weight"
    input: "_blocks.0._se_expand.bias"
    output: "1218"
    op_type: "Conv"
    attribute {
      name: "dilations"
      ints: 1
      ints: 1
      type: INTS
    }
    attribute {
      name: "group"
      i: 1
      type: INT
    }
    attribute {
      name: "kernel_shape"
      ints: 1
      ints: 1
      type: INTS
    }
    attribute {
      name: "pads"
      ints: 0
      ints: 0
      ints: 0
      ints: 0
      type: INTS
    }
    attribute {
      name: "strides"
      ints: 1
      ints: 1
      type: INTS
    }
  }
  node {
    input: "1218"
    output: "1219"
    op_type: "Sigmoid"
  }
  node {
    input: "1219"
    input: "1213"
    output: "1220"
    op_type: "Mul"
  }
  node {
    input: "1220"
    input: "_blocks.0._project_conv.weight"
    output: "1221"
    op_type: "Conv"
    attribute {
      name: "dilations"
      ints: 1
      ints: 1
      type: INTS
    }
    attribute {
      name: "group"
      i: 1
      type: INT
    }
    attribute {
      name: "kernel_shape"
      ints: 1
      ints: 1
      type: INTS
    }
    attribute {
      name: "pads"
      ints: 0
      ints: 0
      ints: 0
      ints: 0
      type: INTS
    }
    attribute {
      name: "strides"
      ints: 1
      ints: 1
      type: INTS
    }
  }
  node {
    input: "1221"
    input: "_blocks.0._bn2.weight"
    input: "_blocks.0._bn2.bias"
    input: "_blocks.0._bn2.running_mean"
    input: "_blocks.0._bn2.running_var"
    output: "1222"
    op_type: "BatchNormalization"
    attribute {
      name: "epsilon"
      f: 0.0010000000474974513
      type: FLOAT
    }
    attribute {
      name: "momentum"
      f: 0.9900000095367432
      type: FLOAT
    }
  }
  node {
    input: "1222"
    output: "1223"
    op_type: "Pad"
    attribute {
      name: "mode"
      s: "constant"
      type: STRING
    }
    attribute {
      name: "pads"
      ints: 0
      ints: 0
      ints: 1
      ints: 1
      ints: 0
      ints: 0
      ints: 1
      ints: 1
      type: INTS
    }
    attribute {
      name: "value"
      f: 0.0
      type: FLOAT
    }
  }
  node {
    input: "1223"
    input: "_blocks.1._depthwise_conv.weight"
    output: "1224"
    op_type: "Conv"
    attribute {
      name: "dilations"
      ints: 1
      ints: 1
      type: INTS
    }
    attribute {
      name: "group"
      i: 32
      type: INT
    }
    attribute {
      name: "kernel_shape"
      ints: 3
      ints: 3
      type: INTS
    }
    attribute {
      name: "pads"
      ints: 0
      ints: 0
      ints: 0
      ints: 0
      type: INTS
    }
    attribute {
      name: "strides"
      ints: 1
      ints: 1
      type: INTS
    }
  }
  node {
    input: "1224"
    input: "_blocks.1._bn1.weight"
    input: "_blocks.1._bn1.bias"
    input: "_blocks.1._bn1.running_mean"
    input: "_blocks.1._bn1.running_var"
    output: "1225"
    op_type: "BatchNormalization"
    attribute {
      name: "epsilon"
      f: 0.0010000000474974513
      type: FLOAT
    }
    attribute {
      name: "momentum"
      f: 0.9900000095367432
      type: FLOAT
    }
  }
  node {
    input: "1225"
    output: "1226"
    op_type: "Sigmoid"
  }
  node {
    input: "1225"
    input: "1226"
    output: "1227"
    op_type: "Mul"
  }
  node {
    input: "1227"
    output: "1228"
    op_type: "GlobalAveragePool"
  }
  node {
    input: "1228"
    input: "_blocks.1._se_reduce.weight"
    input: "_blocks.1._se_reduce.bias"
    output: "1229"
    op_type: "Conv"
    attribute {
      name: "dilations"
      ints: 1
      ints: 1
      type: INTS
    }
    attribute {
      name: "group"
      i: 1
      type: INT
    }
    attribute {
      name: "kernel_shape"
      ints: 1
      ints: 1
      type: INTS
    }
    attribute {
      name: "pads"
      ints: 0
      ints: 0
      ints: 0
      ints: 0
      type: INTS
    }
    attribute {
      name: "strides"
      ints: 1
      ints: 1
      type: INTS
    }
  }
  node {
    input: "1229"
    output: "1230"
    op_type: "Sigmoid"
  }
  node {
    input: "1229"
    input: "1230"
    output: "1231"
    op_type: "Mul"
  }
  node {
    input: "1231"
    input: "_blocks.1._se_expand.weight"
    input: "_blocks.1._se_expand.bias"
    output: "1232"
    op_type: "Conv"
    attribute {
      name: "dilations"
      ints: 1
      ints: 1
      type: INTS
    }
    attribute {
      name: "group"
      i: 1
      type: INT
    }
    attribute {
      name: "kernel_shape"
      ints: 1
      ints: 1
      type: INTS
    }
    attribute {
      name: "pads"
      ints: 0
      ints: 0
      ints: 0
      ints: 0
      type: INTS
    }
    attribute {
      name: "strides"
      ints: 1
      ints: 1
      type: INTS
    }
  }
  node {
    input: "1232"
    output: "1233"
    op_type: "Sigmoid"
  }
  node {
    input: "1233"
    input: "1227"
    output: "1234"
    op_type: "Mul"
  }
  node {
    input: "1234"
    input: "_blocks.1._project_conv.weight"
    output: "1235"
    op_type: "Conv"
    attribute {
      name: "dilations"
      ints: 1
      ints: 1
      type: INTS
    }
    attribute {
      name: "group"
      i: 1
      type: INT
    }
    attribute {
      name: "kernel_shape"
      ints: 1
      ints: 1
      type: INTS
    }
    attribute {
      name: "pads"
      ints: 0
      ints: 0
      ints: 0
      ints: 0
      type: INTS
    }
    attribute {
      name: "strides"
      ints: 1
      ints: 1
      type: INTS
    }
  }
  node {
    input: "1235"
    input: "_blocks.1._bn2.weight"
    input: "_blocks.1._bn2.bias"
    input: "_blocks.1._bn2.running_mean"
    input: "_blocks.1._bn2.running_var"
    output: "1236"
    op_type: "BatchNormalization"
    attribute {
      name: "epsilon"
      f: 0.0010000000474974513
      type: FLOAT
    }
    attribute {
      name: "momentum"
      f: 0.9900000095367432
      type: FLOAT
    }
  }
  node {
    input: "1236"
    input: "1222"
    output: "1237"
    op_type: "Add"
  }
  node {
    input: "1237"
    output: "1238"
    op_type: "Pad"
    attribute {
      name: "mode"
      s: "constant"
      type: STRING
    }
    attribute {
      name: "pads"
      ints: 0
      ints: 0
      ints: 1
      ints: 1
      ints: 0
      ints: 0
      ints: 1
      ints: 1
      type: INTS
    }
    attribute {
      name: "value"
      f: 0.0
      type: FLOAT
    }
  }
  node {
    input: "1238"
    input: "_blocks.2._depthwise_conv.weight"
    output: "1239"
    op_type: "Conv"
    attribute {
      name: "dilations"
      ints: 1
      ints: 1
      type: INTS
    }
    attribute {
      name: "group"
      i: 32
      type: INT
    }
    attribute {
      name: "kernel_shape"
      ints: 3
      ints: 3
      type: INTS
    }
    attribute {
      name: "pads"
      ints: 0
      ints: 0
      ints: 0
      ints: 0
      type: INTS
    }
    attribute {
      name: "strides"
      ints: 1
      ints: 1
      type: INTS
    }
  }
  node {
    input: "1239"
    input: "_blocks.2._bn1.weight"
    input: "_blocks.2._bn1.bias"
    input: "_blocks.2._bn1.running_mean"
    input: "_blocks.2._bn1.running_var"
    output: "1240"
    op_type: "BatchNormalization"
    attribute {
      name: "epsilon"
      f: 0.0010000000474974513
      type: FLOAT
    }
    attribute {
      name: "momentum"
      f: 0.9900000095367432
      type: FLOAT
    }
  }
  node {
    input: "1240"
    output: "1241"
    op_type: "Sigmoid"
  }
  node {
    input: "1240"
    input: "1241"
    output: "1242"
    op_type: "Mul"
  }
  node {
    input: "1242"
    output: "1243"
    op_type: "GlobalAveragePool"
  }
  node {
    input: "1243"
    input: "_blocks.2._se_reduce.weight"
    input: "_blocks.2._se_reduce.bias"
    output: "1244"
    op_type: "Conv"
    attribute {
      name: "dilations"
      ints: 1
      ints: 1
      type: INTS
    }
    attribute {
      name: "group"
      i: 1
      type: INT
    }
    attribute {
      name: "kernel_shape"
      ints: 1
      ints: 1
      type: INTS
    }
    attribute {
      name: "pads"
      ints: 0
      ints: 0
      ints: 0
      ints: 0
      type: INTS
    }
    attribute {
      name: "strides"
      ints: 1
      ints: 1
      type: INTS
    }
  }
  node {
    input: "1244"
    output: "1245"
    op_type: "Sigmoid"
  }
  node {
    input: "1244"
    input: "1245"
    output: "1246"
    op_type: "Mul"
  }
  node {
    input: "1246"
    input: "_blocks.2._se_expand.weight"
    input: "_blocks.2._se_expand.bias"
    output: "1247"
    op_type: "Conv"
    attribute {
      name: "dilations"
      ints: 1
      ints: 1
      type: INTS
    }
    attribute {
      name: "group"
      i: 1
      type: INT
    }
    attribute {
      name: "kernel_shape"
      ints: 1
      ints: 1
      type: INTS
    }
    attribute {
      name: "pads"
      ints: 0
      ints: 0
      ints: 0
      ints: 0
      type: INTS
    }
    attribute {
      name: "strides"
      ints: 1
      ints: 1
      type: INTS
    }
  }
  node {
    input: "1247"
    output: "1248"
    op_type: "Sigmoid"
  }
  node {
    input: "1248"
    input: "1242"
    output: "1249"
    op_type: "Mul"
  }
  node {
    input: "1249"
    input: "_blocks.2._project_conv.weight"
    output: "1250"
    op_type: "Conv"
    attribute {
      name: "dilations"
      ints: 1
      ints: 1
      type: INTS
    }
    attribute {
      name: "group"
      i: 1
      type: INT
    }
    attribute {
      name: "kernel_shape"
      ints: 1
      ints: 1
      type: INTS
    }
    attribute {
      name: "pads"
      ints: 0
      ints: 0
      ints: 0
      ints: 0
      type: INTS
    }
    attribute {
      name: "strides"
      ints: 1
      ints: 1
      type: INTS
    }
  }
  node {
    input: "1250"
    input: "_blocks.2._bn2.weight"
    input: "_blocks.2._bn2.bias"
    input: "_blocks.2._bn2.running_mean"
    input: "_blocks.2._bn2.running_var"
    output: "1251"
    op_type: "BatchNormalization"
    attribute {
      name: "epsilon"
      f: 0.0010000000474974513
      type: FLOAT
    }
    attribute {
      name: "momentum"
      f: 0.9900000095367432
      type: FLOAT
    }
  }
  node {
    input: "1251"
    input: "1237"
    output: "1252"
    op_type: "Add"
  }
  node {
    input: "1252"
    output: "1253"
    op_type: "Pad"
    attribute {
      name: "mode"
      s: "constant"
      type: STRING
    }
    attribute {
      name: "pads"
      ints: 0
      ints: 0
      ints: 1
      ints: 1
      ints: 0
      ints: 0
      ints: 1
      ints: 1
      type: INTS
    }
    attribute {
      name: "value"
      f: 0.0
      type: FLOAT
    }
  }
  node {
    input: "1253"
    input: "_blocks.3._depthwise_conv.weight"
    output: "1254"
    op_type: "Conv"
    attribute {
      name: "dilations"
      ints: 1
      ints: 1
      type: INTS
    }
    attribute {
      name: "group"
      i: 32
      type: INT
    }
    attribute {
      name: "kernel_shape"
      ints: 3
      ints: 3
      type: INTS
    }
    attribute {
      name: "pads"
      ints: 0
      ints: 0
      ints: 0
      ints: 0
      type: INTS
    }
    attribute {
      name: "strides"
      ints: 1
      ints: 1
      type: INTS
    }
  }
  node {
    input: "1254"
    input: "_blocks.3._bn1.weight"
    input: "_blocks.3._bn1.bias"
    input: "_blocks.3._bn1.running_mean"
    input: "_blocks.3._bn1.running_var"
    output: "1255"
    op_type: "BatchNormalization"
    attribute {
      name: "epsilon"
      f: 0.0010000000474974513
      type: FLOAT
    }
    attribute {
      name: "momentum"
      f: 0.9900000095367432
      type: FLOAT
    }
  }
  node {
    input: "1255"
    output: "1256"
    op_type: "Sigmoid"
  }
  node {
    input: "1255"
    input: "1256"
    output: "1257"
    op_type: "Mul"
  }
  node {
    input: "1257"
    output: "1258"
    op_type: "GlobalAveragePool"
  }
  node {
    input: "1258"
    input: "_blocks.3._se_reduce.weight"
    input: "_blocks.3._se_reduce.bias"
    output: "1259"
    op_type: "Conv"
    attribute {
      name: "dilations"
      ints: 1
      ints: 1
      type: INTS
    }
    attribute {
      name: "group"
      i: 1
      type: INT
    }
    attribute {
      name: "kernel_shape"
      ints: 1
      ints: 1
      type: INTS
    }
    attribute {
      name: "pads"
      ints: 0
      ints: 0
      ints: 0
      ints: 0
      type: INTS
    }
    attribute {
      name: "strides"
      ints: 1
      ints: 1
      type: INTS
    }
  }
  node {
    input: "1259"
    output: "1260"
    op_type: "Sigmoid"
  }
  node {
    input: "1259"
    input: "1260"
    output: "1261"
    op_type: "Mul"
  }
  node {
    input: "1261"
    input: "_blocks.3._se_expand.weight"
    input: "_blocks.3._se_expand.bias"
    output: "1262"
    op_type: "Conv"
    attribute {
      name: "dilations"
      ints: 1
      ints: 1
      type: INTS
    }
    attribute {
      name: "group"
      i: 1
      type: INT
    }
    attribute {
      name: "kernel_shape"
      ints: 1
      ints: 1
      type: INTS
    }
    attribute {
      name: "pads"
      ints: 0
      ints: 0
      ints: 0
      ints: 0
      type: INTS
    }
    attribute {
      name: "strides"
      ints: 1
      ints: 1
      type: INTS
    }
  }
  node {
    input: "1262"
    output: "1263"
    op_type: "Sigmoid"
  }
  node {
    input: "1263"
    input: "1257"
    output: "1264"
    op_type: "Mul"
  }
  node {
    input: "1264"
    input: "_blocks.3._project_conv.weight"
    output: "1265"
    op_type: "Conv"
    attribute {
      name: "dilations"
      ints: 1
      ints: 1
      type: INTS
    }
    attribute {
      name: "group"
      i: 1
      type: INT
    }
    attribute {
      name: "kernel_shape"
      ints: 1
      ints: 1
      type: INTS
    }
    attribute {
      name: "pads"
      ints: 0
      ints: 0
      ints: 0
      ints: 0
      type: INTS
    }
    attribute {
      name: "strides"
      ints: 1
      ints: 1
      type: INTS
    }
  }
  node {
    input: "1265"
    input: "_blocks.3._bn2.weight"
    input: "_blocks.3._bn2.bias"
    input: "_blocks.3._bn2.running_mean"
    input: "_blocks.3._bn2.running_var"
    output: "1266"
    op_type: "BatchNormalization"
    attribute {
      name: "epsilon"
      f: 0.0010000000474974513
      type: FLOAT
    }
    attribute {
      name: "momentum"
      f: 0.9900000095367432
      type: FLOAT
    }
  }
  node {
    input: "1266"
    input: "1252"
    output: "1267"
    op_type: "Add"
  }
  node {
    input: "1267"
    input: "_blocks.4._expand_conv.weight"
    output: "1268"
    op_type: "Conv"
    attribute {
      name: "dilations"
      ints: 1
      ints: 1
      type: INTS
    }
    attribute {
      name: "group"
      i: 1
      type: INT
    }
    attribute {
      name: "kernel_shape"
      ints: 1
      ints: 1
      type: INTS
    }
    attribute {
      name: "pads"
      ints: 0
      ints: 0
      ints: 0
      ints: 0
      type: INTS
    }
    attribute {
      name: "strides"
      ints: 1
      ints: 1
      type: INTS
    }
  }
  node {
    input: "1268"
    input: "_blocks.4._bn0.weight"
    input: "_blocks.4._bn0.bias"
    input: "_blocks.4._bn0.running_mean"
    input: "_blocks.4._bn0.running_var"
    output: "1269"
    op_type: "BatchNormalization"
    attribute {
      name: "epsilon"
      f: 0.0010000000474974513
      type: FLOAT
    }
    attribute {
      name: "momentum"
      f: 0.9900000095367432
      type: FLOAT
    }
  }
  node {
    input: "1269"
    output: "1270"
    op_type: "Sigmoid"
  }
  node {
    input: "1269"
    input: "1270"
    output: "1271"
    op_type: "Mul"
  }
  node {
    input: "1271"
    output: "1272"
    op_type: "Pad"
    attribute {
      name: "mode"
      s: "constant"
      type: STRING
    }
    attribute {
      name: "pads"
      ints: 0
      ints: 0
      ints: 0
      ints: 0
      ints: 0
      ints: 0
      ints: 1
      ints: 1
      type: INTS
    }
    attribute {
      name: "value"
      f: 0.0
      type: FLOAT
    }
  }
  node {
    input: "1272"
    input: "_blocks.4._depthwise_conv.weight"
    output: "1273"
    op_type: "Conv"
    attribute {
      name: "dilations"
      ints: 1
      ints: 1
      type: INTS
    }
    attribute {
      name: "group"
      i: 192
      type: INT
    }
    attribute {
      name: "kernel_shape"
      ints: 3
      ints: 3
      type: INTS
    }
    attribute {
      name: "pads"
      ints: 0
      ints: 0
      ints: 0
      ints: 0
      type: INTS
    }
    attribute {
      name: "strides"
      ints: 2
      ints: 2
      type: INTS
    }
  }
  node {
    input: "1273"
    input: "_blocks.4._bn1.weight"
    input: "_blocks.4._bn1.bias"
    input: "_blocks.4._bn1.running_mean"
    input: "_blocks.4._bn1.running_var"
    output: "1274"
    op_type: "BatchNormalization"
    attribute {
      name: "epsilon"
      f: 0.0010000000474974513
      type: FLOAT
    }
    attribute {
      name: "momentum"
      f: 0.9900000095367432
      type: FLOAT
    }
  }
  node {
    input: "1274"
    output: "1275"
    op_type: "Sigmoid"
  }
  node {
    input: "1274"
    input: "1275"
    output: "1276"
    op_type: "Mul"
  }
  node {
    input: "1276"
    output: "1277"
    op_type: "GlobalAveragePool"
  }
  node {
    input: "1277"
    input: "_blocks.4._se_reduce.weight"
    input: "_blocks.4._se_reduce.bias"
    output: "1278"
    op_type: "Conv"
    attribute {
      name: "dilations"
      ints: 1
      ints: 1
      type: INTS
    }
    attribute {
      name: "group"
      i: 1
      type: INT
    }
    attribute {
      name: "kernel_shape"
      ints: 1
      ints: 1
      type: INTS
    }
    attribute {
      name: "pads"
      ints: 0
      ints: 0
      ints: 0
      ints: 0
      type: INTS
    }
    attribute {
      name: "strides"
      ints: 1
      ints: 1
      type: INTS
    }
  }
  node {
    input: "1278"
    output: "1279"
    op_type: "Sigmoid"
  }
  node {
    input: "1278"
    input: "1279"
    output: "1280"
    op_type: "Mul"
  }
  node {
    input: "1280"
    input: "_blocks.4._se_expand.weight"
    input: "_blocks.4._se_expand.bias"
    output: "1281"
    op_type: "Conv"
    attribute {
      name: "dilations"
      ints: 1
      ints: 1
      type: INTS
    }
    attribute {
      name: "group"
      i: 1
      type: INT
    }
    attribute {
      name: "kernel_shape"
      ints: 1
      ints: 1
      type: INTS
    }
    attribute {
      name: "pads"
      ints: 0
      ints: 0
      ints: 0
      ints: 0
      type: INTS
    }
    attribute {
      name: "strides"
      ints: 1
      ints: 1
      type: INTS
    }
  }
  node {
    input: "1281"
    output: "1282"
    op_type: "Sigmoid"
  }
  node {
    input: "1282"
    input: "1276"
    output: "1283"
    op_type: "Mul"
  }
  node {
    input: "1283"
    input: "_blocks.4._project_conv.weight"
    output: "1284"
    op_type: "Conv"
    attribute {
      name: "dilations"
      ints: 1
      ints: 1
      type: INTS
    }
    attribute {
      name: "group"
      i: 1
      type: INT
    }
    attribute {
      name: "kernel_shape"
      ints: 1
      ints: 1
      type: INTS
    }
    attribute {
      name: "pads"
      ints: 0
      ints: 0
      ints: 0
      ints: 0
      type: INTS
    }
    attribute {
      name: "strides"
      ints: 1
      ints: 1
      type: INTS
    }
  }
  node {
    input: "1284"
    input: "_blocks.4._bn2.weight"
    input: "_blocks.4._bn2.bias"
    input: "_blocks.4._bn2.running_mean"
    input: "_blocks.4._bn2.running_var"
    output: "1285"
    op_type: "BatchNormalization"
    attribute {
      name: "epsilon"
      f: 0.0010000000474974513
      type: FLOAT
    }
    attribute {
      name: "momentum"
      f: 0.9900000095367432
      type: FLOAT
    }
  }
  node {
    input: "1285"
    input: "_blocks.5._expand_conv.weight"
    output: "1286"
    op_type: "Conv"
    attribute {
      name: "dilations"
      ints: 1
      ints: 1
      type: INTS
    }
    attribute {
      name: "group"
      i: 1
      type: INT
    }
    attribute {
      name: "kernel_shape"
      ints: 1
      ints: 1
      type: INTS
    }
    attribute {
      name: "pads"
      ints: 0
      ints: 0
      ints: 0
      ints: 0
      type: INTS
    }
    attribute {
      name: "strides"
      ints: 1
      ints: 1
      type: INTS
    }
  }
  node {
    input: "1286"
    input: "_blocks.5._bn0.weight"
    input: "_blocks.5._bn0.bias"
    input: "_blocks.5._bn0.running_mean"
    input: "_blocks.5._bn0.running_var"
    output: "1287"
    op_type: "BatchNormalization"
    attribute {
      name: "epsilon"
      f: 0.0010000000474974513
      type: FLOAT
    }
    attribute {
      name: "momentum"
      f: 0.9900000095367432
      type: FLOAT
    }
  }
  node {
    input: "1287"
    output: "1288"
    op_type: "Sigmoid"
  }
  node {
    input: "1287"
    input: "1288"
    output: "1289"
    op_type: "Mul"
  }
  node {
    input: "1289"
    output: "1290"
    op_type: "Pad"
    attribute {
      name: "mode"
      s: "constant"
      type: STRING
    }
    attribute {
      name: "pads"
      ints: 0
      ints: 0
      ints: 1
      ints: 1
      ints: 0
      ints: 0
      ints: 1
      ints: 1
      type: INTS
    }
    attribute {
      name: "value"
      f: 0.0
      type: FLOAT
    }
  }
  node {
    input: "1290"
    input: "_blocks.5._depthwise_conv.weight"
    output: "1291"
    op_type: "Conv"
    attribute {
      name: "dilations"
      ints: 1
      ints: 1
      type: INTS
    }
    attribute {
      name: "group"
      i: 288
      type: INT
    }
    attribute {
      name: "kernel_shape"
      ints: 3
      ints: 3
      type: INTS
    }
    attribute {
      name: "pads"
      ints: 0
      ints: 0
      ints: 0
      ints: 0
      type: INTS
    }
    attribute {
      name: "strides"
      ints: 1
      ints: 1
      type: INTS
    }
  }
  node {
    input: "1291"
    input: "_blocks.5._bn1.weight"
    input: "_blocks.5._bn1.bias"
    input: "_blocks.5._bn1.running_mean"
    input: "_blocks.5._bn1.running_var"
    output: "1292"
    op_type: "BatchNormalization"
    attribute {
      name: "epsilon"
      f: 0.0010000000474974513
      type: FLOAT
    }
    attribute {
      name: "momentum"
      f: 0.9900000095367432
      type: FLOAT
    }
  }
  node {
    input: "1292"
    output: "1293"
    op_type: "Sigmoid"
  }
  node {
    input: "1292"
    input: "1293"
    output: "1294"
    op_type: "Mul"
  }
  node {
    input: "1294"
    output: "1295"
    op_type: "GlobalAveragePool"
  }
  node {
    input: "1295"
    input: "_blocks.5._se_reduce.weight"
    input: "_blocks.5._se_reduce.bias"
    output: "1296"
    op_type: "Conv"
    attribute {
      name: "dilations"
      ints: 1
      ints: 1
      type: INTS
    }
    attribute {
      name: "group"
      i: 1
      type: INT
    }
    attribute {
      name: "kernel_shape"
      ints: 1
      ints: 1
      type: INTS
    }
    attribute {
      name: "pads"
      ints: 0
      ints: 0
      ints: 0
      ints: 0
      type: INTS
    }
    attribute {
      name: "strides"
      ints: 1
      ints: 1
      type: INTS
    }
  }
  node {
    input: "1296"
    output: "1297"
    op_type: "Sigmoid"
  }
  node {
    input: "1296"
    input: "1297"
    output: "1298"
    op_type: "Mul"
  }
  node {
    input: "1298"
    input: "_blocks.5._se_expand.weight"
    input: "_blocks.5._se_expand.bias"
    output: "1299"
    op_type: "Conv"
    attribute {
      name: "dilations"
      ints: 1
      ints: 1
      type: INTS
    }
    attribute {
      name: "group"
      i: 1
      type: INT
    }
    attribute {
      name: "kernel_shape"
      ints: 1
      ints: 1
      type: INTS
    }
    attribute {
      name: "pads"
      ints: 0
      ints: 0
      ints: 0
      ints: 0
      type: INTS
    }
    attribute {
      name: "strides"
      ints: 1
      ints: 1
      type: INTS
    }
  }
  node {
    input: "1299"
    output: "1300"
    op_type: "Sigmoid"
  }
  node {
    input: "1300"
    input: "1294"
    output: "1301"
    op_type: "Mul"
  }
  node {
    input: "1301"
    input: "_blocks.5._project_conv.weight"
    output: "1302"
    op_type: "Conv"
    attribute {
      name: "dilations"
      ints: 1
      ints: 1
      type: INTS
    }
    attribute {
      name: "group"
      i: 1
      type: INT
    }
    attribute {
      name: "kernel_shape"
      ints: 1
      ints: 1
      type: INTS
    }
    attribute {
      name: "pads"
      ints: 0
      ints: 0
      ints: 0
      ints: 0
      type: INTS
    }
    attribute {
      name: "strides"
      ints: 1
      ints: 1
      type: INTS
    }
  }
  node {
    input: "1302"
    input: "_blocks.5._bn2.weight"
    input: "_blocks.5._bn2.bias"
    input: "_blocks.5._bn2.running_mean"
    input: "_blocks.5._bn2.running_var"
    output: "1303"
    op_type: "BatchNormalization"
    attribute {
      name: "epsilon"
      f: 0.0010000000474974513
      type: FLOAT
    }
    attribute {
      name: "momentum"
      f: 0.9900000095367432
      type: FLOAT
    }
  }
  node {
    input: "1303"
    input: "1285"
    output: "1304"
    op_type: "Add"
  }
  node {
    input: "1304"
    input: "_blocks.6._expand_conv.weight"
    output: "1305"
    op_type: "Conv"
    attribute {
      name: "dilations"
      ints: 1
      ints: 1
      type: INTS
    }
    attribute {
      name: "group"
      i: 1
      type: INT
    }
    attribute {
      name: "kernel_shape"
      ints: 1
      ints: 1
      type: INTS
    }
    attribute {
      name: "pads"
      ints: 0
      ints: 0
      ints: 0
      ints: 0
      type: INTS
    }
    attribute {
      name: "strides"
      ints: 1
      ints: 1
      type: INTS
    }
  }
  node {
    input: "1305"
    input: "_blocks.6._bn0.weight"
    input: "_blocks.6._bn0.bias"
    input: "_blocks.6._bn0.running_mean"
    input: "_blocks.6._bn0.running_var"
    output: "1306"
    op_type: "BatchNormalization"
    attribute {
      name: "epsilon"
      f: 0.0010000000474974513
      type: FLOAT
    }
    attribute {
      name: "momentum"
      f: 0.9900000095367432
      type: FLOAT
    }
  }
  node {
    input: "1306"
    output: "1307"
    op_type: "Sigmoid"
  }
  node {
    input: "1306"
    input: "1307"
    output: "1308"
    op_type: "Mul"
  }
  node {
    input: "1308"
    output: "1309"
    op_type: "Pad"
    attribute {
      name: "mode"
      s: "constant"
      type: STRING
    }
    attribute {
      name: "pads"
      ints: 0
      ints: 0
      ints: 1
      ints: 1
      ints: 0
      ints: 0
      ints: 1
      ints: 1
      type: INTS
    }
    attribute {
      name: "value"
      f: 0.0
      type: FLOAT
    }
  }
  node {
    input: "1309"
    input: "_blocks.6._depthwise_conv.weight"
    output: "1310"
    op_type: "Conv"
    attribute {
      name: "dilations"
      ints: 1
      ints: 1
      type: INTS
    }
    attribute {
      name: "group"
      i: 288
      type: INT
    }
    attribute {
      name: "kernel_shape"
      ints: 3
      ints: 3
      type: INTS
    }
    attribute {
      name: "pads"
      ints: 0
      ints: 0
      ints: 0
      ints: 0
      type: INTS
    }
    attribute {
      name: "strides"
      ints: 1
      ints: 1
      type: INTS
    }
  }
  node {
    input: "1310"
    input: "_blocks.6._bn1.weight"
    input: "_blocks.6._bn1.bias"
    input: "_blocks.6._bn1.running_mean"
    input: "_blocks.6._bn1.running_var"
    output: "1311"
    op_type: "BatchNormalization"
    attribute {
      name: "epsilon"
      f: 0.0010000000474974513
      type: FLOAT
    }
    attribute {
      name: "momentum"
      f: 0.9900000095367432
      type: FLOAT
    }
  }
  node {
    input: "1311"
    output: "1312"
    op_type: "Sigmoid"
  }
  node {
    input: "1311"
    input: "1312"
    output: "1313"
    op_type: "Mul"
  }
  node {
    input: "1313"
    output: "1314"
    op_type: "GlobalAveragePool"
  }
  node {
    input: "1314"
    input: "_blocks.6._se_reduce.weight"
    input: "_blocks.6._se_reduce.bias"
    output: "1315"
    op_type: "Conv"
    attribute {
      name: "dilations"
      ints: 1
      ints: 1
      type: INTS
    }
    attribute {
      name: "group"
      i: 1
      type: INT
    }
    attribute {
      name: "kernel_shape"
      ints: 1
      ints: 1
      type: INTS
    }
    attribute {
      name: "pads"
      ints: 0
      ints: 0
      ints: 0
      ints: 0
      type: INTS
    }
    attribute {
      name: "strides"
      ints: 1
      ints: 1
      type: INTS
    }
  }
  node {
    input: "1315"
    output: "1316"
    op_type: "Sigmoid"
  }
  node {
    input: "1315"
    input: "1316"
    output: "1317"
    op_type: "Mul"
  }
  node {
    input: "1317"
    input: "_blocks.6._se_expand.weight"
    input: "_blocks.6._se_expand.bias"
    output: "1318"
    op_type: "Conv"
    attribute {
      name: "dilations"
      ints: 1
      ints: 1
      type: INTS
    }
    attribute {
      name: "group"
      i: 1
      type: INT
    }
    attribute {
      name: "kernel_shape"
      ints: 1
      ints: 1
      type: INTS
    }
    attribute {
      name: "pads"
      ints: 0
      ints: 0
      ints: 0
      ints: 0
      type: INTS
    }
    attribute {
      name: "strides"
      ints: 1
      ints: 1
      type: INTS
    }
  }
  node {
    input: "1318"
    output: "1319"
    op_type: "Sigmoid"
  }
  node {
    input: "1319"
    input: "1313"
    output: "1320"
    op_type: "Mul"
  }
  node {
    input: "1320"
    input: "_blocks.6._project_conv.weight"
    output: "1321"
    op_type: "Conv"
    attribute {
      name: "dilations"
      ints: 1
      ints: 1
      type: INTS
    }
    attribute {
      name: "group"
      i: 1
      type: INT
    }
    attribute {
      name: "kernel_shape"
      ints: 1
      ints: 1
      type: INTS
    }
    attribute {
      name: "pads"
      ints: 0
      ints: 0
      ints: 0
      ints: 0
      type: INTS
    }
    attribute {
      name: "strides"
      ints: 1
      ints: 1
      type: INTS
    }
  }
  node {
    input: "1321"
    input: "_blocks.6._bn2.weight"
    input: "_blocks.6._bn2.bias"
    input: "_blocks.6._bn2.running_mean"
    input: "_blocks.6._bn2.running_var"
    output: "1322"
    op_type: "BatchNormalization"
    attribute {
      name: "epsilon"
      f: 0.0010000000474974513
      type: FLOAT
    }
    attribute {
      name: "momentum"
      f: 0.9900000095367432
      type: FLOAT
    }
  }
  node {
    input: "1322"
    input: "1304"
    output: "1323"
    op_type: "Add"
  }
  node {
    input: "1323"
    input: "_blocks.7._expand_conv.weight"
    output: "1324"
    op_type: "Conv"
    attribute {
      name: "dilations"
      ints: 1
      ints: 1
      type: INTS
    }
    attribute {
      name: "group"
      i: 1
      type: INT
    }
    attribute {
      name: "kernel_shape"
      ints: 1
      ints: 1
      type: INTS
    }
    attribute {
      name: "pads"
      ints: 0
      ints: 0
      ints: 0
      ints: 0
      type: INTS
    }
    attribute {
      name: "strides"
      ints: 1
      ints: 1
      type: INTS
    }
  }
  node {
    input: "1324"
    input: "_blocks.7._bn0.weight"
    input: "_blocks.7._bn0.bias"
    input: "_blocks.7._bn0.running_mean"
    input: "_blocks.7._bn0.running_var"
    output: "1325"
    op_type: "BatchNormalization"
    attribute {
      name: "epsilon"
      f: 0.0010000000474974513
      type: FLOAT
    }
    attribute {
      name: "momentum"
      f: 0.9900000095367432
      type: FLOAT
    }
  }
  node {
    input: "1325"
    output: "1326"
    op_type: "Sigmoid"
  }
  node {
    input: "1325"
    input: "1326"
    output: "1327"
    op_type: "Mul"
  }
  node {
    input: "1327"
    output: "1328"
    op_type: "Pad"
    attribute {
      name: "mode"
      s: "constant"
      type: STRING
    }
    attribute {
      name: "pads"
      ints: 0
      ints: 0
      ints: 1
      ints: 1
      ints: 0
      ints: 0
      ints: 1
      ints: 1
      type: INTS
    }
    attribute {
      name: "value"
      f: 0.0
      type: FLOAT
    }
  }
  node {
    input: "1328"
    input: "_blocks.7._depthwise_conv.weight"
    output: "1329"
    op_type: "Conv"
    attribute {
      name: "dilations"
      ints: 1
      ints: 1
      type: INTS
    }
    attribute {
      name: "group"
      i: 288
      type: INT
    }
    attribute {
      name: "kernel_shape"
      ints: 3
      ints: 3
      type: INTS
    }
    attribute {
      name: "pads"
      ints: 0
      ints: 0
      ints: 0
      ints: 0
      type: INTS
    }
    attribute {
      name: "strides"
      ints: 1
      ints: 1
      type: INTS
    }
  }
  node {
    input: "1329"
    input: "_blocks.7._bn1.weight"
    input: "_blocks.7._bn1.bias"
    input: "_blocks.7._bn1.running_mean"
    input: "_blocks.7._bn1.running_var"
    output: "1330"
    op_type: "BatchNormalization"
    attribute {
      name: "epsilon"
      f: 0.0010000000474974513
      type: FLOAT
    }
    attribute {
      name: "momentum"
      f: 0.9900000095367432
      type: FLOAT
    }
  }
  node {
    input: "1330"
    output: "1331"
    op_type: "Sigmoid"
  }
  node {
    input: "1330"
    input: "1331"
    output: "1332"
    op_type: "Mul"
  }
  node {
    input: "1332"
    output: "1333"
    op_type: "GlobalAveragePool"
  }
  node {
    input: "1333"
    input: "_blocks.7._se_reduce.weight"
    input: "_blocks.7._se_reduce.bias"
    output: "1334"
    op_type: "Conv"
    attribute {
      name: "dilations"
      ints: 1
      ints: 1
      type: INTS
    }
    attribute {
      name: "group"
      i: 1
      type: INT
    }
    attribute {
      name: "kernel_shape"
      ints: 1
      ints: 1
      type: INTS
    }
    attribute {
      name: "pads"
      ints: 0
      ints: 0
      ints: 0
      ints: 0
      type: INTS
    }
    attribute {
      name: "strides"
      ints: 1
      ints: 1
      type: INTS
    }
  }
  node {
    input: "1334"
    output: "1335"
    op_type: "Sigmoid"
  }
  node {
    input: "1334"
    input: "1335"
    output: "1336"
    op_type: "Mul"
  }
  node {
    input: "1336"
    input: "_blocks.7._se_expand.weight"
    input: "_blocks.7._se_expand.bias"
    output: "1337"
    op_type: "Conv"
    attribute {
      name: "dilations"
      ints: 1
      ints: 1
      type: INTS
    }
    attribute {
      name: "group"
      i: 1
      type: INT
    }
    attribute {
      name: "kernel_shape"
      ints: 1
      ints: 1
      type: INTS
    }
    attribute {
      name: "pads"
      ints: 0
      ints: 0
      ints: 0
      ints: 0
      type: INTS
    }
    attribute {
      name: "strides"
      ints: 1
      ints: 1
      type: INTS
    }
  }
  node {
    input: "1337"
    output: "1338"
    op_type: "Sigmoid"
  }
  node {
    input: "1338"
    input: "1332"
    output: "1339"
    op_type: "Mul"
  }
  node {
    input: "1339"
    input: "_blocks.7._project_conv.weight"
    output: "1340"
    op_type: "Conv"
    attribute {
      name: "dilations"
      ints: 1
      ints: 1
      type: INTS
    }
    attribute {
      name: "group"
      i: 1
      type: INT
    }
    attribute {
      name: "kernel_shape"
      ints: 1
      ints: 1
      type: INTS
    }
    attribute {
      name: "pads"
      ints: 0
      ints: 0
      ints: 0
      ints: 0
      type: INTS
    }
    attribute {
      name: "strides"
      ints: 1
      ints: 1
      type: INTS
    }
  }
  node {
    input: "1340"
    input: "_blocks.7._bn2.weight"
    input: "_blocks.7._bn2.bias"
    input: "_blocks.7._bn2.running_mean"
    input: "_blocks.7._bn2.running_var"
    output: "1341"
    op_type: "BatchNormalization"
    attribute {
      name: "epsilon"
      f: 0.0010000000474974513
      type: FLOAT
    }
    attribute {
      name: "momentum"
      f: 0.9900000095367432
      type: FLOAT
    }
  }
  node {
    input: "1341"
    input: "1323"
    output: "1342"
    op_type: "Add"
  }
  node {
    input: "1342"
    input: "_blocks.8._expand_conv.weight"
    output: "1343"
    op_type: "Conv"
    attribute {
      name: "dilations"
      ints: 1
      ints: 1
      type: INTS
    }
    attribute {
      name: "group"
      i: 1
      type: INT
    }
    attribute {
      name: "kernel_shape"
      ints: 1
      ints: 1
      type: INTS
    }
    attribute {
      name: "pads"
      ints: 0
      ints: 0
      ints: 0
      ints: 0
      type: INTS
    }
    attribute {
      name: "strides"
      ints: 1
      ints: 1
      type: INTS
    }
  }
  node {
    input: "1343"
    input: "_blocks.8._bn0.weight"
    input: "_blocks.8._bn0.bias"
    input: "_blocks.8._bn0.running_mean"
    input: "_blocks.8._bn0.running_var"
    output: "1344"
    op_type: "BatchNormalization"
    attribute {
      name: "epsilon"
      f: 0.0010000000474974513
      type: FLOAT
    }
    attribute {
      name: "momentum"
      f: 0.9900000095367432
      type: FLOAT
    }
  }
  node {
    input: "1344"
    output: "1345"
    op_type: "Sigmoid"
  }
  node {
    input: "1344"
    input: "1345"
    output: "1346"
    op_type: "Mul"
  }
  node {
    input: "1346"
    output: "1347"
    op_type: "Pad"
    attribute {
      name: "mode"
      s: "constant"
      type: STRING
    }
    attribute {
      name: "pads"
      ints: 0
      ints: 0
      ints: 1
      ints: 1
      ints: 0
      ints: 0
      ints: 1
      ints: 1
      type: INTS
    }
    attribute {
      name: "value"
      f: 0.0
      type: FLOAT
    }
  }
  node {
    input: "1347"
    input: "_blocks.8._depthwise_conv.weight"
    output: "1348"
    op_type: "Conv"
    attribute {
      name: "dilations"
      ints: 1
      ints: 1
      type: INTS
    }
    attribute {
      name: "group"
      i: 288
      type: INT
    }
    attribute {
      name: "kernel_shape"
      ints: 3
      ints: 3
      type: INTS
    }
    attribute {
      name: "pads"
      ints: 0
      ints: 0
      ints: 0
      ints: 0
      type: INTS
    }
    attribute {
      name: "strides"
      ints: 1
      ints: 1
      type: INTS
    }
  }
  node {
    input: "1348"
    input: "_blocks.8._bn1.weight"
    input: "_blocks.8._bn1.bias"
    input: "_blocks.8._bn1.running_mean"
    input: "_blocks.8._bn1.running_var"
    output: "1349"
    op_type: "BatchNormalization"
    attribute {
      name: "epsilon"
      f: 0.0010000000474974513
      type: FLOAT
    }
    attribute {
      name: "momentum"
      f: 0.9900000095367432
      type: FLOAT
    }
  }
  node {
    input: "1349"
    output: "1350"
    op_type: "Sigmoid"
  }
  node {
    input: "1349"
    input: "1350"
    output: "1351"
    op_type: "Mul"
  }
  node {
    input: "1351"
    output: "1352"
    op_type: "GlobalAveragePool"
  }
  node {
    input: "1352"
    input: "_blocks.8._se_reduce.weight"
    input: "_blocks.8._se_reduce.bias"
    output: "1353"
    op_type: "Conv"
    attribute {
      name: "dilations"
      ints: 1
      ints: 1
      type: INTS
    }
    attribute {
      name: "group"
      i: 1
      type: INT
    }
    attribute {
      name: "kernel_shape"
      ints: 1
      ints: 1
      type: INTS
    }
    attribute {
      name: "pads"
      ints: 0
      ints: 0
      ints: 0
      ints: 0
      type: INTS
    }
    attribute {
      name: "strides"
      ints: 1
      ints: 1
      type: INTS
    }
  }
  node {
    input: "1353"
    output: "1354"
    op_type: "Sigmoid"
  }
  node {
    input: "1353"
    input: "1354"
    output: "1355"
    op_type: "Mul"
  }
  node {
    input: "1355"
    input: "_blocks.8._se_expand.weight"
    input: "_blocks.8._se_expand.bias"
    output: "1356"
    op_type: "Conv"
    attribute {
      name: "dilations"
      ints: 1
      ints: 1
      type: INTS
    }
    attribute {
      name: "group"
      i: 1
      type: INT
    }
    attribute {
      name: "kernel_shape"
      ints: 1
      ints: 1
      type: INTS
    }
    attribute {
      name: "pads"
      ints: 0
      ints: 0
      ints: 0
      ints: 0
      type: INTS
    }
    attribute {
      name: "strides"
      ints: 1
      ints: 1
      type: INTS
    }
  }
  node {
    input: "1356"
    output: "1357"
    op_type: "Sigmoid"
  }
  node {
    input: "1357"
    input: "1351"
    output: "1358"
    op_type: "Mul"
  }
  node {
    input: "1358"
    input: "_blocks.8._project_conv.weight"
    output: "1359"
    op_type: "Conv"
    attribute {
      name: "dilations"
      ints: 1
      ints: 1
      type: INTS
    }
    attribute {
      name: "group"
      i: 1
      type: INT
    }
    attribute {
      name: "kernel_shape"
      ints: 1
      ints: 1
      type: INTS
    }
    attribute {
      name: "pads"
      ints: 0
      ints: 0
      ints: 0
      ints: 0
      type: INTS
    }
    attribute {
      name: "strides"
      ints: 1
      ints: 1
      type: INTS
    }
  }
  node {
    input: "1359"
    input: "_blocks.8._bn2.weight"
    input: "_blocks.8._bn2.bias"
    input: "_blocks.8._bn2.running_mean"
    input: "_blocks.8._bn2.running_var"
    output: "1360"
    op_type: "BatchNormalization"
    attribute {
      name: "epsilon"
      f: 0.0010000000474974513
      type: FLOAT
    }
    attribute {
      name: "momentum"
      f: 0.9900000095367432
      type: FLOAT
    }
  }
  node {
    input: "1360"
    input: "1342"
    output: "1361"
    op_type: "Add"
  }
  node {
    input: "1361"
    input: "_blocks.9._expand_conv.weight"
    output: "1362"
    op_type: "Conv"
    attribute {
      name: "dilations"
      ints: 1
      ints: 1
      type: INTS
    }
    attribute {
      name: "group"
      i: 1
      type: INT
    }
    attribute {
      name: "kernel_shape"
      ints: 1
      ints: 1
      type: INTS
    }
    attribute {
      name: "pads"
      ints: 0
      ints: 0
      ints: 0
      ints: 0
      type: INTS
    }
    attribute {
      name: "strides"
      ints: 1
      ints: 1
      type: INTS
    }
  }
  node {
    input: "1362"
    input: "_blocks.9._bn0.weight"
    input: "_blocks.9._bn0.bias"
    input: "_blocks.9._bn0.running_mean"
    input: "_blocks.9._bn0.running_var"
    output: "1363"
    op_type: "BatchNormalization"
    attribute {
      name: "epsilon"
      f: 0.0010000000474974513
      type: FLOAT
    }
    attribute {
      name: "momentum"
      f: 0.9900000095367432
      type: FLOAT
    }
  }
  node {
    input: "1363"
    output: "1364"
    op_type: "Sigmoid"
  }
  node {
    input: "1363"
    input: "1364"
    output: "1365"
    op_type: "Mul"
  }
  node {
    input: "1365"
    output: "1366"
    op_type: "Pad"
    attribute {
      name: "mode"
      s: "constant"
      type: STRING
    }
    attribute {
      name: "pads"
      ints: 0
      ints: 0
      ints: 1
      ints: 1
      ints: 0
      ints: 0
      ints: 1
      ints: 1
      type: INTS
    }
    attribute {
      name: "value"
      f: 0.0
      type: FLOAT
    }
  }
  node {
    input: "1366"
    input: "_blocks.9._depthwise_conv.weight"
    output: "1367"
    op_type: "Conv"
    attribute {
      name: "dilations"
      ints: 1
      ints: 1
      type: INTS
    }
    attribute {
      name: "group"
      i: 288
      type: INT
    }
    attribute {
      name: "kernel_shape"
      ints: 3
      ints: 3
      type: INTS
    }
    attribute {
      name: "pads"
      ints: 0
      ints: 0
      ints: 0
      ints: 0
      type: INTS
    }
    attribute {
      name: "strides"
      ints: 1
      ints: 1
      type: INTS
    }
  }
  node {
    input: "1367"
    input: "_blocks.9._bn1.weight"
    input: "_blocks.9._bn1.bias"
    input: "_blocks.9._bn1.running_mean"
    input: "_blocks.9._bn1.running_var"
    output: "1368"
    op_type: "BatchNormalization"
    attribute {
      name: "epsilon"
      f: 0.0010000000474974513
      type: FLOAT
    }
    attribute {
      name: "momentum"
      f: 0.9900000095367432
      type: FLOAT
    }
  }
  node {
    input: "1368"
    output: "1369"
    op_type: "Sigmoid"
  }
  node {
    input: "1368"
    input: "1369"
    output: "1370"
    op_type: "Mul"
  }
  node {
    input: "1370"
    output: "1371"
    op_type: "GlobalAveragePool"
  }
  node {
    input: "1371"
    input: "_blocks.9._se_reduce.weight"
    input: "_blocks.9._se_reduce.bias"
    output: "1372"
    op_type: "Conv"
    attribute {
      name: "dilations"
      ints: 1
      ints: 1
      type: INTS
    }
    attribute {
      name: "group"
      i: 1
      type: INT
    }
    attribute {
      name: "kernel_shape"
      ints: 1
      ints: 1
      type: INTS
    }
    attribute {
      name: "pads"
      ints: 0
      ints: 0
      ints: 0
      ints: 0
      type: INTS
    }
    attribute {
      name: "strides"
      ints: 1
      ints: 1
      type: INTS
    }
  }
  node {
    input: "1372"
    output: "1373"
    op_type: "Sigmoid"
  }
  node {
    input: "1372"
    input: "1373"
    output: "1374"
    op_type: "Mul"
  }
  node {
    input: "1374"
    input: "_blocks.9._se_expand.weight"
    input: "_blocks.9._se_expand.bias"
    output: "1375"
    op_type: "Conv"
    attribute {
      name: "dilations"
      ints: 1
      ints: 1
      type: INTS
    }
    attribute {
      name: "group"
      i: 1
      type: INT
    }
    attribute {
      name: "kernel_shape"
      ints: 1
      ints: 1
      type: INTS
    }
    attribute {
      name: "pads"
      ints: 0
      ints: 0
      ints: 0
      ints: 0
      type: INTS
    }
    attribute {
      name: "strides"
      ints: 1
      ints: 1
      type: INTS
    }
  }
  node {
    input: "1375"
    output: "1376"
    op_type: "Sigmoid"
  }
  node {
    input: "1376"
    input: "1370"
    output: "1377"
    op_type: "Mul"
  }
  node {
    input: "1377"
    input: "_blocks.9._project_conv.weight"
    output: "1378"
    op_type: "Conv"
    attribute {
      name: "dilations"
      ints: 1
      ints: 1
      type: INTS
    }
    attribute {
      name: "group"
      i: 1
      type: INT
    }
    attribute {
      name: "kernel_shape"
      ints: 1
      ints: 1
      type: INTS
    }
    attribute {
      name: "pads"
      ints: 0
      ints: 0
      ints: 0
      ints: 0
      type: INTS
    }
    attribute {
      name: "strides"
      ints: 1
      ints: 1
      type: INTS
    }
  }
  node {
    input: "1378"
    input: "_blocks.9._bn2.weight"
    input: "_blocks.9._bn2.bias"
    input: "_blocks.9._bn2.running_mean"
    input: "_blocks.9._bn2.running_var"
    output: "1379"
    op_type: "BatchNormalization"
    attribute {
      name: "epsilon"
      f: 0.0010000000474974513
      type: FLOAT
    }
    attribute {
      name: "momentum"
      f: 0.9900000095367432
      type: FLOAT
    }
  }
  node {
    input: "1379"
    input: "1361"
    output: "1380"
    op_type: "Add"
  }
  node {
    input: "1380"
    input: "_blocks.10._expand_conv.weight"
    output: "1381"
    op_type: "Conv"
    attribute {
      name: "dilations"
      ints: 1
      ints: 1
      type: INTS
    }
    attribute {
      name: "group"
      i: 1
      type: INT
    }
    attribute {
      name: "kernel_shape"
      ints: 1
      ints: 1
      type: INTS
    }
    attribute {
      name: "pads"
      ints: 0
      ints: 0
      ints: 0
      ints: 0
      type: INTS
    }
    attribute {
      name: "strides"
      ints: 1
      ints: 1
      type: INTS
    }
  }
  node {
    input: "1381"
    input: "_blocks.10._bn0.weight"
    input: "_blocks.10._bn0.bias"
    input: "_blocks.10._bn0.running_mean"
    input: "_blocks.10._bn0.running_var"
    output: "1382"
    op_type: "BatchNormalization"
    attribute {
      name: "epsilon"
      f: 0.0010000000474974513
      type: FLOAT
    }
    attribute {
      name: "momentum"
      f: 0.9900000095367432
      type: FLOAT
    }
  }
  node {
    input: "1382"
    output: "1383"
    op_type: "Sigmoid"
  }
  node {
    input: "1382"
    input: "1383"
    output: "1384"
    op_type: "Mul"
  }
  node {
    input: "1384"
    output: "1385"
    op_type: "Pad"
    attribute {
      name: "mode"
      s: "constant"
      type: STRING
    }
    attribute {
      name: "pads"
      ints: 0
      ints: 0
      ints: 1
      ints: 1
      ints: 0
      ints: 0
      ints: 1
      ints: 1
      type: INTS
    }
    attribute {
      name: "value"
      f: 0.0
      type: FLOAT
    }
  }
  node {
    input: "1385"
    input: "_blocks.10._depthwise_conv.weight"
    output: "1386"
    op_type: "Conv"
    attribute {
      name: "dilations"
      ints: 1
      ints: 1
      type: INTS
    }
    attribute {
      name: "group"
      i: 288
      type: INT
    }
    attribute {
      name: "kernel_shape"
      ints: 3
      ints: 3
      type: INTS
    }
    attribute {
      name: "pads"
      ints: 0
      ints: 0
      ints: 0
      ints: 0
      type: INTS
    }
    attribute {
      name: "strides"
      ints: 1
      ints: 1
      type: INTS
    }
  }
  node {
    input: "1386"
    input: "_blocks.10._bn1.weight"
    input: "_blocks.10._bn1.bias"
    input: "_blocks.10._bn1.running_mean"
    input: "_blocks.10._bn1.running_var"
    output: "1387"
    op_type: "BatchNormalization"
    attribute {
      name: "epsilon"
      f: 0.0010000000474974513
      type: FLOAT
    }
    attribute {
      name: "momentum"
      f: 0.9900000095367432
      type: FLOAT
    }
  }
  node {
    input: "1387"
    output: "1388"
    op_type: "Sigmoid"
  }
  node {
    input: "1387"
    input: "1388"
    output: "1389"
    op_type: "Mul"
  }
  node {
    input: "1389"
    output: "1390"
    op_type: "GlobalAveragePool"
  }
  node {
    input: "1390"
    input: "_blocks.10._se_reduce.weight"
    input: "_blocks.10._se_reduce.bias"
    output: "1391"
    op_type: "Conv"
    attribute {
      name: "dilations"
      ints: 1
      ints: 1
      type: INTS
    }
    attribute {
      name: "group"
      i: 1
      type: INT
    }
    attribute {
      name: "kernel_shape"
      ints: 1
      ints: 1
      type: INTS
    }
    attribute {
      name: "pads"
      ints: 0
      ints: 0
      ints: 0
      ints: 0
      type: INTS
    }
    attribute {
      name: "strides"
      ints: 1
      ints: 1
      type: INTS
    }
  }
  node {
    input: "1391"
    output: "1392"
    op_type: "Sigmoid"
  }
  node {
    input: "1391"
    input: "1392"
    output: "1393"
    op_type: "Mul"
  }
  node {
    input: "1393"
    input: "_blocks.10._se_expand.weight"
    input: "_blocks.10._se_expand.bias"
    output: "1394"
    op_type: "Conv"
    attribute {
      name: "dilations"
      ints: 1
      ints: 1
      type: INTS
    }
    attribute {
      name: "group"
      i: 1
      type: INT
    }
    attribute {
      name: "kernel_shape"
      ints: 1
      ints: 1
      type: INTS
    }
    attribute {
      name: "pads"
      ints: 0
      ints: 0
      ints: 0
      ints: 0
      type: INTS
    }
    attribute {
      name: "strides"
      ints: 1
      ints: 1
      type: INTS
    }
  }
  node {
    input: "1394"
    output: "1395"
    op_type: "Sigmoid"
  }
  node {
    input: "1395"
    input: "1389"
    output: "1396"
    op_type: "Mul"
  }
  node {
    input: "1396"
    input: "_blocks.10._project_conv.weight"
    output: "1397"
    op_type: "Conv"
    attribute {
      name: "dilations"
      ints: 1
      ints: 1
      type: INTS
    }
    attribute {
      name: "group"
      i: 1
      type: INT
    }
    attribute {
      name: "kernel_shape"
      ints: 1
      ints: 1
      type: INTS
    }
    attribute {
      name: "pads"
      ints: 0
      ints: 0
      ints: 0
      ints: 0
      type: INTS
    }
    attribute {
      name: "strides"
      ints: 1
      ints: 1
      type: INTS
    }
  }
  node {
    input: "1397"
    input: "_blocks.10._bn2.weight"
    input: "_blocks.10._bn2.bias"
    input: "_blocks.10._bn2.running_mean"
    input: "_blocks.10._bn2.running_var"
    output: "1398"
    op_type: "BatchNormalization"
    attribute {
      name: "epsilon"
      f: 0.0010000000474974513
      type: FLOAT
    }
    attribute {
      name: "momentum"
      f: 0.9900000095367432
      type: FLOAT
    }
  }
  node {
    input: "1398"
    input: "1380"
    output: "1399"
    op_type: "Add"
  }
  node {
    input: "1399"
    input: "_blocks.11._expand_conv.weight"
    output: "1400"
    op_type: "Conv"
    attribute {
      name: "dilations"
      ints: 1
      ints: 1
      type: INTS
    }
    attribute {
      name: "group"
      i: 1
      type: INT
    }
    attribute {
      name: "kernel_shape"
      ints: 1
      ints: 1
      type: INTS
    }
    attribute {
      name: "pads"
      ints: 0
      ints: 0
      ints: 0
      ints: 0
      type: INTS
    }
    attribute {
      name: "strides"
      ints: 1
      ints: 1
      type: INTS
    }
  }
  node {
    input: "1400"
    input: "_blocks.11._bn0.weight"
    input: "_blocks.11._bn0.bias"
    input: "_blocks.11._bn0.running_mean"
    input: "_blocks.11._bn0.running_var"
    output: "1401"
    op_type: "BatchNormalization"
    attribute {
      name: "epsilon"
      f: 0.0010000000474974513
      type: FLOAT
    }
    attribute {
      name: "momentum"
      f: 0.9900000095367432
      type: FLOAT
    }
  }
  node {
    input: "1401"
    output: "1402"
    op_type: "Sigmoid"
  }
  node {
    input: "1401"
    input: "1402"
    output: "1403"
    op_type: "Mul"
  }
  node {
    input: "1403"
    output: "1404"
    op_type: "Pad"
    attribute {
      name: "mode"
      s: "constant"
      type: STRING
    }
    attribute {
      name: "pads"
      ints: 0
      ints: 0
      ints: 1
      ints: 1
      ints: 0
      ints: 0
      ints: 2
      ints: 2
      type: INTS
    }
    attribute {
      name: "value"
      f: 0.0
      type: FLOAT
    }
  }
  node {
    input: "1404"
    input: "_blocks.11._depthwise_conv.weight"
    output: "1405"
    op_type: "Conv"
    attribute {
      name: "dilations"
      ints: 1
      ints: 1
      type: INTS
    }
    attribute {
      name: "group"
      i: 288
      type: INT
    }
    attribute {
      name: "kernel_shape"
      ints: 5
      ints: 5
      type: INTS
    }
    attribute {
      name: "pads"
      ints: 0
      ints: 0
      ints: 0
      ints: 0
      type: INTS
    }
    attribute {
      name: "strides"
      ints: 2
      ints: 2
      type: INTS
    }
  }
  node {
    input: "1405"
    input: "_blocks.11._bn1.weight"
    input: "_blocks.11._bn1.bias"
    input: "_blocks.11._bn1.running_mean"
    input: "_blocks.11._bn1.running_var"
    output: "1406"
    op_type: "BatchNormalization"
    attribute {
      name: "epsilon"
      f: 0.0010000000474974513
      type: FLOAT
    }
    attribute {
      name: "momentum"
      f: 0.9900000095367432
      type: FLOAT
    }
  }
  node {
    input: "1406"
    output: "1407"
    op_type: "Sigmoid"
  }
  node {
    input: "1406"
    input: "1407"
    output: "1408"
    op_type: "Mul"
  }
  node {
    input: "1408"
    output: "1409"
    op_type: "GlobalAveragePool"
  }
  node {
    input: "1409"
    input: "_blocks.11._se_reduce.weight"
    input: "_blocks.11._se_reduce.bias"
    output: "1410"
    op_type: "Conv"
    attribute {
      name: "dilations"
      ints: 1
      ints: 1
      type: INTS
    }
    attribute {
      name: "group"
      i: 1
      type: INT
    }
    attribute {
      name: "kernel_shape"
      ints: 1
      ints: 1
      type: INTS
    }
    attribute {
      name: "pads"
      ints: 0
      ints: 0
      ints: 0
      ints: 0
      type: INTS
    }
    attribute {
      name: "strides"
      ints: 1
      ints: 1
      type: INTS
    }
  }
  node {
    input: "1410"
    output: "1411"
    op_type: "Sigmoid"
  }
  node {
    input: "1410"
    input: "1411"
    output: "1412"
    op_type: "Mul"
  }
  node {
    input: "1412"
    input: "_blocks.11._se_expand.weight"
    input: "_blocks.11._se_expand.bias"
    output: "1413"
    op_type: "Conv"
    attribute {
      name: "dilations"
      ints: 1
      ints: 1
      type: INTS
    }
    attribute {
      name: "group"
      i: 1
      type: INT
    }
    attribute {
      name: "kernel_shape"
      ints: 1
      ints: 1
      type: INTS
    }
    attribute {
      name: "pads"
      ints: 0
      ints: 0
      ints: 0
      ints: 0
      type: INTS
    }
    attribute {
      name: "strides"
      ints: 1
      ints: 1
      type: INTS
    }
  }
  node {
    input: "1413"
    output: "1414"
    op_type: "Sigmoid"
  }
  node {
    input: "1414"
    input: "1408"
    output: "1415"
    op_type: "Mul"
  }
  node {
    input: "1415"
    input: "_blocks.11._project_conv.weight"
    output: "1416"
    op_type: "Conv"
    attribute {
      name: "dilations"
      ints: 1
      ints: 1
      type: INTS
    }
    attribute {
      name: "group"
      i: 1
      type: INT
    }
    attribute {
      name: "kernel_shape"
      ints: 1
      ints: 1
      type: INTS
    }
    attribute {
      name: "pads"
      ints: 0
      ints: 0
      ints: 0
      ints: 0
      type: INTS
    }
    attribute {
      name: "strides"
      ints: 1
      ints: 1
      type: INTS
    }
  }
  node {
    input: "1416"
    input: "_blocks.11._bn2.weight"
    input: "_blocks.11._bn2.bias"
    input: "_blocks.11._bn2.running_mean"
    input: "_blocks.11._bn2.running_var"
    output: "1417"
    op_type: "BatchNormalization"
    attribute {
      name: "epsilon"
      f: 0.0010000000474974513
      type: FLOAT
    }
    attribute {
      name: "momentum"
      f: 0.9900000095367432
      type: FLOAT
    }
  }
  node {
    input: "1417"
    input: "_blocks.12._expand_conv.weight"
    output: "1418"
    op_type: "Conv"
    attribute {
      name: "dilations"
      ints: 1
      ints: 1
      type: INTS
    }
    attribute {
      name: "group"
      i: 1
      type: INT
    }
    attribute {
      name: "kernel_shape"
      ints: 1
      ints: 1
      type: INTS
    }
    attribute {
      name: "pads"
      ints: 0
      ints: 0
      ints: 0
      ints: 0
      type: INTS
    }
    attribute {
      name: "strides"
      ints: 1
      ints: 1
      type: INTS
    }
  }
  node {
    input: "1418"
    input: "_blocks.12._bn0.weight"
    input: "_blocks.12._bn0.bias"
    input: "_blocks.12._bn0.running_mean"
    input: "_blocks.12._bn0.running_var"
    output: "1419"
    op_type: "BatchNormalization"
    attribute {
      name: "epsilon"
      f: 0.0010000000474974513
      type: FLOAT
    }
    attribute {
      name: "momentum"
      f: 0.9900000095367432
      type: FLOAT
    }
  }
  node {
    input: "1419"
    output: "1420"
    op_type: "Sigmoid"
  }
  node {
    input: "1419"
    input: "1420"
    output: "1421"
    op_type: "Mul"
  }
  node {
    input: "1421"
    output: "1422"
    op_type: "Pad"
    attribute {
      name: "mode"
      s: "constant"
      type: STRING
    }
    attribute {
      name: "pads"
      ints: 0
      ints: 0
      ints: 2
      ints: 2
      ints: 0
      ints: 0
      ints: 2
      ints: 2
      type: INTS
    }
    attribute {
      name: "value"
      f: 0.0
      type: FLOAT
    }
  }
  node {
    input: "1422"
    input: "_blocks.12._depthwise_conv.weight"
    output: "1423"
    op_type: "Conv"
    attribute {
      name: "dilations"
      ints: 1
      ints: 1
      type: INTS
    }
    attribute {
      name: "group"
      i: 480
      type: INT
    }
    attribute {
      name: "kernel_shape"
      ints: 5
      ints: 5
      type: INTS
    }
    attribute {
      name: "pads"
      ints: 0
      ints: 0
      ints: 0
      ints: 0
      type: INTS
    }
    attribute {
      name: "strides"
      ints: 1
      ints: 1
      type: INTS
    }
  }
  node {
    input: "1423"
    input: "_blocks.12._bn1.weight"
    input: "_blocks.12._bn1.bias"
    input: "_blocks.12._bn1.running_mean"
    input: "_blocks.12._bn1.running_var"
    output: "1424"
    op_type: "BatchNormalization"
    attribute {
      name: "epsilon"
      f: 0.0010000000474974513
      type: FLOAT
    }
    attribute {
      name: "momentum"
      f: 0.9900000095367432
      type: FLOAT
    }
  }
  node {
    input: "1424"
    output: "1425"
    op_type: "Sigmoid"
  }
  node {
    input: "1424"
    input: "1425"
    output: "1426"
    op_type: "Mul"
  }
  node {
    input: "1426"
    output: "1427"
    op_type: "GlobalAveragePool"
  }
  node {
    input: "1427"
    input: "_blocks.12._se_reduce.weight"
    input: "_blocks.12._se_reduce.bias"
    output: "1428"
    op_type: "Conv"
    attribute {
      name: "dilations"
      ints: 1
      ints: 1
      type: INTS
    }
    attribute {
      name: "group"
      i: 1
      type: INT
    }
    attribute {
      name: "kernel_shape"
      ints: 1
      ints: 1
      type: INTS
    }
    attribute {
      name: "pads"
      ints: 0
      ints: 0
      ints: 0
      ints: 0
      type: INTS
    }
    attribute {
      name: "strides"
      ints: 1
      ints: 1
      type: INTS
    }
  }
  node {
    input: "1428"
    output: "1429"
    op_type: "Sigmoid"
  }
  node {
    input: "1428"
    input: "1429"
    output: "1430"
    op_type: "Mul"
  }
  node {
    input: "1430"
    input: "_blocks.12._se_expand.weight"
    input: "_blocks.12._se_expand.bias"
    output: "1431"
    op_type: "Conv"
    attribute {
      name: "dilations"
      ints: 1
      ints: 1
      type: INTS
    }
    attribute {
      name: "group"
      i: 1
      type: INT
    }
    attribute {
      name: "kernel_shape"
      ints: 1
      ints: 1
      type: INTS
    }
    attribute {
      name: "pads"
      ints: 0
      ints: 0
      ints: 0
      ints: 0
      type: INTS
    }
    attribute {
      name: "strides"
      ints: 1
      ints: 1
      type: INTS
    }
  }
  node {
    input: "1431"
    output: "1432"
    op_type: "Sigmoid"
  }
  node {
    input: "1432"
    input: "1426"
    output: "1433"
    op_type: "Mul"
  }
  node {
    input: "1433"
    input: "_blocks.12._project_conv.weight"
    output: "1434"
    op_type: "Conv"
    attribute {
      name: "dilations"
      ints: 1
      ints: 1
      type: INTS
    }
    attribute {
      name: "group"
      i: 1
      type: INT
    }
    attribute {
      name: "kernel_shape"
      ints: 1
      ints: 1
      type: INTS
    }
    attribute {
      name: "pads"
      ints: 0
      ints: 0
      ints: 0
      ints: 0
      type: INTS
    }
    attribute {
      name: "strides"
      ints: 1
      ints: 1
      type: INTS
    }
  }
  node {
    input: "1434"
    input: "_blocks.12._bn2.weight"
    input: "_blocks.12._bn2.bias"
    input: "_blocks.12._bn2.running_mean"
    input: "_blocks.12._bn2.running_var"
    output: "1435"
    op_type: "BatchNormalization"
    attribute {
      name: "epsilon"
      f: 0.0010000000474974513
      type: FLOAT
    }
    attribute {
      name: "momentum"
      f: 0.9900000095367432
      type: FLOAT
    }
  }
  node {
    input: "1435"
    input: "1417"
    output: "1436"
    op_type: "Add"
  }
  node {
    input: "1436"
    input: "_blocks.13._expand_conv.weight"
    output: "1437"
    op_type: "Conv"
    attribute {
      name: "dilations"
      ints: 1
      ints: 1
      type: INTS
    }
    attribute {
      name: "group"
      i: 1
      type: INT
    }
    attribute {
      name: "kernel_shape"
      ints: 1
      ints: 1
      type: INTS
    }
    attribute {
      name: "pads"
      ints: 0
      ints: 0
      ints: 0
      ints: 0
      type: INTS
    }
    attribute {
      name: "strides"
      ints: 1
      ints: 1
      type: INTS
    }
  }
  node {
    input: "1437"
    input: "_blocks.13._bn0.weight"
    input: "_blocks.13._bn0.bias"
    input: "_blocks.13._bn0.running_mean"
    input: "_blocks.13._bn0.running_var"
    output: "1438"
    op_type: "BatchNormalization"
    attribute {
      name: "epsilon"
      f: 0.0010000000474974513
      type: FLOAT
    }
    attribute {
      name: "momentum"
      f: 0.9900000095367432
      type: FLOAT
    }
  }
  node {
    input: "1438"
    output: "1439"
    op_type: "Sigmoid"
  }
  node {
    input: "1438"
    input: "1439"
    output: "1440"
    op_type: "Mul"
  }
  node {
    input: "1440"
    output: "1441"
    op_type: "Pad"
    attribute {
      name: "mode"
      s: "constant"
      type: STRING
    }
    attribute {
      name: "pads"
      ints: 0
      ints: 0
      ints: 2
      ints: 2
      ints: 0
      ints: 0
      ints: 2
      ints: 2
      type: INTS
    }
    attribute {
      name: "value"
      f: 0.0
      type: FLOAT
    }
  }
  node {
    input: "1441"
    input: "_blocks.13._depthwise_conv.weight"
    output: "1442"
    op_type: "Conv"
    attribute {
      name: "dilations"
      ints: 1
      ints: 1
      type: INTS
    }
    attribute {
      name: "group"
      i: 480
      type: INT
    }
    attribute {
      name: "kernel_shape"
      ints: 5
      ints: 5
      type: INTS
    }
    attribute {
      name: "pads"
      ints: 0
      ints: 0
      ints: 0
      ints: 0
      type: INTS
    }
    attribute {
      name: "strides"
      ints: 1
      ints: 1
      type: INTS
    }
  }
  node {
    input: "1442"
    input: "_blocks.13._bn1.weight"
    input: "_blocks.13._bn1.bias"
    input: "_blocks.13._bn1.running_mean"
    input: "_blocks.13._bn1.running_var"
    output: "1443"
    op_type: "BatchNormalization"
    attribute {
      name: "epsilon"
      f: 0.0010000000474974513
      type: FLOAT
    }
    attribute {
      name: "momentum"
      f: 0.9900000095367432
      type: FLOAT
    }
  }
  node {
    input: "1443"
    output: "1444"
    op_type: "Sigmoid"
  }
  node {
    input: "1443"
    input: "1444"
    output: "1445"
    op_type: "Mul"
  }
  node {
    input: "1445"
    output: "1446"
    op_type: "GlobalAveragePool"
  }
  node {
    input: "1446"
    input: "_blocks.13._se_reduce.weight"
    input: "_blocks.13._se_reduce.bias"
    output: "1447"
    op_type: "Conv"
    attribute {
      name: "dilations"
      ints: 1
      ints: 1
      type: INTS
    }
    attribute {
      name: "group"
      i: 1
      type: INT
    }
    attribute {
      name: "kernel_shape"
      ints: 1
      ints: 1
      type: INTS
    }
    attribute {
      name: "pads"
      ints: 0
      ints: 0
      ints: 0
      ints: 0
      type: INTS
    }
    attribute {
      name: "strides"
      ints: 1
      ints: 1
      type: INTS
    }
  }
  node {
    input: "1447"
    output: "1448"
    op_type: "Sigmoid"
  }
  node {
    input: "1447"
    input: "1448"
    output: "1449"
    op_type: "Mul"
  }
  node {
    input: "1449"
    input: "_blocks.13._se_expand.weight"
    input: "_blocks.13._se_expand.bias"
    output: "1450"
    op_type: "Conv"
    attribute {
      name: "dilations"
      ints: 1
      ints: 1
      type: INTS
    }
    attribute {
      name: "group"
      i: 1
      type: INT
    }
    attribute {
      name: "kernel_shape"
      ints: 1
      ints: 1
      type: INTS
    }
    attribute {
      name: "pads"
      ints: 0
      ints: 0
      ints: 0
      ints: 0
      type: INTS
    }
    attribute {
      name: "strides"
      ints: 1
      ints: 1
      type: INTS
    }
  }
  node {
    input: "1450"
    output: "1451"
    op_type: "Sigmoid"
  }
  node {
    input: "1451"
    input: "1445"
    output: "1452"
    op_type: "Mul"
  }
  node {
    input: "1452"
    input: "_blocks.13._project_conv.weight"
    output: "1453"
    op_type: "Conv"
    attribute {
      name: "dilations"
      ints: 1
      ints: 1
      type: INTS
    }
    attribute {
      name: "group"
      i: 1
      type: INT
    }
    attribute {
      name: "kernel_shape"
      ints: 1
      ints: 1
      type: INTS
    }
    attribute {
      name: "pads"
      ints: 0
      ints: 0
      ints: 0
      ints: 0
      type: INTS
    }
    attribute {
      name: "strides"
      ints: 1
      ints: 1
      type: INTS
    }
  }
  node {
    input: "1453"
    input: "_blocks.13._bn2.weight"
    input: "_blocks.13._bn2.bias"
    input: "_blocks.13._bn2.running_mean"
    input: "_blocks.13._bn2.running_var"
    output: "1454"
    op_type: "BatchNormalization"
    attribute {
      name: "epsilon"
      f: 0.0010000000474974513
      type: FLOAT
    }
    attribute {
      name: "momentum"
      f: 0.9900000095367432
      type: FLOAT
    }
  }
  node {
    input: "1454"
    input: "1436"
    output: "1455"
    op_type: "Add"
  }
  node {
    input: "1455"
    input: "_blocks.14._expand_conv.weight"
    output: "1456"
    op_type: "Conv"
    attribute {
      name: "dilations"
      ints: 1
      ints: 1
      type: INTS
    }
    attribute {
      name: "group"
      i: 1
      type: INT
    }
    attribute {
      name: "kernel_shape"
      ints: 1
      ints: 1
      type: INTS
    }
    attribute {
      name: "pads"
      ints: 0
      ints: 0
      ints: 0
      ints: 0
      type: INTS
    }
    attribute {
      name: "strides"
      ints: 1
      ints: 1
      type: INTS
    }
  }
  node {
    input: "1456"
    input: "_blocks.14._bn0.weight"
    input: "_blocks.14._bn0.bias"
    input: "_blocks.14._bn0.running_mean"
    input: "_blocks.14._bn0.running_var"
    output: "1457"
    op_type: "BatchNormalization"
    attribute {
      name: "epsilon"
      f: 0.0010000000474974513
      type: FLOAT
    }
    attribute {
      name: "momentum"
      f: 0.9900000095367432
      type: FLOAT
    }
  }
  node {
    input: "1457"
    output: "1458"
    op_type: "Sigmoid"
  }
  node {
    input: "1457"
    input: "1458"
    output: "1459"
    op_type: "Mul"
  }
  node {
    input: "1459"
    output: "1460"
    op_type: "Pad"
    attribute {
      name: "mode"
      s: "constant"
      type: STRING
    }
    attribute {
      name: "pads"
      ints: 0
      ints: 0
      ints: 2
      ints: 2
      ints: 0
      ints: 0
      ints: 2
      ints: 2
      type: INTS
    }
    attribute {
      name: "value"
      f: 0.0
      type: FLOAT
    }
  }
  node {
    input: "1460"
    input: "_blocks.14._depthwise_conv.weight"
    output: "1461"
    op_type: "Conv"
    attribute {
      name: "dilations"
      ints: 1
      ints: 1
      type: INTS
    }
    attribute {
      name: "group"
      i: 480
      type: INT
    }
    attribute {
      name: "kernel_shape"
      ints: 5
      ints: 5
      type: INTS
    }
    attribute {
      name: "pads"
      ints: 0
      ints: 0
      ints: 0
      ints: 0
      type: INTS
    }
    attribute {
      name: "strides"
      ints: 1
      ints: 1
      type: INTS
    }
  }
  node {
    input: "1461"
    input: "_blocks.14._bn1.weight"
    input: "_blocks.14._bn1.bias"
    input: "_blocks.14._bn1.running_mean"
    input: "_blocks.14._bn1.running_var"
    output: "1462"
    op_type: "BatchNormalization"
    attribute {
      name: "epsilon"
      f: 0.0010000000474974513
      type: FLOAT
    }
    attribute {
      name: "momentum"
      f: 0.9900000095367432
      type: FLOAT
    }
  }
  node {
    input: "1462"
    output: "1463"
    op_type: "Sigmoid"
  }
  node {
    input: "1462"
    input: "1463"
    output: "1464"
    op_type: "Mul"
  }
  node {
    input: "1464"
    output: "1465"
    op_type: "GlobalAveragePool"
  }
  node {
    input: "1465"
    input: "_blocks.14._se_reduce.weight"
    input: "_blocks.14._se_reduce.bias"
    output: "1466"
    op_type: "Conv"
    attribute {
      name: "dilations"
      ints: 1
      ints: 1
      type: INTS
    }
    attribute {
      name: "group"
      i: 1
      type: INT
    }
    attribute {
      name: "kernel_shape"
      ints: 1
      ints: 1
      type: INTS
    }
    attribute {
      name: "pads"
      ints: 0
      ints: 0
      ints: 0
      ints: 0
      type: INTS
    }
    attribute {
      name: "strides"
      ints: 1
      ints: 1
      type: INTS
    }
  }
  node {
    input: "1466"
    output: "1467"
    op_type: "Sigmoid"
  }
  node {
    input: "1466"
    input: "1467"
    output: "1468"
    op_type: "Mul"
  }
  node {
    input: "1468"
    input: "_blocks.14._se_expand.weight"
    input: "_blocks.14._se_expand.bias"
    output: "1469"
    op_type: "Conv"
    attribute {
      name: "dilations"
      ints: 1
      ints: 1
      type: INTS
    }
    attribute {
      name: "group"
      i: 1
      type: INT
    }
    attribute {
      name: "kernel_shape"
      ints: 1
      ints: 1
      type: INTS
    }
    attribute {
      name: "pads"
      ints: 0
      ints: 0
      ints: 0
      ints: 0
      type: INTS
    }
    attribute {
      name: "strides"
      ints: 1
      ints: 1
      type: INTS
    }
  }
  node {
    input: "1469"
    output: "1470"
    op_type: "Sigmoid"
  }
  node {
    input: "1470"
    input: "1464"
    output: "1471"
    op_type: "Mul"
  }
  node {
    input: "1471"
    input: "_blocks.14._project_conv.weight"
    output: "1472"
    op_type: "Conv"
    attribute {
      name: "dilations"
      ints: 1
      ints: 1
      type: INTS
    }
    attribute {
      name: "group"
      i: 1
      type: INT
    }
    attribute {
      name: "kernel_shape"
      ints: 1
      ints: 1
      type: INTS
    }
    attribute {
      name: "pads"
      ints: 0
      ints: 0
      ints: 0
      ints: 0
      type: INTS
    }
    attribute {
      name: "strides"
      ints: 1
      ints: 1
      type: INTS
    }
  }
  node {
    input: "1472"
    input: "_blocks.14._bn2.weight"
    input: "_blocks.14._bn2.bias"
    input: "_blocks.14._bn2.running_mean"
    input: "_blocks.14._bn2.running_var"
    output: "1473"
    op_type: "BatchNormalization"
    attribute {
      name: "epsilon"
      f: 0.0010000000474974513
      type: FLOAT
    }
    attribute {
      name: "momentum"
      f: 0.9900000095367432
      type: FLOAT
    }
  }
  node {
    input: "1473"
    input: "1455"
    output: "1474"
    op_type: "Add"
  }
  node {
    input: "1474"
    input: "_blocks.15._expand_conv.weight"
    output: "1475"
    op_type: "Conv"
    attribute {
      name: "dilations"
      ints: 1
      ints: 1
      type: INTS
    }
    attribute {
      name: "group"
      i: 1
      type: INT
    }
    attribute {
      name: "kernel_shape"
      ints: 1
      ints: 1
      type: INTS
    }
    attribute {
      name: "pads"
      ints: 0
      ints: 0
      ints: 0
      ints: 0
      type: INTS
    }
    attribute {
      name: "strides"
      ints: 1
      ints: 1
      type: INTS
    }
  }
  node {
    input: "1475"
    input: "_blocks.15._bn0.weight"
    input: "_blocks.15._bn0.bias"
    input: "_blocks.15._bn0.running_mean"
    input: "_blocks.15._bn0.running_var"
    output: "1476"
    op_type: "BatchNormalization"
    attribute {
      name: "epsilon"
      f: 0.0010000000474974513
      type: FLOAT
    }
    attribute {
      name: "momentum"
      f: 0.9900000095367432
      type: FLOAT
    }
  }
  node {
    input: "1476"
    output: "1477"
    op_type: "Sigmoid"
  }
  node {
    input: "1476"
    input: "1477"
    output: "1478"
    op_type: "Mul"
  }
  node {
    input: "1478"
    output: "1479"
    op_type: "Pad"
    attribute {
      name: "mode"
      s: "constant"
      type: STRING
    }
    attribute {
      name: "pads"
      ints: 0
      ints: 0
      ints: 2
      ints: 2
      ints: 0
      ints: 0
      ints: 2
      ints: 2
      type: INTS
    }
    attribute {
      name: "value"
      f: 0.0
      type: FLOAT
    }
  }
  node {
    input: "1479"
    input: "_blocks.15._depthwise_conv.weight"
    output: "1480"
    op_type: "Conv"
    attribute {
      name: "dilations"
      ints: 1
      ints: 1
      type: INTS
    }
    attribute {
      name: "group"
      i: 480
      type: INT
    }
    attribute {
      name: "kernel_shape"
      ints: 5
      ints: 5
      type: INTS
    }
    attribute {
      name: "pads"
      ints: 0
      ints: 0
      ints: 0
      ints: 0
      type: INTS
    }
    attribute {
      name: "strides"
      ints: 1
      ints: 1
      type: INTS
    }
  }
  node {
    input: "1480"
    input: "_blocks.15._bn1.weight"
    input: "_blocks.15._bn1.bias"
    input: "_blocks.15._bn1.running_mean"
    input: "_blocks.15._bn1.running_var"
    output: "1481"
    op_type: "BatchNormalization"
    attribute {
      name: "epsilon"
      f: 0.0010000000474974513
      type: FLOAT
    }
    attribute {
      name: "momentum"
      f: 0.9900000095367432
      type: FLOAT
    }
  }
  node {
    input: "1481"
    output: "1482"
    op_type: "Sigmoid"
  }
  node {
    input: "1481"
    input: "1482"
    output: "1483"
    op_type: "Mul"
  }
  node {
    input: "1483"
    output: "1484"
    op_type: "GlobalAveragePool"
  }
  node {
    input: "1484"
    input: "_blocks.15._se_reduce.weight"
    input: "_blocks.15._se_reduce.bias"
    output: "1485"
    op_type: "Conv"
    attribute {
      name: "dilations"
      ints: 1
      ints: 1
      type: INTS
    }
    attribute {
      name: "group"
      i: 1
      type: INT
    }
    attribute {
      name: "kernel_shape"
      ints: 1
      ints: 1
      type: INTS
    }
    attribute {
      name: "pads"
      ints: 0
      ints: 0
      ints: 0
      ints: 0
      type: INTS
    }
    attribute {
      name: "strides"
      ints: 1
      ints: 1
      type: INTS
    }
  }
  node {
    input: "1485"
    output: "1486"
    op_type: "Sigmoid"
  }
  node {
    input: "1485"
    input: "1486"
    output: "1487"
    op_type: "Mul"
  }
  node {
    input: "1487"
    input: "_blocks.15._se_expand.weight"
    input: "_blocks.15._se_expand.bias"
    output: "1488"
    op_type: "Conv"
    attribute {
      name: "dilations"
      ints: 1
      ints: 1
      type: INTS
    }
    attribute {
      name: "group"
      i: 1
      type: INT
    }
    attribute {
      name: "kernel_shape"
      ints: 1
      ints: 1
      type: INTS
    }
    attribute {
      name: "pads"
      ints: 0
      ints: 0
      ints: 0
      ints: 0
      type: INTS
    }
    attribute {
      name: "strides"
      ints: 1
      ints: 1
      type: INTS
    }
  }
  node {
    input: "1488"
    output: "1489"
    op_type: "Sigmoid"
  }
  node {
    input: "1489"
    input: "1483"
    output: "1490"
    op_type: "Mul"
  }
  node {
    input: "1490"
    input: "_blocks.15._project_conv.weight"
    output: "1491"
    op_type: "Conv"
    attribute {
      name: "dilations"
      ints: 1
      ints: 1
      type: INTS
    }
    attribute {
      name: "group"
      i: 1
      type: INT
    }
    attribute {
      name: "kernel_shape"
      ints: 1
      ints: 1
      type: INTS
    }
    attribute {
      name: "pads"
      ints: 0
      ints: 0
      ints: 0
      ints: 0
      type: INTS
    }
    attribute {
      name: "strides"
      ints: 1
      ints: 1
      type: INTS
    }
  }
  node {
    input: "1491"
    input: "_blocks.15._bn2.weight"
    input: "_blocks.15._bn2.bias"
    input: "_blocks.15._bn2.running_mean"
    input: "_blocks.15._bn2.running_var"
    output: "1492"
    op_type: "BatchNormalization"
    attribute {
      name: "epsilon"
      f: 0.0010000000474974513
      type: FLOAT
    }
    attribute {
      name: "momentum"
      f: 0.9900000095367432
      type: FLOAT
    }
  }
  node {
    input: "1492"
    input: "1474"
    output: "1493"
    op_type: "Add"
  }
  node {
    input: "1493"
    input: "_blocks.16._expand_conv.weight"
    output: "1494"
    op_type: "Conv"
    attribute {
      name: "dilations"
      ints: 1
      ints: 1
      type: INTS
    }
    attribute {
      name: "group"
      i: 1
      type: INT
    }
    attribute {
      name: "kernel_shape"
      ints: 1
      ints: 1
      type: INTS
    }
    attribute {
      name: "pads"
      ints: 0
      ints: 0
      ints: 0
      ints: 0
      type: INTS
    }
    attribute {
      name: "strides"
      ints: 1
      ints: 1
      type: INTS
    }
  }
  node {
    input: "1494"
    input: "_blocks.16._bn0.weight"
    input: "_blocks.16._bn0.bias"
    input: "_blocks.16._bn0.running_mean"
    input: "_blocks.16._bn0.running_var"
    output: "1495"
    op_type: "BatchNormalization"
    attribute {
      name: "epsilon"
      f: 0.0010000000474974513
      type: FLOAT
    }
    attribute {
      name: "momentum"
      f: 0.9900000095367432
      type: FLOAT
    }
  }
  node {
    input: "1495"
    output: "1496"
    op_type: "Sigmoid"
  }
  node {
    input: "1495"
    input: "1496"
    output: "1497"
    op_type: "Mul"
  }
  node {
    input: "1497"
    output: "1498"
    op_type: "Pad"
    attribute {
      name: "mode"
      s: "constant"
      type: STRING
    }
    attribute {
      name: "pads"
      ints: 0
      ints: 0
      ints: 2
      ints: 2
      ints: 0
      ints: 0
      ints: 2
      ints: 2
      type: INTS
    }
    attribute {
      name: "value"
      f: 0.0
      type: FLOAT
    }
  }
  node {
    input: "1498"
    input: "_blocks.16._depthwise_conv.weight"
    output: "1499"
    op_type: "Conv"
    attribute {
      name: "dilations"
      ints: 1
      ints: 1
      type: INTS
    }
    attribute {
      name: "group"
      i: 480
      type: INT
    }
    attribute {
      name: "kernel_shape"
      ints: 5
      ints: 5
      type: INTS
    }
    attribute {
      name: "pads"
      ints: 0
      ints: 0
      ints: 0
      ints: 0
      type: INTS
    }
    attribute {
      name: "strides"
      ints: 1
      ints: 1
      type: INTS
    }
  }
  node {
    input: "1499"
    input: "_blocks.16._bn1.weight"
    input: "_blocks.16._bn1.bias"
    input: "_blocks.16._bn1.running_mean"
    input: "_blocks.16._bn1.running_var"
    output: "1500"
    op_type: "BatchNormalization"
    attribute {
      name: "epsilon"
      f: 0.0010000000474974513
      type: FLOAT
    }
    attribute {
      name: "momentum"
      f: 0.9900000095367432
      type: FLOAT
    }
  }
  node {
    input: "1500"
    output: "1501"
    op_type: "Sigmoid"
  }
  node {
    input: "1500"
    input: "1501"
    output: "1502"
    op_type: "Mul"
  }
  node {
    input: "1502"
    output: "1503"
    op_type: "GlobalAveragePool"
  }
  node {
    input: "1503"
    input: "_blocks.16._se_reduce.weight"
    input: "_blocks.16._se_reduce.bias"
    output: "1504"
    op_type: "Conv"
    attribute {
      name: "dilations"
      ints: 1
      ints: 1
      type: INTS
    }
    attribute {
      name: "group"
      i: 1
      type: INT
    }
    attribute {
      name: "kernel_shape"
      ints: 1
      ints: 1
      type: INTS
    }
    attribute {
      name: "pads"
      ints: 0
      ints: 0
      ints: 0
      ints: 0
      type: INTS
    }
    attribute {
      name: "strides"
      ints: 1
      ints: 1
      type: INTS
    }
  }
  node {
    input: "1504"
    output: "1505"
    op_type: "Sigmoid"
  }
  node {
    input: "1504"
    input: "1505"
    output: "1506"
    op_type: "Mul"
  }
  node {
    input: "1506"
    input: "_blocks.16._se_expand.weight"
    input: "_blocks.16._se_expand.bias"
    output: "1507"
    op_type: "Conv"
    attribute {
      name: "dilations"
      ints: 1
      ints: 1
      type: INTS
    }
    attribute {
      name: "group"
      i: 1
      type: INT
    }
    attribute {
      name: "kernel_shape"
      ints: 1
      ints: 1
      type: INTS
    }
    attribute {
      name: "pads"
      ints: 0
      ints: 0
      ints: 0
      ints: 0
      type: INTS
    }
    attribute {
      name: "strides"
      ints: 1
      ints: 1
      type: INTS
    }
  }
  node {
    input: "1507"
    output: "1508"
    op_type: "Sigmoid"
  }
  node {
    input: "1508"
    input: "1502"
    output: "1509"
    op_type: "Mul"
  }
  node {
    input: "1509"
    input: "_blocks.16._project_conv.weight"
    output: "1510"
    op_type: "Conv"
    attribute {
      name: "dilations"
      ints: 1
      ints: 1
      type: INTS
    }
    attribute {
      name: "group"
      i: 1
      type: INT
    }
    attribute {
      name: "kernel_shape"
      ints: 1
      ints: 1
      type: INTS
    }
    attribute {
      name: "pads"
      ints: 0
      ints: 0
      ints: 0
      ints: 0
      type: INTS
    }
    attribute {
      name: "strides"
      ints: 1
      ints: 1
      type: INTS
    }
  }
  node {
    input: "1510"
    input: "_blocks.16._bn2.weight"
    input: "_blocks.16._bn2.bias"
    input: "_blocks.16._bn2.running_mean"
    input: "_blocks.16._bn2.running_var"
    output: "1511"
    op_type: "BatchNormalization"
    attribute {
      name: "epsilon"
      f: 0.0010000000474974513
      type: FLOAT
    }
    attribute {
      name: "momentum"
      f: 0.9900000095367432
      type: FLOAT
    }
  }
  node {
    input: "1511"
    input: "1493"
    output: "1512"
    op_type: "Add"
  }
  node {
    input: "1512"
    input: "_blocks.17._expand_conv.weight"
    output: "1513"
    op_type: "Conv"
    attribute {
      name: "dilations"
      ints: 1
      ints: 1
      type: INTS
    }
    attribute {
      name: "group"
      i: 1
      type: INT
    }
    attribute {
      name: "kernel_shape"
      ints: 1
      ints: 1
      type: INTS
    }
    attribute {
      name: "pads"
      ints: 0
      ints: 0
      ints: 0
      ints: 0
      type: INTS
    }
    attribute {
      name: "strides"
      ints: 1
      ints: 1
      type: INTS
    }
  }
  node {
    input: "1513"
    input: "_blocks.17._bn0.weight"
    input: "_blocks.17._bn0.bias"
    input: "_blocks.17._bn0.running_mean"
    input: "_blocks.17._bn0.running_var"
    output: "1514"
    op_type: "BatchNormalization"
    attribute {
      name: "epsilon"
      f: 0.0010000000474974513
      type: FLOAT
    }
    attribute {
      name: "momentum"
      f: 0.9900000095367432
      type: FLOAT
    }
  }
  node {
    input: "1514"
    output: "1515"
    op_type: "Sigmoid"
  }
  node {
    input: "1514"
    input: "1515"
    output: "1516"
    op_type: "Mul"
  }
  node {
    input: "1516"
    output: "1517"
    op_type: "Pad"
    attribute {
      name: "mode"
      s: "constant"
      type: STRING
    }
    attribute {
      name: "pads"
      ints: 0
      ints: 0
      ints: 2
      ints: 2
      ints: 0
      ints: 0
      ints: 2
      ints: 2
      type: INTS
    }
    attribute {
      name: "value"
      f: 0.0
      type: FLOAT
    }
  }
  node {
    input: "1517"
    input: "_blocks.17._depthwise_conv.weight"
    output: "1518"
    op_type: "Conv"
    attribute {
      name: "dilations"
      ints: 1
      ints: 1
      type: INTS
    }
    attribute {
      name: "group"
      i: 480
      type: INT
    }
    attribute {
      name: "kernel_shape"
      ints: 5
      ints: 5
      type: INTS
    }
    attribute {
      name: "pads"
      ints: 0
      ints: 0
      ints: 0
      ints: 0
      type: INTS
    }
    attribute {
      name: "strides"
      ints: 1
      ints: 1
      type: INTS
    }
  }
  node {
    input: "1518"
    input: "_blocks.17._bn1.weight"
    input: "_blocks.17._bn1.bias"
    input: "_blocks.17._bn1.running_mean"
    input: "_blocks.17._bn1.running_var"
    output: "1519"
    op_type: "BatchNormalization"
    attribute {
      name: "epsilon"
      f: 0.0010000000474974513
      type: FLOAT
    }
    attribute {
      name: "momentum"
      f: 0.9900000095367432
      type: FLOAT
    }
  }
  node {
    input: "1519"
    output: "1520"
    op_type: "Sigmoid"
  }
  node {
    input: "1519"
    input: "1520"
    output: "1521"
    op_type: "Mul"
  }
  node {
    input: "1521"
    output: "1522"
    op_type: "GlobalAveragePool"
  }
  node {
    input: "1522"
    input: "_blocks.17._se_reduce.weight"
    input: "_blocks.17._se_reduce.bias"
    output: "1523"
    op_type: "Conv"
    attribute {
      name: "dilations"
      ints: 1
      ints: 1
      type: INTS
    }
    attribute {
      name: "group"
      i: 1
      type: INT
    }
    attribute {
      name: "kernel_shape"
      ints: 1
      ints: 1
      type: INTS
    }
    attribute {
      name: "pads"
      ints: 0
      ints: 0
      ints: 0
      ints: 0
      type: INTS
    }
    attribute {
      name: "strides"
      ints: 1
      ints: 1
      type: INTS
    }
  }
  node {
    input: "1523"
    output: "1524"
    op_type: "Sigmoid"
  }
  node {
    input: "1523"
    input: "1524"
    output: "1525"
    op_type: "Mul"
  }
  node {
    input: "1525"
    input: "_blocks.17._se_expand.weight"
    input: "_blocks.17._se_expand.bias"
    output: "1526"
    op_type: "Conv"
    attribute {
      name: "dilations"
      ints: 1
      ints: 1
      type: INTS
    }
    attribute {
      name: "group"
      i: 1
      type: INT
    }
    attribute {
      name: "kernel_shape"
      ints: 1
      ints: 1
      type: INTS
    }
    attribute {
      name: "pads"
      ints: 0
      ints: 0
      ints: 0
      ints: 0
      type: INTS
    }
    attribute {
      name: "strides"
      ints: 1
      ints: 1
      type: INTS
    }
  }
  node {
    input: "1526"
    output: "1527"
    op_type: "Sigmoid"
  }
  node {
    input: "1527"
    input: "1521"
    output: "1528"
    op_type: "Mul"
  }
  node {
    input: "1528"
    input: "_blocks.17._project_conv.weight"
    output: "1529"
    op_type: "Conv"
    attribute {
      name: "dilations"
      ints: 1
      ints: 1
      type: INTS
    }
    attribute {
      name: "group"
      i: 1
      type: INT
    }
    attribute {
      name: "kernel_shape"
      ints: 1
      ints: 1
      type: INTS
    }
    attribute {
      name: "pads"
      ints: 0
      ints: 0
      ints: 0
      ints: 0
      type: INTS
    }
    attribute {
      name: "strides"
      ints: 1
      ints: 1
      type: INTS
    }
  }
  node {
    input: "1529"
    input: "_blocks.17._bn2.weight"
    input: "_blocks.17._bn2.bias"
    input: "_blocks.17._bn2.running_mean"
    input: "_blocks.17._bn2.running_var"
    output: "1530"
    op_type: "BatchNormalization"
    attribute {
      name: "epsilon"
      f: 0.0010000000474974513
      type: FLOAT
    }
    attribute {
      name: "momentum"
      f: 0.9900000095367432
      type: FLOAT
    }
  }
  node {
    input: "1530"
    input: "1512"
    output: "1531"
    op_type: "Add"
  }
  node {
    input: "1531"
    input: "_blocks.18._expand_conv.weight"
    output: "1532"
    op_type: "Conv"
    attribute {
      name: "dilations"
      ints: 1
      ints: 1
      type: INTS
    }
    attribute {
      name: "group"
      i: 1
      type: INT
    }
    attribute {
      name: "kernel_shape"
      ints: 1
      ints: 1
      type: INTS
    }
    attribute {
      name: "pads"
      ints: 0
      ints: 0
      ints: 0
      ints: 0
      type: INTS
    }
    attribute {
      name: "strides"
      ints: 1
      ints: 1
      type: INTS
    }
  }
  node {
    input: "1532"
    input: "_blocks.18._bn0.weight"
    input: "_blocks.18._bn0.bias"
    input: "_blocks.18._bn0.running_mean"
    input: "_blocks.18._bn0.running_var"
    output: "1533"
    op_type: "BatchNormalization"
    attribute {
      name: "epsilon"
      f: 0.0010000000474974513
      type: FLOAT
    }
    attribute {
      name: "momentum"
      f: 0.9900000095367432
      type: FLOAT
    }
  }
  node {
    input: "1533"
    output: "1534"
    op_type: "Sigmoid"
  }
  node {
    input: "1533"
    input: "1534"
    output: "1535"
    op_type: "Mul"
  }
  node {
    input: "1535"
    output: "1536"
    op_type: "Pad"
    attribute {
      name: "mode"
      s: "constant"
      type: STRING
    }
    attribute {
      name: "pads"
      ints: 0
      ints: 0
      ints: 0
      ints: 0
      ints: 0
      ints: 0
      ints: 1
      ints: 1
      type: INTS
    }
    attribute {
      name: "value"
      f: 0.0
      type: FLOAT
    }
  }
  node {
    input: "1536"
    input: "_blocks.18._depthwise_conv.weight"
    output: "1537"
    op_type: "Conv"
    attribute {
      name: "dilations"
      ints: 1
      ints: 1
      type: INTS
    }
    attribute {
      name: "group"
      i: 480
      type: INT
    }
    attribute {
      name: "kernel_shape"
      ints: 3
      ints: 3
      type: INTS
    }
    attribute {
      name: "pads"
      ints: 0
      ints: 0
      ints: 0
      ints: 0
      type: INTS
    }
    attribute {
      name: "strides"
      ints: 2
      ints: 2
      type: INTS
    }
  }
  node {
    input: "1537"
    input: "_blocks.18._bn1.weight"
    input: "_blocks.18._bn1.bias"
    input: "_blocks.18._bn1.running_mean"
    input: "_blocks.18._bn1.running_var"
    output: "1538"
    op_type: "BatchNormalization"
    attribute {
      name: "epsilon"
      f: 0.0010000000474974513
      type: FLOAT
    }
    attribute {
      name: "momentum"
      f: 0.9900000095367432
      type: FLOAT
    }
  }
  node {
    input: "1538"
    output: "1539"
    op_type: "Sigmoid"
  }
  node {
    input: "1538"
    input: "1539"
    output: "1540"
    op_type: "Mul"
  }
  node {
    input: "1540"
    output: "1541"
    op_type: "GlobalAveragePool"
  }
  node {
    input: "1541"
    input: "_blocks.18._se_reduce.weight"
    input: "_blocks.18._se_reduce.bias"
    output: "1542"
    op_type: "Conv"
    attribute {
      name: "dilations"
      ints: 1
      ints: 1
      type: INTS
    }
    attribute {
      name: "group"
      i: 1
      type: INT
    }
    attribute {
      name: "kernel_shape"
      ints: 1
      ints: 1
      type: INTS
    }
    attribute {
      name: "pads"
      ints: 0
      ints: 0
      ints: 0
      ints: 0
      type: INTS
    }
    attribute {
      name: "strides"
      ints: 1
      ints: 1
      type: INTS
    }
  }
  node {
    input: "1542"
    output: "1543"
    op_type: "Sigmoid"
  }
  node {
    input: "1542"
    input: "1543"
    output: "1544"
    op_type: "Mul"
  }
  node {
    input: "1544"
    input: "_blocks.18._se_expand.weight"
    input: "_blocks.18._se_expand.bias"
    output: "1545"
    op_type: "Conv"
    attribute {
      name: "dilations"
      ints: 1
      ints: 1
      type: INTS
    }
    attribute {
      name: "group"
      i: 1
      type: INT
    }
    attribute {
      name: "kernel_shape"
      ints: 1
      ints: 1
      type: INTS
    }
    attribute {
      name: "pads"
      ints: 0
      ints: 0
      ints: 0
      ints: 0
      type: INTS
    }
    attribute {
      name: "strides"
      ints: 1
      ints: 1
      type: INTS
    }
  }
  node {
    input: "1545"
    output: "1546"
    op_type: "Sigmoid"
  }
  node {
    input: "1546"
    input: "1540"
    output: "1547"
    op_type: "Mul"
  }
  node {
    input: "1547"
    input: "_blocks.18._project_conv.weight"
    output: "1548"
    op_type: "Conv"
    attribute {
      name: "dilations"
      ints: 1
      ints: 1
      type: INTS
    }
    attribute {
      name: "group"
      i: 1
      type: INT
    }
    attribute {
      name: "kernel_shape"
      ints: 1
      ints: 1
      type: INTS
    }
    attribute {
      name: "pads"
      ints: 0
      ints: 0
      ints: 0
      ints: 0
      type: INTS
    }
    attribute {
      name: "strides"
      ints: 1
      ints: 1
      type: INTS
    }
  }
  node {
    input: "1548"
    input: "_blocks.18._bn2.weight"
    input: "_blocks.18._bn2.bias"
    input: "_blocks.18._bn2.running_mean"
    input: "_blocks.18._bn2.running_var"
    output: "1549"
    op_type: "BatchNormalization"
    attribute {
      name: "epsilon"
      f: 0.0010000000474974513
      type: FLOAT
    }
    attribute {
      name: "momentum"
      f: 0.9900000095367432
      type: FLOAT
    }
  }
  node {
    input: "1549"
    input: "_blocks.19._expand_conv.weight"
    output: "1550"
    op_type: "Conv"
    attribute {
      name: "dilations"
      ints: 1
      ints: 1
      type: INTS
    }
    attribute {
      name: "group"
      i: 1
      type: INT
    }
    attribute {
      name: "kernel_shape"
      ints: 1
      ints: 1
      type: INTS
    }
    attribute {
      name: "pads"
      ints: 0
      ints: 0
      ints: 0
      ints: 0
      type: INTS
    }
    attribute {
      name: "strides"
      ints: 1
      ints: 1
      type: INTS
    }
  }
  node {
    input: "1550"
    input: "_blocks.19._bn0.weight"
    input: "_blocks.19._bn0.bias"
    input: "_blocks.19._bn0.running_mean"
    input: "_blocks.19._bn0.running_var"
    output: "1551"
    op_type: "BatchNormalization"
    attribute {
      name: "epsilon"
      f: 0.0010000000474974513
      type: FLOAT
    }
    attribute {
      name: "momentum"
      f: 0.9900000095367432
      type: FLOAT
    }
  }
  node {
    input: "1551"
    output: "1552"
    op_type: "Sigmoid"
  }
  node {
    input: "1551"
    input: "1552"
    output: "1553"
    op_type: "Mul"
  }
  node {
    input: "1553"
    output: "1554"
    op_type: "Pad"
    attribute {
      name: "mode"
      s: "constant"
      type: STRING
    }
    attribute {
      name: "pads"
      ints: 0
      ints: 0
      ints: 1
      ints: 1
      ints: 0
      ints: 0
      ints: 1
      ints: 1
      type: INTS
    }
    attribute {
      name: "value"
      f: 0.0
      type: FLOAT
    }
  }
  node {
    input: "1554"
    input: "_blocks.19._depthwise_conv.weight"
    output: "1555"
    op_type: "Conv"
    attribute {
      name: "dilations"
      ints: 1
      ints: 1
      type: INTS
    }
    attribute {
      name: "group"
      i: 960
      type: INT
    }
    attribute {
      name: "kernel_shape"
      ints: 3
      ints: 3
      type: INTS
    }
    attribute {
      name: "pads"
      ints: 0
      ints: 0
      ints: 0
      ints: 0
      type: INTS
    }
    attribute {
      name: "strides"
      ints: 1
      ints: 1
      type: INTS
    }
  }
  node {
    input: "1555"
    input: "_blocks.19._bn1.weight"
    input: "_blocks.19._bn1.bias"
    input: "_blocks.19._bn1.running_mean"
    input: "_blocks.19._bn1.running_var"
    output: "1556"
    op_type: "BatchNormalization"
    attribute {
      name: "epsilon"
      f: 0.0010000000474974513
      type: FLOAT
    }
    attribute {
      name: "momentum"
      f: 0.9900000095367432
      type: FLOAT
    }
  }
  node {
    input: "1556"
    output: "1557"
    op_type: "Sigmoid"
  }
  node {
    input: "1556"
    input: "1557"
    output: "1558"
    op_type: "Mul"
  }
  node {
    input: "1558"
    output: "1559"
    op_type: "GlobalAveragePool"
  }
  node {
    input: "1559"
    input: "_blocks.19._se_reduce.weight"
    input: "_blocks.19._se_reduce.bias"
    output: "1560"
    op_type: "Conv"
    attribute {
      name: "dilations"
      ints: 1
      ints: 1
      type: INTS
    }
    attribute {
      name: "group"
      i: 1
      type: INT
    }
    attribute {
      name: "kernel_shape"
      ints: 1
      ints: 1
      type: INTS
    }
    attribute {
      name: "pads"
      ints: 0
      ints: 0
      ints: 0
      ints: 0
      type: INTS
    }
    attribute {
      name: "strides"
      ints: 1
      ints: 1
      type: INTS
    }
  }
  node {
    input: "1560"
    output: "1561"
    op_type: "Sigmoid"
  }
  node {
    input: "1560"
    input: "1561"
    output: "1562"
    op_type: "Mul"
  }
  node {
    input: "1562"
    input: "_blocks.19._se_expand.weight"
    input: "_blocks.19._se_expand.bias"
    output: "1563"
    op_type: "Conv"
    attribute {
      name: "dilations"
      ints: 1
      ints: 1
      type: INTS
    }
    attribute {
      name: "group"
      i: 1
      type: INT
    }
    attribute {
      name: "kernel_shape"
      ints: 1
      ints: 1
      type: INTS
    }
    attribute {
      name: "pads"
      ints: 0
      ints: 0
      ints: 0
      ints: 0
      type: INTS
    }
    attribute {
      name: "strides"
      ints: 1
      ints: 1
      type: INTS
    }
  }
  node {
    input: "1563"
    output: "1564"
    op_type: "Sigmoid"
  }
  node {
    input: "1564"
    input: "1558"
    output: "1565"
    op_type: "Mul"
  }
  node {
    input: "1565"
    input: "_blocks.19._project_conv.weight"
    output: "1566"
    op_type: "Conv"
    attribute {
      name: "dilations"
      ints: 1
      ints: 1
      type: INTS
    }
    attribute {
      name: "group"
      i: 1
      type: INT
    }
    attribute {
      name: "kernel_shape"
      ints: 1
      ints: 1
      type: INTS
    }
    attribute {
      name: "pads"
      ints: 0
      ints: 0
      ints: 0
      ints: 0
      type: INTS
    }
    attribute {
      name: "strides"
      ints: 1
      ints: 1
      type: INTS
    }
  }
  node {
    input: "1566"
    input: "_blocks.19._bn2.weight"
    input: "_blocks.19._bn2.bias"
    input: "_blocks.19._bn2.running_mean"
    input: "_blocks.19._bn2.running_var"
    output: "1567"
    op_type: "BatchNormalization"
    attribute {
      name: "epsilon"
      f: 0.0010000000474974513
      type: FLOAT
    }
    attribute {
      name: "momentum"
      f: 0.9900000095367432
      type: FLOAT
    }
  }
  node {
    input: "1567"
    input: "1549"
    output: "1568"
    op_type: "Add"
  }
  node {
    input: "1568"
    input: "_blocks.20._expand_conv.weight"
    output: "1569"
    op_type: "Conv"
    attribute {
      name: "dilations"
      ints: 1
      ints: 1
      type: INTS
    }
    attribute {
      name: "group"
      i: 1
      type: INT
    }
    attribute {
      name: "kernel_shape"
      ints: 1
      ints: 1
      type: INTS
    }
    attribute {
      name: "pads"
      ints: 0
      ints: 0
      ints: 0
      ints: 0
      type: INTS
    }
    attribute {
      name: "strides"
      ints: 1
      ints: 1
      type: INTS
    }
  }
  node {
    input: "1569"
    input: "_blocks.20._bn0.weight"
    input: "_blocks.20._bn0.bias"
    input: "_blocks.20._bn0.running_mean"
    input: "_blocks.20._bn0.running_var"
    output: "1570"
    op_type: "BatchNormalization"
    attribute {
      name: "epsilon"
      f: 0.0010000000474974513
      type: FLOAT
    }
    attribute {
      name: "momentum"
      f: 0.9900000095367432
      type: FLOAT
    }
  }
  node {
    input: "1570"
    output: "1571"
    op_type: "Sigmoid"
  }
  node {
    input: "1570"
    input: "1571"
    output: "1572"
    op_type: "Mul"
  }
  node {
    input: "1572"
    output: "1573"
    op_type: "Pad"
    attribute {
      name: "mode"
      s: "constant"
      type: STRING
    }
    attribute {
      name: "pads"
      ints: 0
      ints: 0
      ints: 1
      ints: 1
      ints: 0
      ints: 0
      ints: 1
      ints: 1
      type: INTS
    }
    attribute {
      name: "value"
      f: 0.0
      type: FLOAT
    }
  }
  node {
    input: "1573"
    input: "_blocks.20._depthwise_conv.weight"
    output: "1574"
    op_type: "Conv"
    attribute {
      name: "dilations"
      ints: 1
      ints: 1
      type: INTS
    }
    attribute {
      name: "group"
      i: 960
      type: INT
    }
    attribute {
      name: "kernel_shape"
      ints: 3
      ints: 3
      type: INTS
    }
    attribute {
      name: "pads"
      ints: 0
      ints: 0
      ints: 0
      ints: 0
      type: INTS
    }
    attribute {
      name: "strides"
      ints: 1
      ints: 1
      type: INTS
    }
  }
  node {
    input: "1574"
    input: "_blocks.20._bn1.weight"
    input: "_blocks.20._bn1.bias"
    input: "_blocks.20._bn1.running_mean"
    input: "_blocks.20._bn1.running_var"
    output: "1575"
    op_type: "BatchNormalization"
    attribute {
      name: "epsilon"
      f: 0.0010000000474974513
      type: FLOAT
    }
    attribute {
      name: "momentum"
      f: 0.9900000095367432
      type: FLOAT
    }
  }
  node {
    input: "1575"
    output: "1576"
    op_type: "Sigmoid"
  }
  node {
    input: "1575"
    input: "1576"
    output: "1577"
    op_type: "Mul"
  }
  node {
    input: "1577"
    output: "1578"
    op_type: "GlobalAveragePool"
  }
  node {
    input: "1578"
    input: "_blocks.20._se_reduce.weight"
    input: "_blocks.20._se_reduce.bias"
    output: "1579"
    op_type: "Conv"
    attribute {
      name: "dilations"
      ints: 1
      ints: 1
      type: INTS
    }
    attribute {
      name: "group"
      i: 1
      type: INT
    }
    attribute {
      name: "kernel_shape"
      ints: 1
      ints: 1
      type: INTS
    }
    attribute {
      name: "pads"
      ints: 0
      ints: 0
      ints: 0
      ints: 0
      type: INTS
    }
    attribute {
      name: "strides"
      ints: 1
      ints: 1
      type: INTS
    }
  }
  node {
    input: "1579"
    output: "1580"
    op_type: "Sigmoid"
  }
  node {
    input: "1579"
    input: "1580"
    output: "1581"
    op_type: "Mul"
  }
  node {
    input: "1581"
    input: "_blocks.20._se_expand.weight"
    input: "_blocks.20._se_expand.bias"
    output: "1582"
    op_type: "Conv"
    attribute {
      name: "dilations"
      ints: 1
      ints: 1
      type: INTS
    }
    attribute {
      name: "group"
      i: 1
      type: INT
    }
    attribute {
      name: "kernel_shape"
      ints: 1
      ints: 1
      type: INTS
    }
    attribute {
      name: "pads"
      ints: 0
      ints: 0
      ints: 0
      ints: 0
      type: INTS
    }
    attribute {
      name: "strides"
      ints: 1
      ints: 1
      type: INTS
    }
  }
  node {
    input: "1582"
    output: "1583"
    op_type: "Sigmoid"
  }
  node {
    input: "1583"
    input: "1577"
    output: "1584"
    op_type: "Mul"
  }
  node {
    input: "1584"
    input: "_blocks.20._project_conv.weight"
    output: "1585"
    op_type: "Conv"
    attribute {
      name: "dilations"
      ints: 1
      ints: 1
      type: INTS
    }
    attribute {
      name: "group"
      i: 1
      type: INT
    }
    attribute {
      name: "kernel_shape"
      ints: 1
      ints: 1
      type: INTS
    }
    attribute {
      name: "pads"
      ints: 0
      ints: 0
      ints: 0
      ints: 0
      type: INTS
    }
    attribute {
      name: "strides"
      ints: 1
      ints: 1
      type: INTS
    }
  }
  node {
    input: "1585"
    input: "_blocks.20._bn2.weight"
    input: "_blocks.20._bn2.bias"
    input: "_blocks.20._bn2.running_mean"
    input: "_blocks.20._bn2.running_var"
    output: "1586"
    op_type: "BatchNormalization"
    attribute {
      name: "epsilon"
      f: 0.0010000000474974513
      type: FLOAT
    }
    attribute {
      name: "momentum"
      f: 0.9900000095367432
      type: FLOAT
    }
  }
  node {
    input: "1586"
    input: "1568"
    output: "1587"
    op_type: "Add"
  }
  node {
    input: "1587"
    input: "_blocks.21._expand_conv.weight"
    output: "1588"
    op_type: "Conv"
    attribute {
      name: "dilations"
      ints: 1
      ints: 1
      type: INTS
    }
    attribute {
      name: "group"
      i: 1
      type: INT
    }
    attribute {
      name: "kernel_shape"
      ints: 1
      ints: 1
      type: INTS
    }
    attribute {
      name: "pads"
      ints: 0
      ints: 0
      ints: 0
      ints: 0
      type: INTS
    }
    attribute {
      name: "strides"
      ints: 1
      ints: 1
      type: INTS
    }
  }
  node {
    input: "1588"
    input: "_blocks.21._bn0.weight"
    input: "_blocks.21._bn0.bias"
    input: "_blocks.21._bn0.running_mean"
    input: "_blocks.21._bn0.running_var"
    output: "1589"
    op_type: "BatchNormalization"
    attribute {
      name: "epsilon"
      f: 0.0010000000474974513
      type: FLOAT
    }
    attribute {
      name: "momentum"
      f: 0.9900000095367432
      type: FLOAT
    }
  }
  node {
    input: "1589"
    output: "1590"
    op_type: "Sigmoid"
  }
  node {
    input: "1589"
    input: "1590"
    output: "1591"
    op_type: "Mul"
  }
  node {
    input: "1591"
    output: "1592"
    op_type: "Pad"
    attribute {
      name: "mode"
      s: "constant"
      type: STRING
    }
    attribute {
      name: "pads"
      ints: 0
      ints: 0
      ints: 1
      ints: 1
      ints: 0
      ints: 0
      ints: 1
      ints: 1
      type: INTS
    }
    attribute {
      name: "value"
      f: 0.0
      type: FLOAT
    }
  }
  node {
    input: "1592"
    input: "_blocks.21._depthwise_conv.weight"
    output: "1593"
    op_type: "Conv"
    attribute {
      name: "dilations"
      ints: 1
      ints: 1
      type: INTS
    }
    attribute {
      name: "group"
      i: 960
      type: INT
    }
    attribute {
      name: "kernel_shape"
      ints: 3
      ints: 3
      type: INTS
    }
    attribute {
      name: "pads"
      ints: 0
      ints: 0
      ints: 0
      ints: 0
      type: INTS
    }
    attribute {
      name: "strides"
      ints: 1
      ints: 1
      type: INTS
    }
  }
  node {
    input: "1593"
    input: "_blocks.21._bn1.weight"
    input: "_blocks.21._bn1.bias"
    input: "_blocks.21._bn1.running_mean"
    input: "_blocks.21._bn1.running_var"
    output: "1594"
    op_type: "BatchNormalization"
    attribute {
      name: "epsilon"
      f: 0.0010000000474974513
      type: FLOAT
    }
    attribute {
      name: "momentum"
      f: 0.9900000095367432
      type: FLOAT
    }
  }
  node {
    input: "1594"
    output: "1595"
    op_type: "Sigmoid"
  }
  node {
    input: "1594"
    input: "1595"
    output: "1596"
    op_type: "Mul"
  }
  node {
    input: "1596"
    output: "1597"
    op_type: "GlobalAveragePool"
  }
  node {
    input: "1597"
    input: "_blocks.21._se_reduce.weight"
    input: "_blocks.21._se_reduce.bias"
    output: "1598"
    op_type: "Conv"
    attribute {
      name: "dilations"
      ints: 1
      ints: 1
      type: INTS
    }
    attribute {
      name: "group"
      i: 1
      type: INT
    }
    attribute {
      name: "kernel_shape"
      ints: 1
      ints: 1
      type: INTS
    }
    attribute {
      name: "pads"
      ints: 0
      ints: 0
      ints: 0
      ints: 0
      type: INTS
    }
    attribute {
      name: "strides"
      ints: 1
      ints: 1
      type: INTS
    }
  }
  node {
    input: "1598"
    output: "1599"
    op_type: "Sigmoid"
  }
  node {
    input: "1598"
    input: "1599"
    output: "1600"
    op_type: "Mul"
  }
  node {
    input: "1600"
    input: "_blocks.21._se_expand.weight"
    input: "_blocks.21._se_expand.bias"
    output: "1601"
    op_type: "Conv"
    attribute {
      name: "dilations"
      ints: 1
      ints: 1
      type: INTS
    }
    attribute {
      name: "group"
      i: 1
      type: INT
    }
    attribute {
      name: "kernel_shape"
      ints: 1
      ints: 1
      type: INTS
    }
    attribute {
      name: "pads"
      ints: 0
      ints: 0
      ints: 0
      ints: 0
      type: INTS
    }
    attribute {
      name: "strides"
      ints: 1
      ints: 1
      type: INTS
    }
  }
  node {
    input: "1601"
    output: "1602"
    op_type: "Sigmoid"
  }
  node {
    input: "1602"
    input: "1596"
    output: "1603"
    op_type: "Mul"
  }
  node {
    input: "1603"
    input: "_blocks.21._project_conv.weight"
    output: "1604"
    op_type: "Conv"
    attribute {
      name: "dilations"
      ints: 1
      ints: 1
      type: INTS
    }
    attribute {
      name: "group"
      i: 1
      type: INT
    }
    attribute {
      name: "kernel_shape"
      ints: 1
      ints: 1
      type: INTS
    }
    attribute {
      name: "pads"
      ints: 0
      ints: 0
      ints: 0
      ints: 0
      type: INTS
    }
    attribute {
      name: "strides"
      ints: 1
      ints: 1
      type: INTS
    }
  }
  node {
    input: "1604"
    input: "_blocks.21._bn2.weight"
    input: "_blocks.21._bn2.bias"
    input: "_blocks.21._bn2.running_mean"
    input: "_blocks.21._bn2.running_var"
    output: "1605"
    op_type: "BatchNormalization"
    attribute {
      name: "epsilon"
      f: 0.0010000000474974513
      type: FLOAT
    }
    attribute {
      name: "momentum"
      f: 0.9900000095367432
      type: FLOAT
    }
  }
  node {
    input: "1605"
    input: "1587"
    output: "1606"
    op_type: "Add"
  }
  node {
    input: "1606"
    input: "_blocks.22._expand_conv.weight"
    output: "1607"
    op_type: "Conv"
    attribute {
      name: "dilations"
      ints: 1
      ints: 1
      type: INTS
    }
    attribute {
      name: "group"
      i: 1
      type: INT
    }
    attribute {
      name: "kernel_shape"
      ints: 1
      ints: 1
      type: INTS
    }
    attribute {
      name: "pads"
      ints: 0
      ints: 0
      ints: 0
      ints: 0
      type: INTS
    }
    attribute {
      name: "strides"
      ints: 1
      ints: 1
      type: INTS
    }
  }
  node {
    input: "1607"
    input: "_blocks.22._bn0.weight"
    input: "_blocks.22._bn0.bias"
    input: "_blocks.22._bn0.running_mean"
    input: "_blocks.22._bn0.running_var"
    output: "1608"
    op_type: "BatchNormalization"
    attribute {
      name: "epsilon"
      f: 0.0010000000474974513
      type: FLOAT
    }
    attribute {
      name: "momentum"
      f: 0.9900000095367432
      type: FLOAT
    }
  }
  node {
    input: "1608"
    output: "1609"
    op_type: "Sigmoid"
  }
  node {
    input: "1608"
    input: "1609"
    output: "1610"
    op_type: "Mul"
  }
  node {
    input: "1610"
    output: "1611"
    op_type: "Pad"
    attribute {
      name: "mode"
      s: "constant"
      type: STRING
    }
    attribute {
      name: "pads"
      ints: 0
      ints: 0
      ints: 1
      ints: 1
      ints: 0
      ints: 0
      ints: 1
      ints: 1
      type: INTS
    }
    attribute {
      name: "value"
      f: 0.0
      type: FLOAT
    }
  }
  node {
    input: "1611"
    input: "_blocks.22._depthwise_conv.weight"
    output: "1612"
    op_type: "Conv"
    attribute {
      name: "dilations"
      ints: 1
      ints: 1
      type: INTS
    }
    attribute {
      name: "group"
      i: 960
      type: INT
    }
    attribute {
      name: "kernel_shape"
      ints: 3
      ints: 3
      type: INTS
    }
    attribute {
      name: "pads"
      ints: 0
      ints: 0
      ints: 0
      ints: 0
      type: INTS
    }
    attribute {
      name: "strides"
      ints: 1
      ints: 1
      type: INTS
    }
  }
  node {
    input: "1612"
    input: "_blocks.22._bn1.weight"
    input: "_blocks.22._bn1.bias"
    input: "_blocks.22._bn1.running_mean"
    input: "_blocks.22._bn1.running_var"
    output: "1613"
    op_type: "BatchNormalization"
    attribute {
      name: "epsilon"
      f: 0.0010000000474974513
      type: FLOAT
    }
    attribute {
      name: "momentum"
      f: 0.9900000095367432
      type: FLOAT
    }
  }
  node {
    input: "1613"
    output: "1614"
    op_type: "Sigmoid"
  }
  node {
    input: "1613"
    input: "1614"
    output: "1615"
    op_type: "Mul"
  }
  node {
    input: "1615"
    output: "1616"
    op_type: "GlobalAveragePool"
  }
  node {
    input: "1616"
    input: "_blocks.22._se_reduce.weight"
    input: "_blocks.22._se_reduce.bias"
    output: "1617"
    op_type: "Conv"
    attribute {
      name: "dilations"
      ints: 1
      ints: 1
      type: INTS
    }
    attribute {
      name: "group"
      i: 1
      type: INT
    }
    attribute {
      name: "kernel_shape"
      ints: 1
      ints: 1
      type: INTS
    }
    attribute {
      name: "pads"
      ints: 0
      ints: 0
      ints: 0
      ints: 0
      type: INTS
    }
    attribute {
      name: "strides"
      ints: 1
      ints: 1
      type: INTS
    }
  }
  node {
    input: "1617"
    output: "1618"
    op_type: "Sigmoid"
  }
  node {
    input: "1617"
    input: "1618"
    output: "1619"
    op_type: "Mul"
  }
  node {
    input: "1619"
    input: "_blocks.22._se_expand.weight"
    input: "_blocks.22._se_expand.bias"
    output: "1620"
    op_type: "Conv"
    attribute {
      name: "dilations"
      ints: 1
      ints: 1
      type: INTS
    }
    attribute {
      name: "group"
      i: 1
      type: INT
    }
    attribute {
      name: "kernel_shape"
      ints: 1
      ints: 1
      type: INTS
    }
    attribute {
      name: "pads"
      ints: 0
      ints: 0
      ints: 0
      ints: 0
      type: INTS
    }
    attribute {
      name: "strides"
      ints: 1
      ints: 1
      type: INTS
    }
  }
  node {
    input: "1620"
    output: "1621"
    op_type: "Sigmoid"
  }
  node {
    input: "1621"
    input: "1615"
    output: "1622"
    op_type: "Mul"
  }
  node {
    input: "1622"
    input: "_blocks.22._project_conv.weight"
    output: "1623"
    op_type: "Conv"
    attribute {
      name: "dilations"
      ints: 1
      ints: 1
      type: INTS
    }
    attribute {
      name: "group"
      i: 1
      type: INT
    }
    attribute {
      name: "kernel_shape"
      ints: 1
      ints: 1
      type: INTS
    }
    attribute {
      name: "pads"
      ints: 0
      ints: 0
      ints: 0
      ints: 0
      type: INTS
    }
    attribute {
      name: "strides"
      ints: 1
      ints: 1
      type: INTS
    }
  }
  node {
    input: "1623"
    input: "_blocks.22._bn2.weight"
    input: "_blocks.22._bn2.bias"
    input: "_blocks.22._bn2.running_mean"
    input: "_blocks.22._bn2.running_var"
    output: "1624"
    op_type: "BatchNormalization"
    attribute {
      name: "epsilon"
      f: 0.0010000000474974513
      type: FLOAT
    }
    attribute {
      name: "momentum"
      f: 0.9900000095367432
      type: FLOAT
    }
  }
  node {
    input: "1624"
    input: "1606"
    output: "1625"
    op_type: "Add"
  }
  node {
    input: "1625"
    input: "_blocks.23._expand_conv.weight"
    output: "1626"
    op_type: "Conv"
    attribute {
      name: "dilations"
      ints: 1
      ints: 1
      type: INTS
    }
    attribute {
      name: "group"
      i: 1
      type: INT
    }
    attribute {
      name: "kernel_shape"
      ints: 1
      ints: 1
      type: INTS
    }
    attribute {
      name: "pads"
      ints: 0
      ints: 0
      ints: 0
      ints: 0
      type: INTS
    }
    attribute {
      name: "strides"
      ints: 1
      ints: 1
      type: INTS
    }
  }
  node {
    input: "1626"
    input: "_blocks.23._bn0.weight"
    input: "_blocks.23._bn0.bias"
    input: "_blocks.23._bn0.running_mean"
    input: "_blocks.23._bn0.running_var"
    output: "1627"
    op_type: "BatchNormalization"
    attribute {
      name: "epsilon"
      f: 0.0010000000474974513
      type: FLOAT
    }
    attribute {
      name: "momentum"
      f: 0.9900000095367432
      type: FLOAT
    }
  }
  node {
    input: "1627"
    output: "1628"
    op_type: "Sigmoid"
  }
  node {
    input: "1627"
    input: "1628"
    output: "1629"
    op_type: "Mul"
  }
  node {
    input: "1629"
    output: "1630"
    op_type: "Pad"
    attribute {
      name: "mode"
      s: "constant"
      type: STRING
    }
    attribute {
      name: "pads"
      ints: 0
      ints: 0
      ints: 1
      ints: 1
      ints: 0
      ints: 0
      ints: 1
      ints: 1
      type: INTS
    }
    attribute {
      name: "value"
      f: 0.0
      type: FLOAT
    }
  }
  node {
    input: "1630"
    input: "_blocks.23._depthwise_conv.weight"
    output: "1631"
    op_type: "Conv"
    attribute {
      name: "dilations"
      ints: 1
      ints: 1
      type: INTS
    }
    attribute {
      name: "group"
      i: 960
      type: INT
    }
    attribute {
      name: "kernel_shape"
      ints: 3
      ints: 3
      type: INTS
    }
    attribute {
      name: "pads"
      ints: 0
      ints: 0
      ints: 0
      ints: 0
      type: INTS
    }
    attribute {
      name: "strides"
      ints: 1
      ints: 1
      type: INTS
    }
  }
  node {
    input: "1631"
    input: "_blocks.23._bn1.weight"
    input: "_blocks.23._bn1.bias"
    input: "_blocks.23._bn1.running_mean"
    input: "_blocks.23._bn1.running_var"
    output: "1632"
    op_type: "BatchNormalization"
    attribute {
      name: "epsilon"
      f: 0.0010000000474974513
      type: FLOAT
    }
    attribute {
      name: "momentum"
      f: 0.9900000095367432
      type: FLOAT
    }
  }
  node {
    input: "1632"
    output: "1633"
    op_type: "Sigmoid"
  }
  node {
    input: "1632"
    input: "1633"
    output: "1634"
    op_type: "Mul"
  }
  node {
    input: "1634"
    output: "1635"
    op_type: "GlobalAveragePool"
  }
  node {
    input: "1635"
    input: "_blocks.23._se_reduce.weight"
    input: "_blocks.23._se_reduce.bias"
    output: "1636"
    op_type: "Conv"
    attribute {
      name: "dilations"
      ints: 1
      ints: 1
      type: INTS
    }
    attribute {
      name: "group"
      i: 1
      type: INT
    }
    attribute {
      name: "kernel_shape"
      ints: 1
      ints: 1
      type: INTS
    }
    attribute {
      name: "pads"
      ints: 0
      ints: 0
      ints: 0
      ints: 0
      type: INTS
    }
    attribute {
      name: "strides"
      ints: 1
      ints: 1
      type: INTS
    }
  }
  node {
    input: "1636"
    output: "1637"
    op_type: "Sigmoid"
  }
  node {
    input: "1636"
    input: "1637"
    output: "1638"
    op_type: "Mul"
  }
  node {
    input: "1638"
    input: "_blocks.23._se_expand.weight"
    input: "_blocks.23._se_expand.bias"
    output: "1639"
    op_type: "Conv"
    attribute {
      name: "dilations"
      ints: 1
      ints: 1
      type: INTS
    }
    attribute {
      name: "group"
      i: 1
      type: INT
    }
    attribute {
      name: "kernel_shape"
      ints: 1
      ints: 1
      type: INTS
    }
    attribute {
      name: "pads"
      ints: 0
      ints: 0
      ints: 0
      ints: 0
      type: INTS
    }
    attribute {
      name: "strides"
      ints: 1
      ints: 1
      type: INTS
    }
  }
  node {
    input: "1639"
    output: "1640"
    op_type: "Sigmoid"
  }
  node {
    input: "1640"
    input: "1634"
    output: "1641"
    op_type: "Mul"
  }
  node {
    input: "1641"
    input: "_blocks.23._project_conv.weight"
    output: "1642"
    op_type: "Conv"
    attribute {
      name: "dilations"
      ints: 1
      ints: 1
      type: INTS
    }
    attribute {
      name: "group"
      i: 1
      type: INT
    }
    attribute {
      name: "kernel_shape"
      ints: 1
      ints: 1
      type: INTS
    }
    attribute {
      name: "pads"
      ints: 0
      ints: 0
      ints: 0
      ints: 0
      type: INTS
    }
    attribute {
      name: "strides"
      ints: 1
      ints: 1
      type: INTS
    }
  }
  node {
    input: "1642"
    input: "_blocks.23._bn2.weight"
    input: "_blocks.23._bn2.bias"
    input: "_blocks.23._bn2.running_mean"
    input: "_blocks.23._bn2.running_var"
    output: "1643"
    op_type: "BatchNormalization"
    attribute {
      name: "epsilon"
      f: 0.0010000000474974513
      type: FLOAT
    }
    attribute {
      name: "momentum"
      f: 0.9900000095367432
      type: FLOAT
    }
  }
  node {
    input: "1643"
    input: "1625"
    output: "1644"
    op_type: "Add"
  }
  node {
    input: "1644"
    input: "_blocks.24._expand_conv.weight"
    output: "1645"
    op_type: "Conv"
    attribute {
      name: "dilations"
      ints: 1
      ints: 1
      type: INTS
    }
    attribute {
      name: "group"
      i: 1
      type: INT
    }
    attribute {
      name: "kernel_shape"
      ints: 1
      ints: 1
      type: INTS
    }
    attribute {
      name: "pads"
      ints: 0
      ints: 0
      ints: 0
      ints: 0
      type: INTS
    }
    attribute {
      name: "strides"
      ints: 1
      ints: 1
      type: INTS
    }
  }
  node {
    input: "1645"
    input: "_blocks.24._bn0.weight"
    input: "_blocks.24._bn0.bias"
    input: "_blocks.24._bn0.running_mean"
    input: "_blocks.24._bn0.running_var"
    output: "1646"
    op_type: "BatchNormalization"
    attribute {
      name: "epsilon"
      f: 0.0010000000474974513
      type: FLOAT
    }
    attribute {
      name: "momentum"
      f: 0.9900000095367432
      type: FLOAT
    }
  }
  node {
    input: "1646"
    output: "1647"
    op_type: "Sigmoid"
  }
  node {
    input: "1646"
    input: "1647"
    output: "1648"
    op_type: "Mul"
  }
  node {
    input: "1648"
    output: "1649"
    op_type: "Pad"
    attribute {
      name: "mode"
      s: "constant"
      type: STRING
    }
    attribute {
      name: "pads"
      ints: 0
      ints: 0
      ints: 1
      ints: 1
      ints: 0
      ints: 0
      ints: 1
      ints: 1
      type: INTS
    }
    attribute {
      name: "value"
      f: 0.0
      type: FLOAT
    }
  }
  node {
    input: "1649"
    input: "_blocks.24._depthwise_conv.weight"
    output: "1650"
    op_type: "Conv"
    attribute {
      name: "dilations"
      ints: 1
      ints: 1
      type: INTS
    }
    attribute {
      name: "group"
      i: 960
      type: INT
    }
    attribute {
      name: "kernel_shape"
      ints: 3
      ints: 3
      type: INTS
    }
    attribute {
      name: "pads"
      ints: 0
      ints: 0
      ints: 0
      ints: 0
      type: INTS
    }
    attribute {
      name: "strides"
      ints: 1
      ints: 1
      type: INTS
    }
  }
  node {
    input: "1650"
    input: "_blocks.24._bn1.weight"
    input: "_blocks.24._bn1.bias"
    input: "_blocks.24._bn1.running_mean"
    input: "_blocks.24._bn1.running_var"
    output: "1651"
    op_type: "BatchNormalization"
    attribute {
      name: "epsilon"
      f: 0.0010000000474974513
      type: FLOAT
    }
    attribute {
      name: "momentum"
      f: 0.9900000095367432
      type: FLOAT
    }
  }
  node {
    input: "1651"
    output: "1652"
    op_type: "Sigmoid"
  }
  node {
    input: "1651"
    input: "1652"
    output: "1653"
    op_type: "Mul"
  }
  node {
    input: "1653"
    output: "1654"
    op_type: "GlobalAveragePool"
  }
  node {
    input: "1654"
    input: "_blocks.24._se_reduce.weight"
    input: "_blocks.24._se_reduce.bias"
    output: "1655"
    op_type: "Conv"
    attribute {
      name: "dilations"
      ints: 1
      ints: 1
      type: INTS
    }
    attribute {
      name: "group"
      i: 1
      type: INT
    }
    attribute {
      name: "kernel_shape"
      ints: 1
      ints: 1
      type: INTS
    }
    attribute {
      name: "pads"
      ints: 0
      ints: 0
      ints: 0
      ints: 0
      type: INTS
    }
    attribute {
      name: "strides"
      ints: 1
      ints: 1
      type: INTS
    }
  }
  node {
    input: "1655"
    output: "1656"
    op_type: "Sigmoid"
  }
  node {
    input: "1655"
    input: "1656"
    output: "1657"
    op_type: "Mul"
  }
  node {
    input: "1657"
    input: "_blocks.24._se_expand.weight"
    input: "_blocks.24._se_expand.bias"
    output: "1658"
    op_type: "Conv"
    attribute {
      name: "dilations"
      ints: 1
      ints: 1
      type: INTS
    }
    attribute {
      name: "group"
      i: 1
      type: INT
    }
    attribute {
      name: "kernel_shape"
      ints: 1
      ints: 1
      type: INTS
    }
    attribute {
      name: "pads"
      ints: 0
      ints: 0
      ints: 0
      ints: 0
      type: INTS
    }
    attribute {
      name: "strides"
      ints: 1
      ints: 1
      type: INTS
    }
  }
  node {
    input: "1658"
    output: "1659"
    op_type: "Sigmoid"
  }
  node {
    input: "1659"
    input: "1653"
    output: "1660"
    op_type: "Mul"
  }
  node {
    input: "1660"
    input: "_blocks.24._project_conv.weight"
    output: "1661"
    op_type: "Conv"
    attribute {
      name: "dilations"
      ints: 1
      ints: 1
      type: INTS
    }
    attribute {
      name: "group"
      i: 1
      type: INT
    }
    attribute {
      name: "kernel_shape"
      ints: 1
      ints: 1
      type: INTS
    }
    attribute {
      name: "pads"
      ints: 0
      ints: 0
      ints: 0
      ints: 0
      type: INTS
    }
    attribute {
      name: "strides"
      ints: 1
      ints: 1
      type: INTS
    }
  }
  node {
    input: "1661"
    input: "_blocks.24._bn2.weight"
    input: "_blocks.24._bn2.bias"
    input: "_blocks.24._bn2.running_mean"
    input: "_blocks.24._bn2.running_var"
    output: "1662"
    op_type: "BatchNormalization"
    attribute {
      name: "epsilon"
      f: 0.0010000000474974513
      type: FLOAT
    }
    attribute {
      name: "momentum"
      f: 0.9900000095367432
      type: FLOAT
    }
  }
  node {
    input: "1662"
    input: "1644"
    output: "1663"
    op_type: "Add"
  }
  node {
    input: "1663"
    input: "_blocks.25._expand_conv.weight"
    output: "1664"
    op_type: "Conv"
    attribute {
      name: "dilations"
      ints: 1
      ints: 1
      type: INTS
    }
    attribute {
      name: "group"
      i: 1
      type: INT
    }
    attribute {
      name: "kernel_shape"
      ints: 1
      ints: 1
      type: INTS
    }
    attribute {
      name: "pads"
      ints: 0
      ints: 0
      ints: 0
      ints: 0
      type: INTS
    }
    attribute {
      name: "strides"
      ints: 1
      ints: 1
      type: INTS
    }
  }
  node {
    input: "1664"
    input: "_blocks.25._bn0.weight"
    input: "_blocks.25._bn0.bias"
    input: "_blocks.25._bn0.running_mean"
    input: "_blocks.25._bn0.running_var"
    output: "1665"
    op_type: "BatchNormalization"
    attribute {
      name: "epsilon"
      f: 0.0010000000474974513
      type: FLOAT
    }
    attribute {
      name: "momentum"
      f: 0.9900000095367432
      type: FLOAT
    }
  }
  node {
    input: "1665"
    output: "1666"
    op_type: "Sigmoid"
  }
  node {
    input: "1665"
    input: "1666"
    output: "1667"
    op_type: "Mul"
  }
  node {
    input: "1667"
    output: "1668"
    op_type: "Pad"
    attribute {
      name: "mode"
      s: "constant"
      type: STRING
    }
    attribute {
      name: "pads"
      ints: 0
      ints: 0
      ints: 1
      ints: 1
      ints: 0
      ints: 0
      ints: 1
      ints: 1
      type: INTS
    }
    attribute {
      name: "value"
      f: 0.0
      type: FLOAT
    }
  }
  node {
    input: "1668"
    input: "_blocks.25._depthwise_conv.weight"
    output: "1669"
    op_type: "Conv"
    attribute {
      name: "dilations"
      ints: 1
      ints: 1
      type: INTS
    }
    attribute {
      name: "group"
      i: 960
      type: INT
    }
    attribute {
      name: "kernel_shape"
      ints: 3
      ints: 3
      type: INTS
    }
    attribute {
      name: "pads"
      ints: 0
      ints: 0
      ints: 0
      ints: 0
      type: INTS
    }
    attribute {
      name: "strides"
      ints: 1
      ints: 1
      type: INTS
    }
  }
  node {
    input: "1669"
    input: "_blocks.25._bn1.weight"
    input: "_blocks.25._bn1.bias"
    input: "_blocks.25._bn1.running_mean"
    input: "_blocks.25._bn1.running_var"
    output: "1670"
    op_type: "BatchNormalization"
    attribute {
      name: "epsilon"
      f: 0.0010000000474974513
      type: FLOAT
    }
    attribute {
      name: "momentum"
      f: 0.9900000095367432
      type: FLOAT
    }
  }
  node {
    input: "1670"
    output: "1671"
    op_type: "Sigmoid"
  }
  node {
    input: "1670"
    input: "1671"
    output: "1672"
    op_type: "Mul"
  }
  node {
    input: "1672"
    output: "1673"
    op_type: "GlobalAveragePool"
  }
  node {
    input: "1673"
    input: "_blocks.25._se_reduce.weight"
    input: "_blocks.25._se_reduce.bias"
    output: "1674"
    op_type: "Conv"
    attribute {
      name: "dilations"
      ints: 1
      ints: 1
      type: INTS
    }
    attribute {
      name: "group"
      i: 1
      type: INT
    }
    attribute {
      name: "kernel_shape"
      ints: 1
      ints: 1
      type: INTS
    }
    attribute {
      name: "pads"
      ints: 0
      ints: 0
      ints: 0
      ints: 0
      type: INTS
    }
    attribute {
      name: "strides"
      ints: 1
      ints: 1
      type: INTS
    }
  }
  node {
    input: "1674"
    output: "1675"
    op_type: "Sigmoid"
  }
  node {
    input: "1674"
    input: "1675"
    output: "1676"
    op_type: "Mul"
  }
  node {
    input: "1676"
    input: "_blocks.25._se_expand.weight"
    input: "_blocks.25._se_expand.bias"
    output: "1677"
    op_type: "Conv"
    attribute {
      name: "dilations"
      ints: 1
      ints: 1
      type: INTS
    }
    attribute {
      name: "group"
      i: 1
      type: INT
    }
    attribute {
      name: "kernel_shape"
      ints: 1
      ints: 1
      type: INTS
    }
    attribute {
      name: "pads"
      ints: 0
      ints: 0
      ints: 0
      ints: 0
      type: INTS
    }
    attribute {
      name: "strides"
      ints: 1
      ints: 1
      type: INTS
    }
  }
  node {
    input: "1677"
    output: "1678"
    op_type: "Sigmoid"
  }
  node {
    input: "1678"
    input: "1672"
    output: "1679"
    op_type: "Mul"
  }
  node {
    input: "1679"
    input: "_blocks.25._project_conv.weight"
    output: "1680"
    op_type: "Conv"
    attribute {
      name: "dilations"
      ints: 1
      ints: 1
      type: INTS
    }
    attribute {
      name: "group"
      i: 1
      type: INT
    }
    attribute {
      name: "kernel_shape"
      ints: 1
      ints: 1
      type: INTS
    }
    attribute {
      name: "pads"
      ints: 0
      ints: 0
      ints: 0
      ints: 0
      type: INTS
    }
    attribute {
      name: "strides"
      ints: 1
      ints: 1
      type: INTS
    }
  }
  node {
    input: "1680"
    input: "_blocks.25._bn2.weight"
    input: "_blocks.25._bn2.bias"
    input: "_blocks.25._bn2.running_mean"
    input: "_blocks.25._bn2.running_var"
    output: "1681"
    op_type: "BatchNormalization"
    attribute {
      name: "epsilon"
      f: 0.0010000000474974513
      type: FLOAT
    }
    attribute {
      name: "momentum"
      f: 0.9900000095367432
      type: FLOAT
    }
  }
  node {
    input: "1681"
    input: "1663"
    output: "1682"
    op_type: "Add"
  }
  node {
    input: "1682"
    input: "_blocks.26._expand_conv.weight"
    output: "1683"
    op_type: "Conv"
    attribute {
      name: "dilations"
      ints: 1
      ints: 1
      type: INTS
    }
    attribute {
      name: "group"
      i: 1
      type: INT
    }
    attribute {
      name: "kernel_shape"
      ints: 1
      ints: 1
      type: INTS
    }
    attribute {
      name: "pads"
      ints: 0
      ints: 0
      ints: 0
      ints: 0
      type: INTS
    }
    attribute {
      name: "strides"
      ints: 1
      ints: 1
      type: INTS
    }
  }
  node {
    input: "1683"
    input: "_blocks.26._bn0.weight"
    input: "_blocks.26._bn0.bias"
    input: "_blocks.26._bn0.running_mean"
    input: "_blocks.26._bn0.running_var"
    output: "1684"
    op_type: "BatchNormalization"
    attribute {
      name: "epsilon"
      f: 0.0010000000474974513
      type: FLOAT
    }
    attribute {
      name: "momentum"
      f: 0.9900000095367432
      type: FLOAT
    }
  }
  node {
    input: "1684"
    output: "1685"
    op_type: "Sigmoid"
  }
  node {
    input: "1684"
    input: "1685"
    output: "1686"
    op_type: "Mul"
  }
  node {
    input: "1686"
    output: "1687"
    op_type: "Pad"
    attribute {
      name: "mode"
      s: "constant"
      type: STRING
    }
    attribute {
      name: "pads"
      ints: 0
      ints: 0
      ints: 1
      ints: 1
      ints: 0
      ints: 0
      ints: 1
      ints: 1
      type: INTS
    }
    attribute {
      name: "value"
      f: 0.0
      type: FLOAT
    }
  }
  node {
    input: "1687"
    input: "_blocks.26._depthwise_conv.weight"
    output: "1688"
    op_type: "Conv"
    attribute {
      name: "dilations"
      ints: 1
      ints: 1
      type: INTS
    }
    attribute {
      name: "group"
      i: 960
      type: INT
    }
    attribute {
      name: "kernel_shape"
      ints: 3
      ints: 3
      type: INTS
    }
    attribute {
      name: "pads"
      ints: 0
      ints: 0
      ints: 0
      ints: 0
      type: INTS
    }
    attribute {
      name: "strides"
      ints: 1
      ints: 1
      type: INTS
    }
  }
  node {
    input: "1688"
    input: "_blocks.26._bn1.weight"
    input: "_blocks.26._bn1.bias"
    input: "_blocks.26._bn1.running_mean"
    input: "_blocks.26._bn1.running_var"
    output: "1689"
    op_type: "BatchNormalization"
    attribute {
      name: "epsilon"
      f: 0.0010000000474974513
      type: FLOAT
    }
    attribute {
      name: "momentum"
      f: 0.9900000095367432
      type: FLOAT
    }
  }
  node {
    input: "1689"
    output: "1690"
    op_type: "Sigmoid"
  }
  node {
    input: "1689"
    input: "1690"
    output: "1691"
    op_type: "Mul"
  }
  node {
    input: "1691"
    output: "1692"
    op_type: "GlobalAveragePool"
  }
  node {
    input: "1692"
    input: "_blocks.26._se_reduce.weight"
    input: "_blocks.26._se_reduce.bias"
    output: "1693"
    op_type: "Conv"
    attribute {
      name: "dilations"
      ints: 1
      ints: 1
      type: INTS
    }
    attribute {
      name: "group"
      i: 1
      type: INT
    }
    attribute {
      name: "kernel_shape"
      ints: 1
      ints: 1
      type: INTS
    }
    attribute {
      name: "pads"
      ints: 0
      ints: 0
      ints: 0
      ints: 0
      type: INTS
    }
    attribute {
      name: "strides"
      ints: 1
      ints: 1
      type: INTS
    }
  }
  node {
    input: "1693"
    output: "1694"
    op_type: "Sigmoid"
  }
  node {
    input: "1693"
    input: "1694"
    output: "1695"
    op_type: "Mul"
  }
  node {
    input: "1695"
    input: "_blocks.26._se_expand.weight"
    input: "_blocks.26._se_expand.bias"
    output: "1696"
    op_type: "Conv"
    attribute {
      name: "dilations"
      ints: 1
      ints: 1
      type: INTS
    }
    attribute {
      name: "group"
      i: 1
      type: INT
    }
    attribute {
      name: "kernel_shape"
      ints: 1
      ints: 1
      type: INTS
    }
    attribute {
      name: "pads"
      ints: 0
      ints: 0
      ints: 0
      ints: 0
      type: INTS
    }
    attribute {
      name: "strides"
      ints: 1
      ints: 1
      type: INTS
    }
  }
  node {
    input: "1696"
    output: "1697"
    op_type: "Sigmoid"
  }
  node {
    input: "1697"
    input: "1691"
    output: "1698"
    op_type: "Mul"
  }
  node {
    input: "1698"
    input: "_blocks.26._project_conv.weight"
    output: "1699"
    op_type: "Conv"
    attribute {
      name: "dilations"
      ints: 1
      ints: 1
      type: INTS
    }
    attribute {
      name: "group"
      i: 1
      type: INT
    }
    attribute {
      name: "kernel_shape"
      ints: 1
      ints: 1
      type: INTS
    }
    attribute {
      name: "pads"
      ints: 0
      ints: 0
      ints: 0
      ints: 0
      type: INTS
    }
    attribute {
      name: "strides"
      ints: 1
      ints: 1
      type: INTS
    }
  }
  node {
    input: "1699"
    input: "_blocks.26._bn2.weight"
    input: "_blocks.26._bn2.bias"
    input: "_blocks.26._bn2.running_mean"
    input: "_blocks.26._bn2.running_var"
    output: "1700"
    op_type: "BatchNormalization"
    attribute {
      name: "epsilon"
      f: 0.0010000000474974513
      type: FLOAT
    }
    attribute {
      name: "momentum"
      f: 0.9900000095367432
      type: FLOAT
    }
  }
  node {
    input: "1700"
    input: "1682"
    output: "1701"
    op_type: "Add"
  }
  node {
    input: "1701"
    input: "_blocks.27._expand_conv.weight"
    output: "1702"
    op_type: "Conv"
    attribute {
      name: "dilations"
      ints: 1
      ints: 1
      type: INTS
    }
    attribute {
      name: "group"
      i: 1
      type: INT
    }
    attribute {
      name: "kernel_shape"
      ints: 1
      ints: 1
      type: INTS
    }
    attribute {
      name: "pads"
      ints: 0
      ints: 0
      ints: 0
      ints: 0
      type: INTS
    }
    attribute {
      name: "strides"
      ints: 1
      ints: 1
      type: INTS
    }
  }
  node {
    input: "1702"
    input: "_blocks.27._bn0.weight"
    input: "_blocks.27._bn0.bias"
    input: "_blocks.27._bn0.running_mean"
    input: "_blocks.27._bn0.running_var"
    output: "1703"
    op_type: "BatchNormalization"
    attribute {
      name: "epsilon"
      f: 0.0010000000474974513
      type: FLOAT
    }
    attribute {
      name: "momentum"
      f: 0.9900000095367432
      type: FLOAT
    }
  }
  node {
    input: "1703"
    output: "1704"
    op_type: "Sigmoid"
  }
  node {
    input: "1703"
    input: "1704"
    output: "1705"
    op_type: "Mul"
  }
  node {
    input: "1705"
    output: "1706"
    op_type: "Pad"
    attribute {
      name: "mode"
      s: "constant"
      type: STRING
    }
    attribute {
      name: "pads"
      ints: 0
      ints: 0
      ints: 1
      ints: 1
      ints: 0
      ints: 0
      ints: 1
      ints: 1
      type: INTS
    }
    attribute {
      name: "value"
      f: 0.0
      type: FLOAT
    }
  }
  node {
    input: "1706"
    input: "_blocks.27._depthwise_conv.weight"
    output: "1707"
    op_type: "Conv"
    attribute {
      name: "dilations"
      ints: 1
      ints: 1
      type: INTS
    }
    attribute {
      name: "group"
      i: 960
      type: INT
    }
    attribute {
      name: "kernel_shape"
      ints: 3
      ints: 3
      type: INTS
    }
    attribute {
      name: "pads"
      ints: 0
      ints: 0
      ints: 0
      ints: 0
      type: INTS
    }
    attribute {
      name: "strides"
      ints: 1
      ints: 1
      type: INTS
    }
  }
  node {
    input: "1707"
    input: "_blocks.27._bn1.weight"
    input: "_blocks.27._bn1.bias"
    input: "_blocks.27._bn1.running_mean"
    input: "_blocks.27._bn1.running_var"
    output: "1708"
    op_type: "BatchNormalization"
    attribute {
      name: "epsilon"
      f: 0.0010000000474974513
      type: FLOAT
    }
    attribute {
      name: "momentum"
      f: 0.9900000095367432
      type: FLOAT
    }
  }
  node {
    input: "1708"
    output: "1709"
    op_type: "Sigmoid"
  }
  node {
    input: "1708"
    input: "1709"
    output: "1710"
    op_type: "Mul"
  }
  node {
    input: "1710"
    output: "1711"
    op_type: "GlobalAveragePool"
  }
  node {
    input: "1711"
    input: "_blocks.27._se_reduce.weight"
    input: "_blocks.27._se_reduce.bias"
    output: "1712"
    op_type: "Conv"
    attribute {
      name: "dilations"
      ints: 1
      ints: 1
      type: INTS
    }
    attribute {
      name: "group"
      i: 1
      type: INT
    }
    attribute {
      name: "kernel_shape"
      ints: 1
      ints: 1
      type: INTS
    }
    attribute {
      name: "pads"
      ints: 0
      ints: 0
      ints: 0
      ints: 0
      type: INTS
    }
    attribute {
      name: "strides"
      ints: 1
      ints: 1
      type: INTS
    }
  }
  node {
    input: "1712"
    output: "1713"
    op_type: "Sigmoid"
  }
  node {
    input: "1712"
    input: "1713"
    output: "1714"
    op_type: "Mul"
  }
  node {
    input: "1714"
    input: "_blocks.27._se_expand.weight"
    input: "_blocks.27._se_expand.bias"
    output: "1715"
    op_type: "Conv"
    attribute {
      name: "dilations"
      ints: 1
      ints: 1
      type: INTS
    }
    attribute {
      name: "group"
      i: 1
      type: INT
    }
    attribute {
      name: "kernel_shape"
      ints: 1
      ints: 1
      type: INTS
    }
    attribute {
      name: "pads"
      ints: 0
      ints: 0
      ints: 0
      ints: 0
      type: INTS
    }
    attribute {
      name: "strides"
      ints: 1
      ints: 1
      type: INTS
    }
  }
  node {
    input: "1715"
    output: "1716"
    op_type: "Sigmoid"
  }
  node {
    input: "1716"
    input: "1710"
    output: "1717"
    op_type: "Mul"
  }
  node {
    input: "1717"
    input: "_blocks.27._project_conv.weight"
    output: "1718"
    op_type: "Conv"
    attribute {
      name: "dilations"
      ints: 1
      ints: 1
      type: INTS
    }
    attribute {
      name: "group"
      i: 1
      type: INT
    }
    attribute {
      name: "kernel_shape"
      ints: 1
      ints: 1
      type: INTS
    }
    attribute {
      name: "pads"
      ints: 0
      ints: 0
      ints: 0
      ints: 0
      type: INTS
    }
    attribute {
      name: "strides"
      ints: 1
      ints: 1
      type: INTS
    }
  }
  node {
    input: "1718"
    input: "_blocks.27._bn2.weight"
    input: "_blocks.27._bn2.bias"
    input: "_blocks.27._bn2.running_mean"
    input: "_blocks.27._bn2.running_var"
    output: "1719"
    op_type: "BatchNormalization"
    attribute {
      name: "epsilon"
      f: 0.0010000000474974513
      type: FLOAT
    }
    attribute {
      name: "momentum"
      f: 0.9900000095367432
      type: FLOAT
    }
  }
  node {
    input: "1719"
    input: "1701"
    output: "1720"
    op_type: "Add"
  }
  node {
    input: "1720"
    input: "_blocks.28._expand_conv.weight"
    output: "1721"
    op_type: "Conv"
    attribute {
      name: "dilations"
      ints: 1
      ints: 1
      type: INTS
    }
    attribute {
      name: "group"
      i: 1
      type: INT
    }
    attribute {
      name: "kernel_shape"
      ints: 1
      ints: 1
      type: INTS
    }
    attribute {
      name: "pads"
      ints: 0
      ints: 0
      ints: 0
      ints: 0
      type: INTS
    }
    attribute {
      name: "strides"
      ints: 1
      ints: 1
      type: INTS
    }
  }
  node {
    input: "1721"
    input: "_blocks.28._bn0.weight"
    input: "_blocks.28._bn0.bias"
    input: "_blocks.28._bn0.running_mean"
    input: "_blocks.28._bn0.running_var"
    output: "1722"
    op_type: "BatchNormalization"
    attribute {
      name: "epsilon"
      f: 0.0010000000474974513
      type: FLOAT
    }
    attribute {
      name: "momentum"
      f: 0.9900000095367432
      type: FLOAT
    }
  }
  node {
    input: "1722"
    output: "1723"
    op_type: "Sigmoid"
  }
  node {
    input: "1722"
    input: "1723"
    output: "1724"
    op_type: "Mul"
  }
  node {
    input: "1724"
    output: "1725"
    op_type: "Pad"
    attribute {
      name: "mode"
      s: "constant"
      type: STRING
    }
    attribute {
      name: "pads"
      ints: 0
      ints: 0
      ints: 2
      ints: 2
      ints: 0
      ints: 0
      ints: 2
      ints: 2
      type: INTS
    }
    attribute {
      name: "value"
      f: 0.0
      type: FLOAT
    }
  }
  node {
    input: "1725"
    input: "_blocks.28._depthwise_conv.weight"
    output: "1726"
    op_type: "Conv"
    attribute {
      name: "dilations"
      ints: 1
      ints: 1
      type: INTS
    }
    attribute {
      name: "group"
      i: 960
      type: INT
    }
…
      tensor_type {
        elem_type: 1
        shape {
          dim {
            dim_value: 96
          }
          dim {
            dim_value: 2304
          }
          dim {
            dim_value: 1
          }
          dim {
            dim_value: 1
          }
        }
      }
    }
  }
  input {
    name: "_blocks.45._se_reduce.bias"
    type {
      tensor_type {
        elem_type: 1
        shape {
          dim {
            dim_value: 96
          }
        }
      }
    }
  }
  input {
    name: "_blocks.45._se_expand.weight"
    type {
      tensor_type {
        elem_type: 1
        shape {
          dim {
            dim_value: 2304
          }
          dim {
            dim_value: 96
          }
          dim {
            dim_value: 1
          }
          dim {
            dim_value: 1
          }
        }
      }
    }
  }
  input {
    name: "_blocks.45._se_expand.bias"
    type {
      tensor_type {
        elem_type: 1
        shape {
          dim {
            dim_value: 2304
          }
        }
      }
    }
  }
  input {
    name: "_blocks.45._project_conv.weight"
    type {
      tensor_type {
        elem_type: 1
        shape {
          dim {
            dim_value: 384
          }
          dim {
            dim_value: 2304
          }
          dim {
            dim_value: 1
          }
          dim {
            dim_value: 1
          }
        }
      }
    }
  }
  input {
    name: "_blocks.45._bn2.weight"
    type {
      tensor_type {
        elem_type: 1
        shape {
          dim {
            dim_value: 384
          }
        }
      }
    }
  }
  input {
    name: "_blocks.45._bn2.bias"
    type {
      tensor_type {
        elem_type: 1
        shape {
          dim {
            dim_value: 384
          }
        }
      }
    }
  }
  input {
    name: "_blocks.45._bn2.running_mean"
    type {
      tensor_type {
        elem_type: 1
        shape {
          dim {
            dim_value: 384
          }
        }
      }
    }
  }
  input {
    name: "_blocks.45._bn2.running_var"
    type {
      tensor_type {
        elem_type: 1
        shape {
          dim {
            dim_value: 384
          }
        }
      }
    }
  }
  input {
    name: "_blocks.45._bn2.num_batches_tracked"
    type {
      tensor_type {
        elem_type: 7
        shape {
        }
      }
    }
  }
  input {
    name: "_blocks.46._expand_conv.weight"
    type {
      tensor_type {
        elem_type: 1
        shape {
          dim {
            dim_value: 2304
          }
          dim {
            dim_value: 384
          }
          dim {
            dim_value: 1
          }
          dim {
            dim_value: 1
          }
        }
      }
    }
  }
  input {
    name: "_blocks.46._bn0.weight"
    type {
      tensor_type {
        elem_type: 1
        shape {
          dim {
            dim_value: 2304
          }
        }
      }
    }
  }
  input {
    name: "_blocks.46._bn0.bias"
    type {
      tensor_type {
        elem_type: 1
        shape {
          dim {
            dim_value: 2304
          }
        }
      }
    }
  }
  input {
    name: "_blocks.46._bn0.running_mean"
    type {
      tensor_type {
        elem_type: 1
        shape {
          dim {
            dim_value: 2304
          }
        }
      }
    }
  }
  input {
    name: "_blocks.46._bn0.running_var"
    type {
      tensor_type {
        elem_type: 1
        shape {
          dim {
            dim_value: 2304
          }
        }
      }
    }
  }
  input {
    name: "_blocks.46._bn0.num_batches_tracked"
    type {
      tensor_type {
        elem_type: 7
        shape {
        }
      }
    }
  }
  input {
    name: "_blocks.46._depthwise_conv.weight"
    type {
      tensor_type {
        elem_type: 1
        shape {
          dim {
            dim_value: 2304
          }
          dim {
            dim_value: 1
          }
          dim {
            dim_value: 5
          }
          dim {
            dim_value: 5
          }
        }
      }
    }
  }
  input {
    name: "_blocks.46._bn1.weight"
    type {
      tensor_type {
        elem_type: 1
        shape {
          dim {
            dim_value: 2304
          }
        }
      }
    }
  }
  input {
    name: "_blocks.46._bn1.bias"
    type {
      tensor_type {
        elem_type: 1
        shape {
          dim {
            dim_value: 2304
          }
        }
      }
    }
  }
  input {
    name: "_blocks.46._bn1.running_mean"
    type {
      tensor_type {
        elem_type: 1
        shape {
          dim {
            dim_value: 2304
          }
        }
      }
    }
  }
  input {
    name: "_blocks.46._bn1.running_var"
    type {
      tensor_type {
        elem_type: 1
        shape {
          dim {
            dim_value: 2304
          }
        }
      }
    }
  }
  input {
    name: "_blocks.46._bn1.num_batches_tracked"
    type {
      tensor_type {
        elem_type: 7
        shape {
        }
      }
    }
  }
  input {
    name: "_blocks.46._se_reduce.weight"
    type {
      tensor_type {
        elem_type: 1
        shape {
          dim {
            dim_value: 96
          }
          dim {
            dim_value: 2304
          }
          dim {
            dim_value: 1
          }
          dim {
            dim_value: 1
          }
        }
      }
    }
  }
  input {
    name: "_blocks.46._se_reduce.bias"
    type {
      tensor_type {
        elem_type: 1
        shape {
          dim {
            dim_value: 96
          }
        }
      }
    }
  }
  input {
    name: "_blocks.46._se_expand.weight"
    type {
      tensor_type {
        elem_type: 1
        shape {
          dim {
            dim_value: 2304
          }
          dim {
            dim_value: 96
          }
          dim {
            dim_value: 1
          }
          dim {
            dim_value: 1
          }
        }
      }
    }
  }
  input {
    name: "_blocks.46._se_expand.bias"
    type {
      tensor_type {
        elem_type: 1
        shape {
          dim {
            dim_value: 2304
          }
        }
      }
    }
  }
  input {
    name: "_blocks.46._project_conv.weight"
    type {
      tensor_type {
        elem_type: 1
        shape {
          dim {
            dim_value: 384
          }
          dim {
            dim_value: 2304
          }
          dim {
            dim_value: 1
          }
          dim {
            dim_value: 1
          }
        }
      }
    }
  }
  input {
    name: "_blocks.46._bn2.weight"
    type {
      tensor_type {
        elem_type: 1
        shape {
          dim {
            dim_value: 384
          }
        }
      }
    }
  }
  input {
    name: "_blocks.46._bn2.bias"
    type {
      tensor_type {
        elem_type: 1
        shape {
          dim {
            dim_value: 384
          }
        }
      }
    }
  }
  input {
    name: "_blocks.46._bn2.running_mean"
    type {
      tensor_type {
        elem_type: 1
        shape {
          dim {
            dim_value: 384
          }
        }
      }
    }
  }
  input {
    name: "_blocks.46._bn2.running_var"
    type {
      tensor_type {
        elem_type: 1
        shape {
          dim {
            dim_value: 384
          }
        }
      }
    }
  }
  input {
    name: "_blocks.46._bn2.num_batches_tracked"
    type {
      tensor_type {
        elem_type: 7
        shape {
        }
      }
    }
  }
  input {
    name: "_blocks.47._expand_conv.weight"
    type {
      tensor_type {
        elem_type: 1
        shape {
          dim {
            dim_value: 2304
          }
          dim {
            dim_value: 384
          }
          dim {
            dim_value: 1
          }
          dim {
            dim_value: 1
          }
        }
      }
    }
  }
  input {
    name: "_blocks.47._bn0.weight"
    type {
      tensor_type {
        elem_type: 1
        shape {
          dim {
            dim_value: 2304
          }
        }
      }
    }
  }
  input {
    name: "_blocks.47._bn0.bias"
    type {
      tensor_type {
        elem_type: 1
        shape {
          dim {
            dim_value: 2304
          }
        }
      }
    }
  }
  input {
    name: "_blocks.47._bn0.running_mean"
    type {
      tensor_type {
        elem_type: 1
        shape {
          dim {
            dim_value: 2304
          }
        }
      }
    }
  }
  input {
    name: "_blocks.47._bn0.running_var"
    type {
      tensor_type {
        elem_type: 1
        shape {
          dim {
            dim_value: 2304
          }
        }
      }
    }
  }
  input {
    name: "_blocks.47._bn0.num_batches_tracked"
    type {
      tensor_type {
        elem_type: 7
        shape {
        }
      }
    }
  }
  input {
    name: "_blocks.47._depthwise_conv.weight"
    type {
      tensor_type {
        elem_type: 1
        shape {
          dim {
            dim_value: 2304
          }
          dim {
            dim_value: 1
          }
          dim {
            dim_value: 5
          }
          dim {
            dim_value: 5
          }
        }
      }
    }
  }
  input {
    name: "_blocks.47._bn1.weight"
    type {
      tensor_type {
        elem_type: 1
        shape {
          dim {
            dim_value: 2304
          }
        }
      }
    }
  }
  input {
    name: "_blocks.47._bn1.bias"
    type {
      tensor_type {
        elem_type: 1
        shape {
          dim {
            dim_value: 2304
          }
        }
      }
    }
  }
  input {
    name: "_blocks.47._bn1.running_mean"
    type {
      tensor_type {
        elem_type: 1
        shape {
          dim {
            dim_value: 2304
          }
        }
      }
    }
  }
  input {
    name: "_blocks.47._bn1.running_var"
    type {
      tensor_type {
        elem_type: 1
        shape {
          dim {
            dim_value: 2304
          }
        }
      }
    }
  }
  input {
    name: "_blocks.47._bn1.num_batches_tracked"
    type {
      tensor_type {
        elem_type: 7
        shape {
        }
      }
    }
  }
  input {
    name: "_blocks.47._se_reduce.weight"
    type {
      tensor_type {
        elem_type: 1
        shape {
          dim {
            dim_value: 96
          }
          dim {
            dim_value: 2304
          }
          dim {
            dim_value: 1
          }
          dim {
            dim_value: 1
          }
        }
      }
    }
  }
  input {
    name: "_blocks.47._se_reduce.bias"
    type {
      tensor_type {
        elem_type: 1
        shape {
          dim {
            dim_value: 96
          }
        }
      }
    }
  }
  input {
    name: "_blocks.47._se_expand.weight"
    type {
      tensor_type {
        elem_type: 1
        shape {
          dim {
            dim_value: 2304
          }
          dim {
            dim_value: 96
          }
          dim {
            dim_value: 1
          }
          dim {
            dim_value: 1
          }
        }
      }
    }
  }
  input {
    name: "_blocks.47._se_expand.bias"
    type {
      tensor_type {
        elem_type: 1
        shape {
          dim {
            dim_value: 2304
          }
        }
      }
    }
  }
  input {
    name: "_blocks.47._project_conv.weight"
    type {
      tensor_type {
        elem_type: 1
        shape {
          dim {
            dim_value: 384
          }
          dim {
            dim_value: 2304
          }
          dim {
            dim_value: 1
          }
          dim {
            dim_value: 1
          }
        }
      }
    }
  }
  input {
    name: "_blocks.47._bn2.weight"
    type {
      tensor_type {
        elem_type: 1
        shape {
          dim {
            dim_value: 384
          }
        }
      }
    }
  }
  input {
    name: "_blocks.47._bn2.bias"
    type {
      tensor_type {
        elem_type: 1
        shape {
          dim {
            dim_value: 384
          }
        }
      }
    }
  }
  input {
    name: "_blocks.47._bn2.running_mean"
    type {
      tensor_type {
        elem_type: 1
        shape {
          dim {
            dim_value: 384
          }
        }
      }
    }
  }
  input {
    name: "_blocks.47._bn2.running_var"
    type {
      tensor_type {
        elem_type: 1
        shape {
          dim {
            dim_value: 384
          }
        }
      }
    }
  }
  input {
    name: "_blocks.47._bn2.num_batches_tracked"
    type {
      tensor_type {
        elem_type: 7
        shape {
        }
      }
    }
  }
  input {
    name: "_blocks.48._expand_conv.weight"
    type {
      tensor_type {
        elem_type: 1
        shape {
          dim {
            dim_value: 2304
          }
          dim {
            dim_value: 384
          }
          dim {
            dim_value: 1
          }
          dim {
            dim_value: 1
          }
        }
      }
    }
  }
  input {
    name: "_blocks.48._bn0.weight"
    type {
      tensor_type {
        elem_type: 1
        shape {
          dim {
            dim_value: 2304
          }
        }
      }
    }
  }
  input {
    name: "_blocks.48._bn0.bias"
    type {
      tensor_type {
        elem_type: 1
        shape {
          dim {
            dim_value: 2304
          }
        }
      }
    }
  }
  input {
    name: "_blocks.48._bn0.running_mean"
    type {
      tensor_type {
        elem_type: 1
        shape {
          dim {
            dim_value: 2304
          }
        }
      }
    }
  }
  input {
    name: "_blocks.48._bn0.running_var"
    type {
      tensor_type {
        elem_type: 1
        shape {
          dim {
            dim_value: 2304
          }
        }
      }
    }
  }
  input {
    name: "_blocks.48._bn0.num_batches_tracked"
    type {
      tensor_type {
        elem_type: 7
        shape {
        }
      }
    }
  }
  input {
    name: "_blocks.48._depthwise_conv.weight"
    type {
      tensor_type {
        elem_type: 1
        shape {
          dim {
            dim_value: 2304
          }
          dim {
            dim_value: 1
          }
          dim {
            dim_value: 5
          }
          dim {
            dim_value: 5
          }
        }
      }
    }
  }
  input {
    name: "_blocks.48._bn1.weight"
    type {
      tensor_type {
        elem_type: 1
        shape {
          dim {
            dim_value: 2304
          }
        }
      }
    }
  }
  input {
    name: "_blocks.48._bn1.bias"
    type {
      tensor_type {
        elem_type: 1
        shape {
          dim {
            dim_value: 2304
          }
        }
      }
    }
  }
  input {
    name: "_blocks.48._bn1.running_mean"
    type {
      tensor_type {
        elem_type: 1
        shape {
          dim {
            dim_value: 2304
          }
        }
      }
    }
  }
  input {
    name: "_blocks.48._bn1.running_var"
    type {
      tensor_type {
        elem_type: 1
        shape {
          dim {
            dim_value: 2304
          }
        }
      }
    }
  }
  input {
    name: "_blocks.48._bn1.num_batches_tracked"
    type {
      tensor_type {
        elem_type: 7
        shape {
        }
      }
    }
  }
  input {
    name: "_blocks.48._se_reduce.weight"
    type {
      tensor_type {
        elem_type: 1
        shape {
          dim {
            dim_value: 96
          }
          dim {
            dim_value: 2304
          }
          dim {
            dim_value: 1
          }
          dim {
            dim_value: 1
          }
        }
      }
    }
  }
  input {
    name: "_blocks.48._se_reduce.bias"
    type {
      tensor_type {
        elem_type: 1
        shape {
          dim {
            dim_value: 96
          }
        }
      }
    }
  }
  input {
    name: "_blocks.48._se_expand.weight"
    type {
      tensor_type {
        elem_type: 1
        shape {
          dim {
            dim_value: 2304
          }
          dim {
            dim_value: 96
          }
          dim {
            dim_value: 1
          }
          dim {
            dim_value: 1
          }
        }
      }
    }
  }
  input {
    name: "_blocks.48._se_expand.bias"
    type {
      tensor_type {
        elem_type: 1
        shape {
          dim {
            dim_value: 2304
          }
        }
      }
    }
  }
  input {
    name: "_blocks.48._project_conv.weight"
    type {
      tensor_type {
        elem_type: 1
        shape {
          dim {
            dim_value: 384
          }
          dim {
            dim_value: 2304
          }
          dim {
            dim_value: 1
          }
          dim {
            dim_value: 1
          }
        }
      }
    }
  }
  input {
    name: "_blocks.48._bn2.weight"
    type {
      tensor_type {
        elem_type: 1
        shape {
          dim {
            dim_value: 384
          }
        }
      }
    }
  }
  input {
    name: "_blocks.48._bn2.bias"
    type {
      tensor_type {
        elem_type: 1
        shape {
          dim {
            dim_value: 384
          }
        }
      }
    }
  }
  input {
    name: "_blocks.48._bn2.running_mean"
    type {
      tensor_type {
        elem_type: 1
        shape {
          dim {
            dim_value: 384
          }
        }
      }
    }
  }
  input {
    name: "_blocks.48._bn2.running_var"
    type {
      tensor_type {
        elem_type: 1
        shape {
          dim {
            dim_value: 384
          }
        }
      }
    }
  }
  input {
    name: "_blocks.48._bn2.num_batches_tracked"
    type {
      tensor_type {
        elem_type: 7
        shape {
        }
      }
    }
  }
  input {
    name: "_blocks.49._expand_conv.weight"
    type {
      tensor_type {
        elem_type: 1
        shape {
          dim {
            dim_value: 2304
          }
          dim {
            dim_value: 384
          }
          dim {
            dim_value: 1
          }
          dim {
            dim_value: 1
          }
        }
      }
    }
  }
  input {
    name: "_blocks.49._bn0.weight"
    type {
      tensor_type {
        elem_type: 1
        shape {
          dim {
            dim_value: 2304
          }
        }
      }
    }
  }
  input {
    name: "_blocks.49._bn0.bias"
    type {
      tensor_type {
        elem_type: 1
        shape {
          dim {
            dim_value: 2304
          }
        }
      }
    }
  }
  input {
    name: "_blocks.49._bn0.running_mean"
    type {
      tensor_type {
        elem_type: 1
        shape {
          dim {
            dim_value: 2304
          }
        }
      }
    }
  }
  input {
    name: "_blocks.49._bn0.running_var"
    type {
      tensor_type {
        elem_type: 1
        shape {
          dim {
            dim_value: 2304
          }
        }
      }
    }
  }
  input {
    name: "_blocks.49._bn0.num_batches_tracked"
    type {
      tensor_type {
        elem_type: 7
        shape {
        }
      }
    }
  }
  input {
    name: "_blocks.49._depthwise_conv.weight"
    type {
      tensor_type {
        elem_type: 1
        shape {
          dim {
            dim_value: 2304
          }
          dim {
            dim_value: 1
          }
          dim {
            dim_value: 5
          }
          dim {
            dim_value: 5
          }
        }
      }
    }
  }
  input {
    name: "_blocks.49._bn1.weight"
    type {
      tensor_type {
        elem_type: 1
        shape {
          dim {
            dim_value: 2304
          }
        }
      }
    }
  }
  input {
    name: "_blocks.49._bn1.bias"
    type {
      tensor_type {
        elem_type: 1
        shape {
          dim {
            dim_value: 2304
          }
        }
      }
    }
  }
  input {
    name: "_blocks.49._bn1.running_mean"
    type {
      tensor_type {
        elem_type: 1
        shape {
          dim {
            dim_value: 2304
          }
        }
      }
    }
  }
  input {
    name: "_blocks.49._bn1.running_var"
    type {
      tensor_type {
        elem_type: 1
        shape {
          dim {
            dim_value: 2304
          }
        }
      }
    }
  }
  input {
    name: "_blocks.49._bn1.num_batches_tracked"
    type {
      tensor_type {
        elem_type: 7
        shape {
        }
      }
    }
  }
  input {
    name: "_blocks.49._se_reduce.weight"
    type {
      tensor_type {
        elem_type: 1
        shape {
          dim {
            dim_value: 96
          }
          dim {
            dim_value: 2304
          }
          dim {
            dim_value: 1
          }
          dim {
            dim_value: 1
          }
        }
      }
    }
  }
  input {
    name: "_blocks.49._se_reduce.bias"
    type {
      tensor_type {
        elem_type: 1
        shape {
          dim {
            dim_value: 96
          }
        }
      }
    }
  }
  input {
    name: "_blocks.49._se_expand.weight"
    type {
      tensor_type {
        elem_type: 1
        shape {
          dim {
            dim_value: 2304
          }
          dim {
            dim_value: 96
          }
          dim {
            dim_value: 1
          }
          dim {
            dim_value: 1
          }
        }
      }
    }
  }
  input {
    name: "_blocks.49._se_expand.bias"
    type {
      tensor_type {
        elem_type: 1
        shape {
          dim {
            dim_value: 2304
          }
        }
      }
    }
  }
  input {
    name: "_blocks.49._project_conv.weight"
    type {
      tensor_type {
        elem_type: 1
        shape {
          dim {
            dim_value: 384
          }
          dim {
            dim_value: 2304
          }
          dim {
            dim_value: 1
          }
          dim {
            dim_value: 1
          }
        }
      }
    }
  }
  input {
    name: "_blocks.49._bn2.weight"
    type {
      tensor_type {
        elem_type: 1
        shape {
          dim {
            dim_value: 384
          }
        }
      }
    }
  }
  input {
    name: "_blocks.49._bn2.bias"
    type {
      tensor_type {
        elem_type: 1
        shape {
          dim {
            dim_value: 384
          }
        }
      }
    }
  }
  input {
    name: "_blocks.49._bn2.running_mean"
    type {
      tensor_type {
        elem_type: 1
        shape {
          dim {
            dim_value: 384
          }
        }
      }
    }
  }
  input {
    name: "_blocks.49._bn2.running_var"
    type {
      tensor_type {
        elem_type: 1
        shape {
          dim {
            dim_value: 384
          }
        }
      }
    }
  }
  input {
    name: "_blocks.49._bn2.num_batches_tracked"
    type {
      tensor_type {
        elem_type: 7
        shape {
        }
      }
    }
  }
  input {
    name: "_blocks.50._expand_conv.weight"
    type {
      tensor_type {
        elem_type: 1
        shape {
          dim {
            dim_value: 2304
          }
          dim {
            dim_value: 384
          }
          dim {
            dim_value: 1
          }
          dim {
            dim_value: 1
          }
        }
      }
    }
  }
  input {
    name: "_blocks.50._bn0.weight"
    type {
      tensor_type {
        elem_type: 1
        shape {
          dim {
            dim_value: 2304
          }
        }
      }
    }
  }
  input {
    name: "_blocks.50._bn0.bias"
    type {
      tensor_type {
        elem_type: 1
        shape {
          dim {
            dim_value: 2304
          }
        }
      }
    }
  }
  input {
    name: "_blocks.50._bn0.running_mean"
    type {
      tensor_type {
        elem_type: 1
        shape {
          dim {
            dim_value: 2304
          }
        }
      }
    }
  }
  input {
    name: "_blocks.50._bn0.running_var"
    type {
      tensor_type {
        elem_type: 1
        shape {
          dim {
            dim_value: 2304
          }
        }
      }
    }
  }
  input {
    name: "_blocks.50._bn0.num_batches_tracked"
    type {
      tensor_type {
        elem_type: 7
        shape {
        }
      }
    }
  }
  input {
    name: "_blocks.50._depthwise_conv.weight"
    type {
      tensor_type {
        elem_type: 1
        shape {
          dim {
            dim_value: 2304
          }
          dim {
            dim_value: 1
          }
          dim {
            dim_value: 5
          }
          dim {
            dim_value: 5
          }
        }
      }
    }
  }
  input {
    name: "_blocks.50._bn1.weight"
    type {
      tensor_type {
        elem_type: 1
        shape {
          dim {
            dim_value: 2304
          }
        }
      }
    }
  }
  input {
    name: "_blocks.50._bn1.bias"
    type {
      tensor_type {
        elem_type: 1
        shape {
          dim {
            dim_value: 2304
          }
        }
      }
    }
  }
  input {
    name: "_blocks.50._bn1.running_mean"
    type {
      tensor_type {
        elem_type: 1
        shape {
          dim {
            dim_value: 2304
          }
        }
      }
    }
  }
  input {
    name: "_blocks.50._bn1.running_var"
    type {
      tensor_type {
        elem_type: 1
        shape {
          dim {
            dim_value: 2304
          }
        }
      }
    }
  }
  input {
    name: "_blocks.50._bn1.num_batches_tracked"
    type {
      tensor_type {
        elem_type: 7
        shape {
        }
      }
    }
  }
  input {
    name: "_blocks.50._se_reduce.weight"
    type {
      tensor_type {
        elem_type: 1
        shape {
          dim {
            dim_value: 96
          }
          dim {
            dim_value: 2304
          }
          dim {
            dim_value: 1
          }
          dim {
            dim_value: 1
          }
        }
      }
    }
  }
  input {
    name: "_blocks.50._se_reduce.bias"
    type {
      tensor_type {
        elem_type: 1
        shape {
          dim {
            dim_value: 96
          }
        }
      }
    }
  }
  input {
    name: "_blocks.50._se_expand.weight"
    type {
      tensor_type {
        elem_type: 1
        shape {
          dim {
            dim_value: 2304
          }
          dim {
            dim_value: 96
          }
          dim {
            dim_value: 1
          }
          dim {
            dim_value: 1
          }
        }
      }
    }
  }
  input {
    name: "_blocks.50._se_expand.bias"
    type {
      tensor_type {
        elem_type: 1
        shape {
          dim {
            dim_value: 2304
          }
        }
      }
    }
  }
  input {
    name: "_blocks.50._project_conv.weight"
    type {
      tensor_type {
        elem_type: 1
        shape {
          dim {
            dim_value: 384
          }
          dim {
            dim_value: 2304
          }
          dim {
            dim_value: 1
          }
          dim {
            dim_value: 1
          }
        }
      }
    }
  }
  input {
    name: "_blocks.50._bn2.weight"
    type {
      tensor_type {
        elem_type: 1
        shape {
          dim {
            dim_value: 384
          }
        }
      }
    }
  }
  input {
    name: "_blocks.50._bn2.bias"
    type {
      tensor_type {
        elem_type: 1
        shape {
          dim {
            dim_value: 384
          }
        }
      }
    }
  }
  input {
    name: "_blocks.50._bn2.running_mean"
    type {
      tensor_type {
        elem_type: 1
        shape {
          dim {
            dim_value: 384
          }
        }
      }
    }
  }
  input {
    name: "_blocks.50._bn2.running_var"
    type {
      tensor_type {
        elem_type: 1
        shape {
          dim {
            dim_value: 384
          }
        }
      }
    }
  }
  input {
    name: "_blocks.50._bn2.num_batches_tracked"
    type {
      tensor_type {
        elem_type: 7
        shape {
        }
      }
    }
  }
  input {
    name: "_blocks.51._expand_conv.weight"
    type {
      tensor_type {
        elem_type: 1
        shape {
          dim {
            dim_value: 2304
          }
          dim {
            dim_value: 384
          }
          dim {
            dim_value: 1
          }
          dim {
            dim_value: 1
          }
        }
      }
    }
  }
  input {
    name: "_blocks.51._bn0.weight"
    type {
      tensor_type {
        elem_type: 1
        shape {
          dim {
            dim_value: 2304
          }
        }
      }
    }
  }
  input {
    name: "_blocks.51._bn0.bias"
    type {
      tensor_type {
        elem_type: 1
        shape {
          dim {
            dim_value: 2304
          }
        }
      }
    }
  }
  input {
    name: "_blocks.51._bn0.running_mean"
    type {
      tensor_type {
        elem_type: 1
        shape {
          dim {
            dim_value: 2304
          }
        }
      }
    }
  }
  input {
    name: "_blocks.51._bn0.running_var"
    type {
      tensor_type {
        elem_type: 1
        shape {
          dim {
            dim_value: 2304
          }
        }
      }
    }
  }
  input {
    name: "_blocks.51._bn0.num_batches_tracked"
    type {
      tensor_type {
        elem_type: 7
        shape {
        }
      }
    }
  }
  input {
    name: "_blocks.51._depthwise_conv.weight"
    type {
      tensor_type {
        elem_type: 1
        shape {
          dim {
            dim_value: 2304
          }
          dim {
            dim_value: 1
          }
          dim {
            dim_value: 3
          }
          dim {
            dim_value: 3
          }
        }
      }
    }
  }
  input {
    name: "_blocks.51._bn1.weight"
    type {
      tensor_type {
        elem_type: 1
        shape {
          dim {
            dim_value: 2304
          }
        }
      }
    }
  }
  input {
    name: "_blocks.51._bn1.bias"
    type {
      tensor_type {
        elem_type: 1
        shape {
          dim {
            dim_value: 2304
          }
        }
      }
    }
  }
  input {
    name: "_blocks.51._bn1.running_mean"
    type {
      tensor_type {
        elem_type: 1
        shape {
          dim {
            dim_value: 2304
          }
        }
      }
    }
  }
  input {
    name: "_blocks.51._bn1.running_var"
    type {
      tensor_type {
        elem_type: 1
        shape {
          dim {
            dim_value: 2304
          }
        }
      }
    }
  }
  input {
    name: "_blocks.51._bn1.num_batches_tracked"
    type {
      tensor_type {
        elem_type: 7
        shape {
        }
      }
    }
  }
  input {
    name: "_blocks.51._se_reduce.weight"
    type {
      tensor_type {
        elem_type: 1
        shape {
          dim {
            dim_value: 96
          }
          dim {
            dim_value: 2304
          }
          dim {
            dim_value: 1
          }
          dim {
            dim_value: 1
          }
        }
      }
    }
  }
  input {
    name: "_blocks.51._se_reduce.bias"
    type {
      tensor_type {
        elem_type: 1
        shape {
          dim {
            dim_value: 96
          }
        }
      }
    }
  }
  input {
    name: "_blocks.51._se_expand.weight"
    type {
      tensor_type {
        elem_type: 1
        shape {
          dim {
            dim_value: 2304
          }
          dim {
            dim_value: 96
          }
          dim {
            dim_value: 1
          }
          dim {
            dim_value: 1
          }
        }
      }
    }
  }
  input {
    name: "_blocks.51._se_expand.bias"
    type {
      tensor_type {
        elem_type: 1
        shape {
          dim {
            dim_value: 2304
          }
        }
      }
    }
  }
  input {
    name: "_blocks.51._project_conv.weight"
    type {
      tensor_type {
        elem_type: 1
        shape {
          dim {
            dim_value: 640
          }
          dim {
            dim_value: 2304
          }
          dim {
            dim_value: 1
          }
          dim {
            dim_value: 1
          }
        }
      }
    }
  }
  input {
    name: "_blocks.51._bn2.weight"
    type {
      tensor_type {
        elem_type: 1
        shape {
          dim {
            dim_value: 640
          }
        }
      }
    }
  }
  input {
    name: "_blocks.51._bn2.bias"
    type {
      tensor_type {
        elem_type: 1
        shape {
          dim {
            dim_value: 640
          }
        }
      }
    }
  }
  input {
    name: "_blocks.51._bn2.running_mean"
    type {
      tensor_type {
        elem_type: 1
        shape {
          dim {
            dim_value: 640
          }
        }
      }
    }
  }
  input {
    name: "_blocks.51._bn2.running_var"
    type {
      tensor_type {
        elem_type: 1
        shape {
          dim {
            dim_value: 640
          }
        }
      }
    }
  }
  input {
    name: "_blocks.51._bn2.num_batches_tracked"
    type {
      tensor_type {
        elem_type: 7
        shape {
        }
      }
    }
  }
  input {
    name: "_blocks.52._expand_conv.weight"
    type {
      tensor_type {
        elem_type: 1
        shape {
          dim {
            dim_value: 3840
          }
          dim {
            dim_value: 640
          }
          dim {
            dim_value: 1
          }
          dim {
            dim_value: 1
          }
        }
      }
    }
  }
  input {
    name: "_blocks.52._bn0.weight"
    type {
      tensor_type {
        elem_type: 1
        shape {
          dim {
            dim_value: 3840
          }
        }
      }
    }
  }
  input {
    name: "_blocks.52._bn0.bias"
    type {
      tensor_type {
        elem_type: 1
        shape {
          dim {
            dim_value: 3840
          }
        }
      }
    }
  }
  input {
    name: "_blocks.52._bn0.running_mean"
    type {
      tensor_type {
        elem_type: 1
        shape {
          dim {
            dim_value: 3840
          }
        }
      }
    }
  }
  input {
    name: "_blocks.52._bn0.running_var"
    type {
      tensor_type {
        elem_type: 1
        shape {
          dim {
            dim_value: 3840
          }
        }
      }
    }
  }
  input {
    name: "_blocks.52._bn0.num_batches_tracked"
    type {
      tensor_type {
        elem_type: 7
        shape {
        }
      }
    }
  }
  input {
    name: "_blocks.52._depthwise_conv.weight"
    type {
      tensor_type {
        elem_type: 1
        shape {
          dim {
            dim_value: 3840
          }
          dim {
            dim_value: 1
          }
          dim {
            dim_value: 3
          }
          dim {
            dim_value: 3
          }
        }
      }
    }
  }
  input {
    name: "_blocks.52._bn1.weight"
    type {
      tensor_type {
        elem_type: 1
        shape {
          dim {
            dim_value: 3840
          }
        }
      }
    }
  }
  input {
    name: "_blocks.52._bn1.bias"
    type {
      tensor_type {
        elem_type: 1
        shape {
          dim {
            dim_value: 3840
          }
        }
      }
    }
  }
  input {
    name: "_blocks.52._bn1.running_mean"
    type {
      tensor_type {
        elem_type: 1
        shape {
          dim {
            dim_value: 3840
          }
        }
      }
    }
  }
  input {
    name: "_blocks.52._bn1.running_var"
    type {
      tensor_type {
        elem_type: 1
        shape {
          dim {
            dim_value: 3840
          }
        }
      }
    }
  }
  input {
    name: "_blocks.52._bn1.num_batches_tracked"
    type {
      tensor_type {
        elem_type: 7
        shape {
        }
      }
    }
  }
  input {
    name: "_blocks.52._se_reduce.weight"
    type {
      tensor_type {
        elem_type: 1
        shape {
          dim {
            dim_value: 160
          }
          dim {
            dim_value: 3840
          }
          dim {
            dim_value: 1
          }
          dim {
            dim_value: 1
          }
        }
      }
    }
  }
  input {
    name: "_blocks.52._se_reduce.bias"
    type {
      tensor_type {
        elem_type: 1
        shape {
          dim {
            dim_value: 160
          }
        }
      }
    }
  }
  input {
    name: "_blocks.52._se_expand.weight"
    type {
      tensor_type {
        elem_type: 1
        shape {
          dim {
            dim_value: 3840
          }
          dim {
            dim_value: 160
          }
          dim {
            dim_value: 1
          }
          dim {
            dim_value: 1
          }
        }
      }
    }
  }
  input {
    name: "_blocks.52._se_expand.bias"
    type {
      tensor_type {
        elem_type: 1
        shape {
          dim {
            dim_value: 3840
          }
        }
      }
    }
  }
  input {
    name: "_blocks.52._project_conv.weight"
    type {
      tensor_type {
        elem_type: 1
        shape {
          dim {
            dim_value: 640
          }
          dim {
            dim_value: 3840
          }
          dim {
            dim_value: 1
          }
          dim {
            dim_value: 1
          }
        }
      }
    }
  }
  input {
    name: "_blocks.52._bn2.weight"
    type {
      tensor_type {
        elem_type: 1
        shape {
          dim {
            dim_value: 640
          }
        }
      }
    }
  }
  input {
    name: "_blocks.52._bn2.bias"
    type {
      tensor_type {
        elem_type: 1
        shape {
          dim {
            dim_value: 640
          }
        }
      }
    }
  }
  input {
    name: "_blocks.52._bn2.running_mean"
    type {
      tensor_type {
        elem_type: 1
        shape {
          dim {
            dim_value: 640
          }
        }
      }
    }
  }
  input {
    name: "_blocks.52._bn2.running_var"
    type {
      tensor_type {
        elem_type: 1
        shape {
          dim {
            dim_value: 640
          }
        }
      }
    }
  }
  input {
    name: "_blocks.52._bn2.num_batches_tracked"
    type {
      tensor_type {
        elem_type: 7
        shape {
        }
      }
    }
  }
  input {
    name: "_blocks.53._expand_conv.weight"
    type {
      tensor_type {
        elem_type: 1
        shape {
          dim {
            dim_value: 3840
          }
          dim {
            dim_value: 640
          }
          dim {
            dim_value: 1
          }
          dim {
            dim_value: 1
          }
        }
      }
    }
  }
  input {
    name: "_blocks.53._bn0.weight"
    type {
      tensor_type {
        elem_type: 1
        shape {
          dim {
            dim_value: 3840
          }
        }
      }
    }
  }
  input {
    name: "_blocks.53._bn0.bias"
    type {
      tensor_type {
        elem_type: 1
        shape {
          dim {
            dim_value: 3840
          }
        }
      }
    }
  }
  input {
    name: "_blocks.53._bn0.running_mean"
    type {
      tensor_type {
        elem_type: 1
        shape {
          dim {
            dim_value: 3840
          }
        }
      }
    }
  }
  input {
    name: "_blocks.53._bn0.running_var"
    type {
      tensor_type {
        elem_type: 1
        shape {
          dim {
            dim_value: 3840
          }
        }
      }
    }
  }
  input {
    name: "_blocks.53._bn0.num_batches_tracked"
    type {
      tensor_type {
        elem_type: 7
        shape {
        }
      }
    }
  }
  input {
    name: "_blocks.53._depthwise_conv.weight"
    type {
      tensor_type {
        elem_type: 1
        shape {
          dim {
            dim_value: 3840
          }
          dim {
            dim_value: 1
          }
          dim {
            dim_value: 3
          }
          dim {
            dim_value: 3
          }
        }
      }
    }
  }
  input {
    name: "_blocks.53._bn1.weight"
    type {
      tensor_type {
        elem_type: 1
        shape {
          dim {
            dim_value: 3840
          }
        }
      }
    }
  }
  input {
    name: "_blocks.53._bn1.bias"
    type {
      tensor_type {
        elem_type: 1
        shape {
          dim {
            dim_value: 3840
          }
        }
      }
    }
  }
  input {
    name: "_blocks.53._bn1.running_mean"
    type {
      tensor_type {
        elem_type: 1
        shape {
          dim {
            dim_value: 3840
          }
        }
      }
    }
  }
  input {
    name: "_blocks.53._bn1.running_var"
    type {
      tensor_type {
        elem_type: 1
        shape {
          dim {
            dim_value: 3840
          }
        }
      }
    }
  }
  input {
    name: "_blocks.53._bn1.num_batches_tracked"
    type {
      tensor_type {
        elem_type: 7
        shape {
        }
      }
    }
  }
  input {
    name: "_blocks.53._se_reduce.weight"
    type {
      tensor_type {
        elem_type: 1
        shape {
          dim {
            dim_value: 160
          }
          dim {
            dim_value: 3840
          }
          dim {
            dim_value: 1
          }
          dim {
            dim_value: 1
          }
        }
      }
    }
  }
  input {
    name: "_blocks.53._se_reduce.bias"
    type {
      tensor_type {
        elem_type: 1
        shape {
          dim {
            dim_value: 160
          }
        }
      }
    }
  }
  input {
    name: "_blocks.53._se_expand.weight"
    type {
      tensor_type {
        elem_type: 1
        shape {
          dim {
            dim_value: 3840
          }
          dim {
            dim_value: 160
          }
          dim {
            dim_value: 1
          }
          dim {
            dim_value: 1
          }
        }
      }
    }
  }
  input {
    name: "_blocks.53._se_expand.bias"
    type {
      tensor_type {
        elem_type: 1
        shape {
          dim {
            dim_value: 3840
          }
        }
      }
    }
  }
  input {
    name: "_blocks.53._project_conv.weight"
    type {
      tensor_type {
        elem_type: 1
        shape {
          dim {
            dim_value: 640
          }
          dim {
            dim_value: 3840
          }
          dim {
            dim_value: 1
          }
          dim {
            dim_value: 1
          }
        }
      }
    }
  }
  input {
    name: "_blocks.53._bn2.weight"
    type {
      tensor_type {
        elem_type: 1
        shape {
          dim {
            dim_value: 640
          }
        }
      }
    }
  }
  input {
    name: "_blocks.53._bn2.bias"
    type {
      tensor_type {
        elem_type: 1
        shape {
          dim {
            dim_value: 640
          }
        }
      }
    }
  }
  input {
    name: "_blocks.53._bn2.running_mean"
    type {
      tensor_type {
        elem_type: 1
        shape {
          dim {
            dim_value: 640
          }
        }
      }
    }
  }
  input {
    name: "_blocks.53._bn2.running_var"
    type {
      tensor_type {
        elem_type: 1
        shape {
          dim {
            dim_value: 640
          }
        }
      }
    }
  }
  input {
    name: "_blocks.53._bn2.num_batches_tracked"
    type {
      tensor_type {
        elem_type: 7
        shape {
        }
      }
    }
  }
  input {
    name: "_blocks.54._expand_conv.weight"
    type {
      tensor_type {
        elem_type: 1
        shape {
          dim {
            dim_value: 3840
          }
          dim {
            dim_value: 640
          }
          dim {
            dim_value: 1
          }
          dim {
            dim_value: 1
          }
        }
      }
    }
  }
  input {
    name: "_blocks.54._bn0.weight"
    type {
      tensor_type {
        elem_type: 1
        shape {
          dim {
            dim_value: 3840
          }
        }
      }
    }
  }
  input {
    name: "_blocks.54._bn0.bias"
    type {
      tensor_type {
        elem_type: 1
        shape {
          dim {
            dim_value: 3840
          }
        }
      }
    }
  }
  input {
    name: "_blocks.54._bn0.running_mean"
    type {
      tensor_type {
        elem_type: 1
        shape {
          dim {
            dim_value: 3840
          }
        }
      }
    }
  }
  input {
    name: "_blocks.54._bn0.running_var"
    type {
      tensor_type {
        elem_type: 1
        shape {
          dim {
            dim_value: 3840
          }
        }
      }
    }
  }
  input {
    name: "_blocks.54._bn0.num_batches_tracked"
    type {
      tensor_type {
        elem_type: 7
        shape {
        }
      }
    }
  }
  input {
    name: "_blocks.54._depthwise_conv.weight"
    type {
      tensor_type {
        elem_type: 1
        shape {
          dim {
            dim_value: 3840
          }
          dim {
            dim_value: 1
          }
          dim {
            dim_value: 3
          }
          dim {
            dim_value: 3
          }
        }
      }
    }
  }
  input {
    name: "_blocks.54._bn1.weight"
    type {
      tensor_type {
        elem_type: 1
        shape {
          dim {
            dim_value: 3840
          }
        }
      }
    }
  }
  input {
    name: "_blocks.54._bn1.bias"
    type {
      tensor_type {
        elem_type: 1
        shape {
          dim {
            dim_value: 3840
          }
        }
      }
    }
  }
  input {
    name: "_blocks.54._bn1.running_mean"
    type {
      tensor_type {
        elem_type: 1
        shape {
          dim {
            dim_value: 3840
          }
        }
      }
    }
  }
  input {
    name: "_blocks.54._bn1.running_var"
    type {
      tensor_type {
        elem_type: 1
        shape {
          dim {
            dim_value: 3840
          }
        }
      }
    }
  }
  input {
    name: "_blocks.54._bn1.num_batches_tracked"
    type {
      tensor_type {
        elem_type: 7
        shape {
        }
      }
    }
  }
  input {
    name: "_blocks.54._se_reduce.weight"
    type {
      tensor_type {
        elem_type: 1
        shape {
          dim {
            dim_value: 160
          }
          dim {
            dim_value: 3840
          }
          dim {
            dim_value: 1
          }
          dim {
            dim_value: 1
          }
        }
      }
    }
  }
  input {
    name: "_blocks.54._se_reduce.bias"
    type {
      tensor_type {
        elem_type: 1
        shape {
          dim {
            dim_value: 160
          }
        }
      }
    }
  }
  input {
    name: "_blocks.54._se_expand.weight"
    type {
      tensor_type {
        elem_type: 1
        shape {
          dim {
            dim_value: 3840
          }
          dim {
            dim_value: 160
          }
          dim {
            dim_value: 1
          }
          dim {
            dim_value: 1
          }
        }
      }
    }
  }
  input {
    name: "_blocks.54._se_expand.bias"
    type {
      tensor_type {
        elem_type: 1
        shape {
          dim {
            dim_value: 3840
          }
        }
      }
    }
  }
  input {
    name: "_blocks.54._project_conv.weight"
    type {
      tensor_type {
        elem_type: 1
        shape {
          dim {
            dim_value: 640
          }
          dim {
            dim_value: 3840
          }
          dim {
            dim_value: 1
          }
          dim {
            dim_value: 1
          }
        }
      }
    }
  }
  input {
    name: "_blocks.54._bn2.weight"
    type {
      tensor_type {
        elem_type: 1
        shape {
          dim {
            dim_value: 640
          }
        }
      }
    }
  }
  input {
    name: "_blocks.54._bn2.bias"
    type {
      tensor_type {
        elem_type: 1
        shape {
          dim {
            dim_value: 640
          }
        }
      }
    }
  }
  input {
    name: "_blocks.54._bn2.running_mean"
    type {
      tensor_type {
        elem_type: 1
        shape {
          dim {
            dim_value: 640
          }
        }
      }
    }
  }
  input {
    name: "_blocks.54._bn2.running_var"
    type {
      tensor_type {
        elem_type: 1
        shape {
          dim {
            dim_value: 640
          }
        }
      }
    }
  }
  input {
    name: "_blocks.54._bn2.num_batches_tracked"
    type {
      tensor_type {
        elem_type: 7
        shape {
        }
      }
    }
  }
  input {
    name: "_conv_head.weight"
    type {
      tensor_type {
        elem_type: 1
        shape {
          dim {
            dim_value: 2560
          }
          dim {
            dim_value: 640
          }
          dim {
            dim_value: 1
          }
          dim {
            dim_value: 1
          }
        }
      }
    }
  }
  input {
    name: "_bn1.weight"
    type {
      tensor_type {
        elem_type: 1
        shape {
          dim {
            dim_value: 2560
          }
        }
      }
    }
  }
  input {
    name: "_bn1.bias"
    type {
      tensor_type {
        elem_type: 1
        shape {
          dim {
            dim_value: 2560
          }
        }
      }
    }
  }
  input {
    name: "_bn1.running_mean"
    type {
      tensor_type {
        elem_type: 1
        shape {
          dim {
            dim_value: 2560
          }
        }
      }
    }
  }
  input {
    name: "_bn1.running_var"
    type {
      tensor_type {
        elem_type: 1
        shape {
          dim {
            dim_value: 2560
          }
        }
      }
    }
  }
  input {
    name: "_bn1.num_batches_tracked"
    type {
      tensor_type {
        elem_type: 7
        shape {
        }
      }
    }
  }
  input {
    name: "_fc.weight"
    type {
      tensor_type {
        elem_type: 1
        shape {
          dim {
            dim_value: 1000
          }
          dim {
            dim_value: 2560
          }
        }
      }
    }
  }
  input {
    name: "_fc.bias"
    type {
      tensor_type {
        elem_type: 1
        shape {
          dim {
            dim_value: 1000
          }
        }
      }
    }
  }
  output {
    name: "2241"
    type {
      tensor_type {
        elem_type: 1
        shape {
          dim {
            dim_value: 1
          }
          dim {
            dim_value: 1000
          }
        }
      }
    }
  }
}
opset_import {
  version: 10
}
